D.pth (torch, 360510 bytes, 11 tensors)

weight f4 [784, 10]
0	0xbe10a961	-0.14127113
1	0x3dbee455	0.09320895
2	0x3d15d317	0.036578264
3	0xbe25d48d	-0.16194363
4	0x3e709e7d	0.23497958
5	0x3db6d0d8	0.089265525
6	0x3dcb79ca	0.09935339
7	0x3e1bdd2e	0.15221092
8	0x3e850672	0.2598148
9	0xbd7273be	-0.05919241
10	0xbe40c1f5	-0.18823989
11	0xbe41f549	-0.18941225
12	0xbc0c4dd2	-0.008563476
13	0xbc542f7b	-0.012950773
14	0x3d3b36d3	0.04570658
15	0x3dbc2f19	0.09188671
16	0x3e33da87	0.1756383
17	0xbe90ab57	-0.28255722
18	0x3d3acb8c	0.045604274
19	0xbe58dc1b	-0.21177714
20	0x3e153d9c	0.14574283
21	0xbe883dbf	-0.2660961
22	0xbe334883	-0.1750813
23	0xbc68ee24	-0.014216933
24	0xbbc7745c	-0.006086869
25	0x3aa0948c	0.0012251302
26	0xbc9ca95e	-0.01912373
27	0xbe8a42c5	-0.27004066
28	0xbcded977	-0.027203305
29	0x3e32af99	0.17449798
30	0x3e73a237	0.23792349
31	0x3d971c4a	0.073784426
32	0xbdfb4ee2	-0.12270905
33	0x3e3f1da1	0.18663646
34	0x3d4c5bd7	0.049892273
35	0x3e647bf9	0.22312917
36	0xbe4fcaa8	-0.20292151
37	0x3da63ce6	0.08117084
38	0xbe93324e	-0.28749317
39	0xbe4f50a9	-0.20245613
40	0xbd66aee0	-0.056319118
41	0xbe500f79	-0.20318402
42	0xbd79ad06	-0.060956024
43	0x3e726f04	0.23675162
44	0x3ddfbe47	0.109249644
45	0xbdb9f0dc	-0.090791434
46	0xbe98cdd3	-0.2984453
47	0xbe52a844	-0.20572
48	0xbe992b93	-0.29916057
49	0x3e4fbb96	0.20286402
50	0xbd81d076	-0.06338589
51	0xbd5d6249	-0.05404881
52	0x3e22c764	0.15896374
53	0x3e75fe08	0.24022686
54	0xbd85591e	-0.065111384
55	0x3e3a4d78	0.18193614
56	0x3e3c026a	0.18360296
57	0xbc5caf3b	-0.013469513
58	0x3e749550	0.23885083
59	0x3cb6d538	0.022318467
60	0xbe81450e	-0.25247997
61	0xbe264c2f	-0.16239999
62	0x3dd96b00	0.10616112
63	0xbe3e832c	-0.18604726
64	0xbd999d2a	-0.0750068
65	0xbe4d97ee	-0.20077488
66	0x3e47b8df	0.19504116
67	0xbe40a474	-0.18812734
68	0x3e2d5f85	0.16930969
69	0x3dedce05	0.11611561
70	0x3cda6c2a	0.026662905
71	0xbe78dea8	-0.24303687
72	0x3e4fafbe	0.20281884
73	0xbe94f4e6	-0.29093093
74	0xbe1ec66a	-0.15505376
75	0xbeaa741b	-0.33291706
76	0x3e5ed9e6	0.21762809
77	0xbe8e9668	-0.27849126
78	0xbe88b6e6	-0.2670204
79	0x3d4cac93	0.049969267
80	0xbe51e613	-0.20497923
81	0x3e16f5ac	0.14742154
82	0xbcef0581	-0.02917743
83	0xbe14b4f4	-0.14522153
84	0xbe28fb05	-0.16502006
85	0xbe68886a	-0.22708288
86	0x3dbc782c	0.092026085
87	0xbe1999ea	-0.1500012
88	0xbeb4578f	-0.35223052
89	0xbe319d70	-0.17345214
90	0xbe25ffdb	-0.16210882
91	0x3ea90b25	0.33016315
92	0x3e8f9c1d	0.28048792
93	0x3d862e34	0.06551781
94	0x3dbb9a78	0.09160322
95	0x3ded6441	0.115913875
96	0xbeae1729	-0.34002045
97	0x3e8c9a1c	0.27461326
98	0xbe0df6cf	-0.13863681
99	0xbe986db6	-0.29771203
100	0x3df68d7b	0.12038704
101	0xbe26c7c0	-0.16287136
102	0xbdef558a	-0.11686237
103	0xbdab557f	-0.083659165
104	0xbdfb98f4	-0.12285033
105	0xbbc9f513	-0.0061632483
106	0xbe889dc1	-0.26682857
107	0x3dc3ed7a	0.095667794
108	0xbe6ef8be	-0.23337075
109	0xbd825125	-0.06363133
110	0xbe48b531	-0.19600369
111	0xbce1746a	-0.02752133
112	0xbcd4b8da	-0.02596705
113	0x3e83dd10	0.25754595
114	0xbe48ae32	-0.195977
115	0x3e00f587	0.12593661
116	0xbd07ddb9	-0.033170436
117	0xbd94b0db	-0.07260295
118	0xbdb053da	-0.086097434
119	0x3e0cf71a	0.13766137
120	0xbdf5d0a7	-0.12002688
121	0x3e66b089	0.2252828
122	0xbd8cb7c3	-0.06870987
123	0x3d73994c	0.059472367
124	0x3e6f5067	0.23370515
125	0xbda91c11	-0.08257306
126	0x3dc156bc	0.094403714
127	0xbe8dc600	-0.27690125
128	0xbdf24bf5	-0.11830894
129	0x3e1cb0bd	0.15301795
130	0x3e42572a	0.18978563
131	0x3c8f9e7a	0.017531622
132	0xbd756e89	-0.059919868
133	0xbde90797	-0.11378401
134	0xbe8d31f2	-0.27577168
135	0xbe8cc99c	-0.27497566
136	0x3e93ff07	0.28905508
137	0xbea7f94b	-0.32807383
138	0x3d008194	0.031373575
139	0xbeb451cd	-0.3521866
140	0xbdba7738	-0.091047704
141	0x3d665013	0.05622871
142	0xbe371a7d	-0.17881198
143	0x3e54368b	0.20723931
144	0x3da893fe	0.08231352
145	0x3e84cfe7	0.25939867
146	0xbd85f49f	-0.065407984
147	0x3e196f1d	0.14983793
148	0x3eb614d5	0.3556277
149	0x3d2347fc	0.03986357
150	0x3e61db79	0.22056378
151	0x3e94b3af	0.29043338
152	0x3eaf6ff4	0.342651
153	0xbe3d420b	-0.18482225
154	0xbe96712b	-0.29383215
155	0x3e4288dc	0.1899752
156	0xbea34af7	-0.3189313
157	0xbe006103	-0.12537007
158	0xbdbcca45	-0.09218267
159	0x3c99be0a	0.018767375
160	0xbe8f91ae	-0.28040832
161	0x3eaae282	0.33375937
162	0xbe231257	-0.15924965
163	0xbe368d97	-0.1782745
164	0xbd3430f4	-0.043991998
165	0x38cc7941	9.750063e-05
166	0xbede4656	-0.43413037
167	0xbc8f3cce	-0.017485049
168	0xbe75a0af	-0.23987077
169	0xbda71bb1	-0.081595786
170	0x3e1002e7	0.14063607
171	0xbd5d0102	-0.05395604
172	0xbdda04c6	-0.10645442
173	0xbdecabbd	-0.11556194
174	0xbd3a5ba2	-0.045497544
175	0x3e5f7453	0.21821718
176	0xbec42bb3	-0.3831459
177	0xbe5e3500	-0.21699905
178	0xbe22b749	-0.1589023
179	0x3ebaefd6	0.36511105
180	0xbe380a5e	-0.17972705
181	0xbda456f3	-0.08024397
182	0x3eadd2f1	0.33949998
183	0x3e0edd1a	0.13951531
184	0xbe868106	-0.26270312
185	0x3e81554f	0.25260398
186	0x3d6353aa	0.05549971
187	0xbe24cd55	-0.16093953
188	0x3d0479e6	0.032342814
189	0x3cf715a7	0.030161692
190	0xbe9de215	-0.3083655
191	0x3d2dd881	0.042442802
192	0xbe89af43	-0.26891527
193	0x3e9971e3	0.299697
194	0x3e625175	0.22101386
195	0x3dee25fd	0.116283394
196	0xbe82d468	-0.25552678
197	0xbe1c52a1	-0.15265895
198	0x3df6527d	0.12027452
199	0x3d88153f	0.06644677
200	0x3e0f0aba	0.13968936
201	0xbe5fa6eb	-0.21841018
202	0xbdedec9a	-0.11617394
203	0xbe080718	-0.13283956
204	0xbdbc8349	-0.09204728
205	0xbe486abd	-0.19571967
206	0xbe881433	-0.2657791
207	0xbe46bdd9	-0.19408359
208	0x3e3f45e4	0.18679005
209	0xbdc75098	-0.09732169
210	0x3d175d9b	0.036954504
211	0xbe9613ea	-0.29312068
212	0xbe6079cc	-0.21921462
213	0xbde82e72	-0.11336984
214	0x3e8005c9	0.25004414
215	0xbe0f4931	-0.13992764
216	0x3ec3f6d9	0.38274267
217	0x3d92d1e9	0.071689434
218	0xbe2b0ea4	-0.16704804
219	0xbeb16fd7	-0.3465564
220	0xbe19dd2c	-0.15025777
221	0x3c8d7310	0.01726678
222	0xbe8de083	-0.2771035
223	0xbe2001d3	-0.15625696
224	0xbe7df519	-0.24800529
225	0x3d6d0df4	0.057874635
226	0x3debf5ee	0.11521517
227	0x3c6782fa	0.014130348
228	0xbe44fe46	-0.19237623
229	0xbe12d52f	-0.14339136
230	0xbbf3cc89	-0.007440154
231	0x3e124e2e	0.14287636
232	0x3c5a56a4	0.013326321
233	0xbe09d4b2	-0.13460043
234	0x3db75524	0.08951786
235	0xbcff05bf	-0.03113067
236	0x3d9c0844	0.07618764
237	0x3e4bfc21	0.19920398
238	0x3d00ec89	0.031475578
239	0xbd4fd675	-0.05074163
240	0xbd88e7b6	-0.0668482
241	0xbe1aac5f	-0.15104817
242	0x3e6828f2	0.2267187
243	0x3e63c31d	0.22242399
244	0xbc1e2146	-0.009651488
245	0xbd9b0d47	-0.07570892
246	0x3de26362	0.11054112
247	0x3cdf204f	0.027237086
248	0xbdf2576e	-0.11833082
249	0x3e680441	0.22657873
250	0xbe3afe04	-0.18260962
251	0xbe701918	-0.23447073
252	0x3d5e6d50	0.054303467
253	0xbd1db880	-0.03850603
254	0x3c900606	0.017580997
255	0x3d15a9ff	0.036539074

bias f4 [784]
0	0x3e0d794e	0.13815805
1	0x3d843cdc	0.064569205
2	0xbd8d92f6	-0.06912796
3	0xbc15be83	-0.00913966
4	0xbe095bd3	-0.13413934
5	0xbe8f7f77	-0.28026935
6	0x3e5af0bb	0.21380894
7	0xbeb6c4a8	-0.35696912
8	0xbe39bef3	-0.18139248
9	0x3af7204d	0.0018854231
10	0x3d23557b	0.039876442
11	0xbda98cf6	-0.08278839
12	0xbe03d96e	-0.12875912
13	0x3a184d10	0.0005809823
14	0x3e55e87a	0.20889464
15	0x3e94b9de	0.29048055
16	0xbd6faf2d	-0.05851667
17	0x3e1f1246	0.15534315
18	0xbe88265c	-0.26591766
19	0x3e93ed87	0.28892156
20	0x3e00bcca	0.12572017
21	0xbe3f6a15	-0.18692811
22	0x3e0ff916	0.14059862
23	0x3e187532	0.14888456
24	0x3e304e94	0.17217475
25	0xbe225d1e	-0.15855834
26	0x3e6a3e77	0.22875391
27	0x3ce53df1	0.027983638
28	0x3e130c32	0.14360121
29	0xbe7afa0d	-0.2450945
30	0xbda72522	-0.081613794
31	0xbe637b68	-0.22215044
32	0x3e015f85	0.12634094
33	0xbddfc654	-0.109265
34	0x3e1a59fa	0.15073386
35	0x3e1c341f	0.15254258
36	0x3e883536	0.26603097
37	0xbe2cadf3	-0.16863231
38	0xbe6883e6	-0.22706565
39	0x3eab9bbc	0.33517253
40	0xbd9233b2	-0.07138766
41	0x3da9796e	0.08275114
42	0x3e58d350	0.2117436
43	0x3de0d4aa	0.109780625
44	0xbdbfcd99	-0.093653865
45	0x3e395168	0.1809746
46	0x3e8720b9	0.26392153
47	0x3eafe17e	0.34351724
48	0xbe7300c6	-0.23730764
49	0x3c9d4cf4	0.019201733
50	0xbe0e7088	-0.13910115
51	0x3e31a80f	0.17349266
52	0x3e84058c	0.25785482
53	0xbcadffa2	-0.02124006
54	0xbe6c27ea	-0.23062101
55	0x3dd666b4	0.10468808
56	0xbe4f041f	-0.20216416
57	0x3e0a2e29	0.13494171
58	0xbd596fee	-0.05308526
59	0xbdc6da17	-0.09709566
60	0x3ed266f2	0.41094166
61	0xbe78a8ef	-0.24283193
62	0xbd9584f7	-0.07300752
63	0xbdb4e02d	-0.08831821
64	0xbd84672e	-0.064649925
65	0xbcd59c22	-0.026075426
66	0x3d2d3112	0.042283125
67	0x3e960480	0.29300308
68	0xbb0ba6c6	-0.0021309122
69	0xbd928ec3	-0.07156136
70	0x3e0d5c7b	0.1380481
71	0x3df19425	0.117958345
72	0x3d3c7df8	0.04601857
73	0xbd6223e8	-0.055210024
74	0x3e8acedf	0.27110955
75	0x3e1bb9f0	0.15207648
76	0xbea62426	-0.32449454
77	0xbea9683b	-0.33087334
78	0x3da81072	0.08206262
79	0xbd8dc0f2	-0.06921567
80	0xbd94984d	-0.072556116
81	0x3d0a4ce3	0.03376473
82	0x3d84f668	0.06492311
83	0x3dfbad9a	0.12288971
84	0xbe14915f	-0.1450858
85	0xbde83445	-0.113380946
86	0xbdecd96c	-0.115649074
87	0x3da21a7f	0.0791521
88	0x3e3d4779	0.18484296
89	0xbe486011	-0.19567896
90	0xbe0c1d15	-0.13682969
91	0x3e1b02db	0.15137808
92	0x3dd2b138	0.10287708
93	0x3db011e6	0.08597164
94	0xbcbdb2c2	-0.023156527
95	0xbd83ccc3	-0.064355396
96	0xbe3bd5ab	-0.18343227
97	0x3e0966ce	0.13418123
98	0xbe492c1b	-0.19645731
99	0x3e3fcadf	0.18729733
100	0xbe827969	-0.25483254
101	0xbe4df9ca	-0.20114818
102	0x3eaad27c	0.33363712
103	0xbd413fbf	-0.047179934
104	0x3bc0c594	0.005882928
105	0xbe1d9f90	-0.153929
106	0xbda6fe6d	-0.081539966
107	0xbea8c458	-0.32962298
108	0xbe38da5f	-0.18052052
109	0x3e78b3db	0.2428736
110	0xbd96966b	-0.07352909
111	0x3e7322fc	0.23743814
112	0x3e1d5039	0.15362634
113	0xbca60927	-0.020268036
114	0xbd8b8b50	-0.06813681
115	0xbe26be56	-0.16283545
116	0x3e899efe	0.26879114
117	0x3c874a1c	0.01651483
118	0x3deb0d08	0.11477095
119	0xbe50b541	-0.20381643
120	0xbd125d5d	-0.03573357
121	0x3d3b6a2d	0.045755554
122	0xbdd49277	-0.103794985
123	0x3ea04789	0.31304577
124	0xbe002c08	-0.12516797
125	0x3d0c98a1	0.034325246
126	0x3eb672ad	0.35634366
127	0x3d4a7b38	0.049433917
128	0xbe06d92f	-0.13168786
129	0xbda86f08	-0.082243025
130	0xbe25f250	-0.16205716
131	0xbea1e6ab	-0.31621298
132	0x3e7164ef	0.2357366
133	0xbd909f71	-0.07061661
134	0xbd0524f4	-0.032505944
135	0x3c2b4226	0.010452783
136	0x3e9359ed	0.28779545
137	0x3e8e6065	0.27807918
138	0x3dbf66d1	0.093457825
139	0x3e21bc13	0.15794401
140	0xbe6bb140	-0.23016834
141	0xbe92e8b7	-0.28693172
142	0x3e90e43d	0.28299132
143	0xbe25bacc	-0.16184539
144	0xbe5c7537	-0.21529089
145	0xbe4b4a79	-0.19852628
146	0x3e0e2ca6	0.1388422
147	0x3e8d6410	0.27615404
148	0xbe8bcdc9	-0.2730544
149	0xbd09b85a	-0.033623077
150	0x3eabf7c4	0.33587468
151	0x3e291a50	0.16513944
152	0x3e7c252e	0.24623558
153	0x3e9df228	0.30848813
154	0x3e416d58	0.18889368
155	0x3ca89eb4	0.020583488
156	0x3e8b6f1f	0.27233216
157	0x3e0fdcf9	0.14049138
158	0xbe2b22d9	-0.16712512
159	0xbdf1a37e	-0.11798762
160	0xbd930837	-0.07179301
161	0x3e5c8649	0.215356
162	0xb9906878	-0.00027543656
163	0xbe132eb5	-0.14373286
164	0xbd1c6fb5	-0.03819247
165	0x3e22ab8a	0.1588575
166	0x3d6a45d1	0.05719549
167	0x3e546faf	0.20745729
168	0x3ea52b93	0.32259807
169	0xbe87b340	-0.26503944
170	0xbde19913	-0.11015525
171	0x3d798a67	0.060923006
172	0x3e91cead	0.28477994
173	0xbd5ab259	-0.05339274
174	0x3df91b50	0.121634126
175	0xbd746f88	-0.059676677
176	0xbe90ec07	-0.28305075
177	0xbe43cdf3	-0.19121532
178	0xbdbba52c	-0.091623634
179	0x3eb8a317	0.36061928
180	0x3e8cb266	0.27479857
181	0x3e3a3ca6	0.18187198
182	0x3dcd6a8b	0.10030087
183	0xbd15a106	-0.036530517
184	0x3db27e78	0.08715528
185	0xbe781870	-0.24228072
186	0x3e2c3cae	0.16820022
187	0x3d897918	0.0671255
188	0x3e3f1e94	0.18664008
189	0xbd80b365	-0.06284217
190	0x3d7d30a3	0.06181396
191	0x3d0d512e	0.034501247
192	0xbe5381f0	-0.20655036
193	0xbe57596b	-0.21030204
194	0x3e82dd5b	0.25559506
195	0xbe60ba7c	-0.21946138
196	0x3e5000ea	0.20312849
197	0xbe3218ce	-0.17392275
198	0xbe8ae4ad	-0.2712759
199	0xbe3b2fe6	-0.1827999
200	0x3d008639	0.031378005
201	0xbda9bef1	-0.08288372
202	0xbe8bd631	-0.27311853
203	0xbe19d154	-0.15021259
204	0xbde7e1ae	-0.11322342
205	0xbd8667df	-0.065627806
206	0x3d2f2cdf	0.0427674
207	0xbd95c2cb	-0.073125444
208	0x3e5ff9de	0.2187266
209	0xbd4648a0	-0.048409104
210	0x3e0b4c9c	0.13603443
211	0xbe6a0e7b	-0.22857086
212	0xbe1ac797	-0.151152
213	0x3e5f116e	0.21783993
214	0xbd5833ca	-0.052783765
215	0xbcc0e4ea	-0.023546655
216	0xbe00bb2e	-0.12571403
217	0x3e6b6628	0.22988188
218	0x3daea9e6	0.08528499
219	0x3d82f9f1	0.06395329
220	0xbdce07d3	-0.10060086
221	0x3e10a839	0.14126672
222	0xbe5d936d	-0.2163827
223	0x3dafdb83	0.085867904
224	0xbe3a25b6	-0.18178448
225	0xbc620f3a	-0.013797576
226	0xbec3edcf	-0.3826737
227	0x3e673734	0.22579652
228	0xbe177b9d	-0.14793248
229	0x3ea47809	0.3212283
230	0xbdd0bc89	-0.1019221
231	0xbc130e1d	-0.008975533
232	0x3dd5568a	0.10416897
233	0x3e874364	0.26418602
234	0x3d501e0c	0.050809905
235	0x3c6db56a	0.0145085845
236	0x3ea0ce8c	0.31407583
237	0xbbeac38a	-0.0071644234
238	0x3de6d67e	0.1127138
239	0x3dd2d167	0.102938466
240	0x3e67adc8	0.22624886
241	0xbcbdab74	-0.023153044
242	0x3e634679	0.22194852
243	0x3dd955c1	0.106120594
244	0xbe5c24ba	-0.21498385
245	0xbe59db07	-0.21274959
246	0xbdf618a4	-0.120164186
247	0xbdfdcd38	-0.12392658
248	0x3cf2e73c	0.029651277
249	0xbea38670	-0.31938505
250	0xbe9c82d0	-0.30568552
251	0xbe0b15ec	-0.13582581
252	0xbe500564	-0.20314556
253	0xbe3dc46f	-0.18531965
254	0x3e9adb83	0.302456
255	0x3b5cd38a	0.0033695423

weight f4 [64, 2, 3, 3]
0	0x3c86db5b	0.016462019
1	0xbe2bc125	-0.16772898
2	0x3e82eee1	0.25572875
3	0x3e8439c1	0.25825313
4	0xbe97dc75	-0.29660383
5	0x3dbb60fb	0.09149357
6	0xbc6135c0	-0.013745725
7	0x3e620aab	0.22074382
8	0xbe797a0e	-0.24362966
9	0x3e25e7af	0.16201662
10	0xbc9e7b0d	-0.019345785
11	0xbe55c780	-0.20876884
12	0x3d47670c	0.048682258
13	0x3d99972d	0.074995376
14	0xbe2bcf68	-0.16778338
15	0x3e2a13d9	0.16609134
16	0xbcc3c34b	-0.023896834
17	0xbd53d4b0	-0.051716506
18	0xbc7020d6	-0.014656266
19	0xbd2bb217	-0.041917887
20	0x3df3cd3a	0.11904378
21	0xbd8b333c	-0.067968816
22	0x3d92455f	0.07142138
23	0x3d9c5794	0.07633892
24	0x3d9c2dcd	0.07625923
25	0xbca7d6f0	-0.020488232
26	0x3cf7fb77	0.030271275
27	0xbd1a54ab	-0.037678402
28	0x3e661302	0.22468188
29	0xbe036bf4	-0.1283415
30	0xbdf02dd2	-0.117274895
31	0xbddc908e	-0.10769759
32	0x3e679dec	0.22618836
33	0x3e574068	0.21020663
34	0xbe6a5fc8	-0.228881
35	0x3d800e47	0.06252723
36	0xbe46a6d8	-0.19399583
37	0xbdeb6be8	-0.11495191
38	0xbe301e84	-0.17199141
39	0x3e9e2208	0.3088534
40	0x3d36529e	0.044512384
41	0xbde36efc	-0.11105153
42	0xbe011976	-0.12607369
43	0xbd4e8535	-0.050420005
44	0x3e91cc6c	0.28476274
45	0xbe373f89	-0.1789533
46	0x3e269be3	0.16270404
47	0xbde48340	-0.111578465
48	0xbe321ebe	-0.1739454
49	0xbe075787	-0.13216983
50	0x3c937df9	0.018004404
51	0x3d507e0a	0.05090145
52	0x3ccf201e	0.02528387
53	0xbd395813	-0.04525001
54	0x3e9400b8	0.28906798
55	0x3e851f8b	0.26000628
56	0xbda731e7	-0.08163815
57	0xbc8abcff	-0.016935823
58	0xbe1fb012	-0.15594509
59	0xbd8b07e2	-0.06788613
60	0x3e35bdd0	0.17748189
61	0x3df579d7	0.1198613
62	0xbe8fcc5f	-0.2808561
63	0x3db7e546	0.08979277
64	0x3c6b7e2c	0.014373343
65	0xbc9af2d6	-0.018914621
66	0xbd2a32e7	-0.04155245
67	0xbe48376c	-0.19552392
68	0x3e2fcd34	0.17168123
69	0x3d473695	0.048636038
70	0x3ce58c3d	0.028020972
71	0x3da6c0ca	0.0814224
72	0x3cdfc1f3	0.027314162
73	0x3e8a3f1d	0.27001277
74	0x3dd011a8	0.10159618
75	0x3d2bc7d7	0.04193863
76	0xbace0471	-0.0015717876
77	0xbe079d48	-0.13243592
78	0x3cbbb2e6	0.022912454
79	0x3e5a05e9	0.21291317
80	0xbe6070a5	-0.2191797
81	0xbd5cd76c	-0.05391638
82	0x3e554bc1	0.20829679
83	0xbe8b04ec	-0.27152193
84	0x3df7a217	0.12091463
85	0x3d569d32	0.052396007
86	0x3deb9660	0.11503291
87	0xbe653a61	-0.22385551
88	0x3e2d7d5c	0.16942352
89	0xbd83e00a	-0.064392164
90	0x3e3b4668	0.18288577
91	0x3e9c2be6	0.30502242
92	0x3dfadea4	0.122494966
93	0x3e041bda	0.1290125
94	0xbdd3f511	-0.10349477
95	0xbd812ac5	-0.06306986
96	0x3e6185a8	0.22023642
97	0x3e360fdb	0.17779486
98	0xbe020bff	-0.12699889
99	0xbe2c9248	-0.16852677
100	0x3daa6848	0.08320671
101	0xbd958b27	-0.07301932
102	0xbe07296e	-0.13199398
103	0xbdc67f7a	-0.09692283
104	0x3e0cca7b	0.13749115
105	0xbdcfb2fe	-0.10141562
106	0xbde78f76	-0.1130666
107	0xbc7cb811	-0.015424744
108	0x3e986eaa	0.2977193
109	0xbdc63123	-0.09677341
110	0x3e27a314	0.16370803
111	0x3e7345fb	0.23757164
112	0x3e708b1a	0.23490563
113	0x3d813cfd	0.06310461
114	0xbe9f8b7a	-0.311611
115	0x3e9b0f53	0.3028513
116	0x3e1798de	0.14804408
117	0x3ce8cc54	0.028417744
118	0x3e12ebbb	0.14347737
119	0x3e33ab80	0.17545891
120	0x3dd7bf03	0.105344795
121	0xbc4cfadf	-0.012510984
122	0x3e09f58c	0.13472575
123	0xbe1bfbc8	-0.15232766
124	0xbdea79a7	-0.114489846
125	0x3d377216	0.044786535
126	0xbe4e7fd5	-0.20165952
127	0x3e0a6aa5	0.13517244
128	0x3d98c746	0.074598834
129	0xbe7227f9	-0.23648061
130	0xbdb3f44d	-0.08786831
131	0x3d877652	0.06614365
132	0xbcb23a0a	-0.02175619
133	0xbd7035e8	-0.05864516
134	0x3e0c5fdf	0.13708447
135	0xbe610922	-0.2197614
136	0x3c4c897f	0.0124839535
137	0x3e427ef1	0.18993737
138	0xbd65b166	-0.056077383
139	0x3cedc1bf	0.02902305
140	0x3d378e31	0.04481334
141	0xbe1bf2a5	-0.1522928
142	0xbdd31b01	-0.10307885
143	0x3e3d48d3	0.18484811
144	0xbe495508	-0.19661343
145	0x3d9e4b73	0.077292345
146	0x3e8c5b58	0.2741344
147	0xbe639ecf	-0.2222855
148	0x3d158947	0.03650787
149	0xbe94a798	-0.29034114
150	0xbe5278e8	-0.20553935
151	0x3e9bb592	0.30411965
152	0x3e80f0c8	0.25183702
153	0x3e43ffc7	0.1914054
154	0x3dbdcffb	0.09268185
155	0x3defc2d1	0.1170708
156	0xbd71d4c1	-0.05904079
157	0xbdb9c0ce	-0.09069978
158	0xbdfcbd32	-0.12340774
159	0x3c0ca08f	0.008583202
160	0x3d423faa	0.047423996
161	0xbe1dd024	-0.1541143
162	0xbe530f1f	-0.20611237
163	0xbe8ccf81	-0.27502063
164	0xbdf36c42	-0.11885883
165	0xbe02f7a5	-0.12789781
166	0x3cf11cda	0.029432703
167	0x3d78c2c5	0.06073262
168	0xbe1c65a6	-0.15273151
169	0x3d8d5899	0.06901664
170	0xbe73bff0	-0.23803687
171	0xbd3b3838	-0.04570791
172	0x3df1e7fe	0.11811827
173	0xbb840d70	-0.004029922
174	0xbd44f12a	-0.048081554
175	0xbd7e5ad2	-0.06209833
176	0xbd8a1c9f	-0.0674374
177	0xbe3c4578	-0.18385875
178	0xbc0e3273	-0.00867902
179	0xbcf38ebf	-0.029731153
180	0x3cc49b24	0.023999758
181	0xbc97210e	-0.018448379
182	0x3e2a6590	0.16640306
183	0xbe5278ff	-0.20553969
184	0xbe93523b	-0.28773674
185	0xbd5a9ec4	-0.053374067
186	0x3e2a9550	0.1665852
187	0x3e6276b1	0.2211559
188	0xbe9b3638	-0.30314803
189	0x3e5b5945	0.21420772
190	0xbdbd5cdc	-0.09246227
191	0xbd5893f1	-0.052875463
192	0xbda8c05c	-0.08239815
193	0x3e0a20b7	0.13489042
194	0x3df72c8b	0.12069043
195	0x3c447d87	0.011992819
196	0xbdc0e8c5	-0.09419397
197	0x3d7bed95	0.061505873
198	0x3e996e86	0.29967135
199	0xbe9a2384	-0.3010522
200	0x3de94a3b	0.113911115
201	0xbe72cee4	-0.23711735
202	0xb9ef855c	-0.00045684993
203	0xbe2a7512	-0.16646221
204	0x3e04c73a	0.12966624
205	0xbe3907d5	-0.18069394
206	0xbe89287a	-0.26788694
207	0x3e0e017b	0.13867752
208	0x3c9183a8	0.017762974
209	0xbe036d48	-0.12834656
210	0xbdc73abe	-0.09728001
211	0xbd56d8cc	-0.052452847
212	0x3e4e12eb	0.20124404
213	0xbdc49725	-0.09599141
214	0xbdf7d669	-0.12101442
215	0x3deba762	0.11506535
216	0x3e8df1d0	0.2772355
217	0xbd4a7484	-0.049427524
218	0x3e0cbb78	0.13743389
219	0xbdeab71e	-0.11460708
220	0x3d837c49	0.0642019
221	0xbcf51766	-0.029918384
222	0xbe0a81e9	-0.1352612
223	0x3e96311d	0.29334345
224	0xbed2053f	-0.41019627
225	0x3d3089d3	0.04310019
226	0x3c2f1ede	0.010688512
227	0xbdd10a43	-0.102070354
228	0xbe18d6dc	-0.14925712
229	0xbd5dd914	-0.0541621
230	0xbd985526	-0.07438116
231	0xbc0011d3	-0.00781675
232	0xbdbef72b	-0.09324487
233	0x3e224961	0.15848304
234	0x3e899ef7	0.26879093
235	0x3e8f0b73	0.27938423
236	0xbe781a93	-0.24228887
237	0xbcaf3afc	-0.02139043
238	0xbb202b6d	-0.0024439946
239	0xbe663116	-0.22479662
240	0xbc97a472	-0.01851103
241	0x3eb19d4f	0.3469033
242	0xbddcb019	-0.107757755
243	0x3e16d1f9	0.14728536
244	0xbe533e64	-0.20629269
245	0xbe030d69	-0.12798084
246	0x3e2f8007	0.17138682
247	0x3d575268	0.052568823
248	0x3dac2d36	0.08407061
249	0xbccc0a47	-0.024907244
250	0xbdddccd7	-0.10830086
251	0xbac8dca1	-0.0015324542
252	0x3e6d49ba	0.23172656
253	0xbdd88c3a	-0.10573621
254	0xbe7a2450	-0.24427915
255	0xbdba3153	-0.09091439

bias f4 [64]
0	0xbd828850	-0.06373656
1	0xbd91a213	-0.07110991
2	0xbe323fd6	-0.17407164
3	0x3d9a05aa	0.075206116
4	0x3d1fa66f	0.038977083
5	0xbe38239b	-0.17982332
6	0x3e74665d	0.23867173
7	0xbdd8dc74	-0.10588923
8	0x3ca4486f	0.02005407
9	0x3ccab0ae	0.02474245
10	0x3d69998b	0.057031196
11	0x3cd1cff5	0.025611857
12	0xbdf16c65	-0.11788253
13	0xbd00a29b	-0.031405073
14	0xbe7e56df	-0.24837826
15	0x3de9935a	0.11405058
16	0x3b71ea5c	0.003691337
17	0x3e2e4c3c	0.17021269
18	0xbbb65215	-0.005563984
19	0xbd4ead13	-0.050458025
20	0xbe6d4a13	-0.23172788
21	0xbe452ef9	-0.192562
22	0xbdf274e6	-0.11838703
23	0x3e4c7c99	0.19969405
24	0x3e3aba3e	0.18235108
25	0xbe496250	-0.1966641
26	0xbe03626e	-0.12830517
27	0xbc9ae8a4	-0.01890976
28	0xbdcaa39b	-0.098944865
29	0x3d3c7141	0.046006445
30	0xbd8158cc	-0.06315765
31	0xbd46917a	-0.04847858
32	0xbe1c13ef	-0.15241979
33	0xbe0a5ce9	-0.13512005
34	0x3e5a9f03	0.2134972
35	0x3d57601a	0.052581884
36	0xbe47ab59	-0.19498958
37	0x3e2b441b	0.16725199
38	0xbe04a734	-0.12954408
39	0xbe448cf1	-0.1919439
40	0xbe7a745e	-0.24458453
41	0x3c9f59c9	0.019451993
42	0xbcc7c5c2	-0.02438629
43	0xbe2a6951	-0.16641738
44	0x3dcfc845	0.1014562
45	0x3e596ecd	0.21233673
46	0x3e6cbf63	0.23119883
47	0xbd8231e2	-0.06357171
48	0xbc488d7d	-0.012240765
49	0xbc823068	-0.015892223
50	0xbc14fa6e	-0.00909291
51	0xbe60246b	-0.21888892
52	0x3e694161	0.22778846
53	0xbd497ebe	-0.049193136
54	0xbd57b46a	-0.05266229
55	0x3b4210aa	0.0029611983
56	0xbb63fc6d	-0.0034787909
57	0xbe23a920	-0.15982485
58	0x3d31d886	0.043419383
59	0x3e1cd09e	0.15313956
60	0x3e4bd9aa	0.19907251
61	0x3e04a224	0.12952477
62	0xbbd83944	-0.0065986235
63	0xbe22bb46	-0.15891752

weight f4 [128, 64, 3, 3]
0	0xbca6b0ad	-0.020347917
1	0x3d81ca6a	0.063374355
2	0xbcaa1bc2	-0.02076519
3	0xbbd52162	-0.0065042237
4	0xbc3ce97f	-0.011530279
5	0x3cf777b3	0.030208444
6	0x3d191320	0.037371755
7	0xbb0f5f3a	-0.0021876828
8	0x3d300a8a	0.0429788
9	0xbca464ed	-0.020067656
10	0xbc25b364	-0.010113571
11	0x3c480b5d	0.0122097405
12	0x3bfc9e07	0.007709268
13	0xbc0cdc0e	-0.008597387
14	0xbcf5097f	-0.029911755
15	0xbc0d5165	-0.008625363
16	0x3ca0f522	0.019648138
17	0xbd13117e	-0.035905354
18	0x3cefe693	0.029284751
19	0x3d70e75c	0.05881439
20	0xbc95f813	-0.018306768
21	0x3cf1be41	0.029509665
22	0xbc84dfd9	-0.01622002
23	0x3caa2905	0.020771513
24	0xbc1b5222	-0.009480031
25	0x3ca24f00	0.01981306
26	0x3cc245da	0.023714948
27	0x3b9cdda7	0.004787165
28	0xbd33ed2e	-0.043927364
29	0xbc865205	-0.016396532
30	0xbca760c0	-0.020431876
31	0xbc737ff5	-0.01486205
32	0xbcf7209f	-0.030166922
33	0xbc818602	-0.01581097
34	0xbd1ef66d	-0.03880923
35	0xbc726d35	-0.014796545
36	0xbcac74a8	-0.02105172
37	0xb98e14d3	-0.00027099866
38	0xbd544bb6	-0.051830016
39	0xbd25021e	-0.040285222
40	0xbb85cb56	-0.0040830774
41	0x3cc3e154	0.023911156
42	0x3b11b4e9	0.0022233075
43	0x3ca26fb0	0.019828647
44	0x3c9869ea	0.018605191
45	0xbca6e872	-0.02037451
46	0x3cb1f753	0.021724379
47	0xbca38eaf	-0.019965498
48	0x3b61cc13	0.0034453913
49	0x3d1fe229	0.039034043
50	0x3bb97fc5	0.0056609833
51	0xbb206e04	-0.0024479637
52	0x3d080a41	0.033212904
53	0x3d461cbc	0.048367247
54	0xbcb41fbd	-0.02198779
55	0xbb72f561	-0.0037072527
56	0xbc0634c9	-0.008191296
57	0xbc41869e	-0.01181188
58	0xbcc889ed	-0.02447983
59	0xbc69f70d	-0.014280093
60	0x3d1de542	0.038548715
61	0xbc84bcc6	-0.016203295
62	0x3962feb4	0.00021647924
63	0xbd0cb644	-0.03435351
64	0x3cf64ce1	0.030065956
65	0xbd010142	-0.03149534
66	0xbcee6eec	-0.029105626
67	0xbcb760e7	-0.022385074
68	0xbcc11592	-0.023569856
69	0x3c28be2b	0.010299246
70	0xbce8840b	-0.028383275
71	0x3c4175b1	0.011807845
72	0xbb08e9d2	-0.002089132
73	0x3b707ba2	0.0036694785
74	0xbca9f68f	-0.020747451
75	0xbc1c5d8f	-0.0095437905
76	0xbd35428c	-0.044252917
77	0xbca9fc04	-0.020750053
78	0x3c30ba8e	0.010786666
79	0x3cf140b1	0.029449793
80	0x3cc3a9b1	0.023884626
81	0x3c58b766	0.013227319
82	0x3c9c5fc8	0.01908864
83	0xbb73fee5	-0.0037230786
84	0xbc2040f8	-0.009781115
85	0xbcfd40ac	-0.030914627
86	0xbcd1ed63	-0.02562589
87	0xbd2cf515	-0.042225916
88	0xbcb5b51b	-0.022181084
89	0xbc7bc8da	-0.015367711
90	0x3cd60061	0.026123228
91	0x3c824474	0.015901782
92	0xbcc4c28c	-0.024018548
93	0xbae5f2f6	-0.0017543721
94	0x3c951b6c	0.018201552
95	0xbc67b09d	-0.014141229
96	0x3cc586b0	0.024112076
97	0x3b3004a1	0.0026858228
98	0xbbb2f21d	-0.005460991
99	0xbcdbd7fa	-0.026836384
100	0x3cbe21ce	0.023209479
101	0xbc2aca66	-0.010424232
102	0x3c95a219	0.01826577
103	0xbccaf034	-0.02477274
104	0x3b86078d	0.0040902556
105	0x3c503cd6	0.012709817
106	0xbcb23ce9	-0.02175756
107	0xbca5497c	-0.020176642
108	0xbd1f0c3f	-0.03883004
109	0xbc820602	-0.015872005
110	0xbc6e8cfe	-0.014559982
111	0x3c905fec	0.017623864
112	0x3d120d39	0.03565714
113	0x3b7d3e6b	0.003864194
114	0xbaf4f4f6	-0.0018688727
115	0xbbc8731c	-0.0061172377
116	0xbd1cf34e	-0.03831797
117	0x3c6a61a6	0.014305508
118	0x3b3a3e13	0.0028418347
119	0xbc340f34	-0.010989953
120	0x3bb4299a	0.0054981234
121	0x3cbb8478	0.022890314
122	0x3d0ad326	0.033892773
123	0xbc6396a3	-0.013890895
124	0xbd0d41f4	-0.034486726
125	0x3cd7b327	0.026330544
126	0x3ce27595	0.027643958
127	0xbcaf6f73	-0.021415448
128	0xbcd2445e	-0.025667366
129	0xbb8e8771	-0.004349642
130	0x3d2f3b07	0.042780902
131	0x3cf9efd6	0.03050987
132	0xbceac5ea	-0.028658826
133	0xbcf3a9a7	-0.029743982
134	0x3c94ccd1	0.01816407
135	0x3a94fab8	0.0011366224
136	0x3d375e8b	0.044767898
137	0x3c34383f	0.010999738
138	0xbcf49f30	-0.029861063
139	0xbc752ec2	-0.014964761
140	0xbd0626fa	-0.032752015
141	0xbb73e5f3	-0.0037215918
142	0xbc8f523e	-0.01749527
143	0xbcc8ad93	-0.02449683
144	0x3c03937a	0.008030767
145	0xbccb8126	-0.024841856
146	0x3bcebc49	0.0063090664
147	0xbd28658d	-0.04111247
148	0x3d092aff	0.03348827
149	0x3c0cd166	0.008594846
150	0x3c147831	0.009061859
151	0x3c8a6708	0.016894832
152	0x3c2d41bb	0.010574753
153	0xbbf348ef	-0.007424466
154	0xbd2738ee	-0.040825777
155	0x3bedd1f2	0.0072576934
156	0xbcc2e35f	-0.02379006
157	0xbd100bf2	-0.035167642
158	0x3ccfb98f	0.025357036
159	0xbd17ef07	-0.03709319
160	0xbc92fce0	-0.017942846
161	0xbd28e421	-0.041233186
162	0xbd5e8c87	-0.054333236
163	0xbd0175d5	-0.031606514
164	0xbbaae311	-0.0052150567
165	0xb9f3bb81	-0.00046488273
166	0x3c6fce5f	0.014636605
167	0x3bae61e9	0.0053217304
168	0xbbd995fc	-0.006640194
169	0x3cb6be60	0.022307575
170	0xbc213b8a	-0.009840855
171	0x3ca81aa2	0.020520512
172	0x3ca42a02	0.020039562
173	0x3c9c3950	0.019070297
174	0xbc6a199c	-0.014288332
175	0xbc5f864f	-0.0136428615
176	0x3c60ff30	0.013732716
177	0xbc9687bb	-0.018375268
178	0x3996bf42	0.00028752728
179	0xbc0e0a05	-0.008669381
180	0xbceec327	-0.02914579
181	0x3cd1ecd8	0.025625631
182	0x3d034598	0.03204879
183	0xbcd5f951	-0.02611986
184	0xbcce8033	-0.025207615
185	0x3ca54ec5	0.020179162
186	0xbaf5f016	-0.0018763568
187	0xbc8b88e5	-0.01703305
188	0xbd46bde6	-0.048520945
189	0xbc39e129	-0.011345186
190	0x3ca1ee9f	0.019767104
191	0x3b7e1085	0.003876717
192	0x3b2b1126	0.002610275
193	0xbcb74f3d	-0.022376651
194	0x3c81f7ae	0.015865173
195	0xbb775468	-0.003773952
196	0x3d57a591	0.05264813
197	0x3d4e1529	0.05031315
198	0x3bf02d29	0.0073296023
199	0xbd45288b	-0.048134368
200	0xbcb5dafa	-0.022199143
201	0xbbcb5610	-0.006205328
202	0xbcb19063	-0.021675294
203	0x3d2832e9	0.041064177
204	0xbcb26d45	-0.02178062
205	0x3d2396a0	0.03993857
206	0xbcf81eb8	-0.030288085
207	0x3bd05c85	0.0063586854
208	0x3cab17a6	0.0208853
209	0x3c861bb7	0.016370637
210	0xbc567218	-0.0130887255
211	0xbc126f27	-0.008937634
212	0xbd0b3f11	-0.03399569
213	0x3d2d509f	0.042313214
214	0x3d00b9c6	0.031427167
215	0x3cd8572a	0.02640875
216	0x3cb72409	0.02235605
217	0x3c872837	0.016498668
218	0xbc6ca516	-0.014443656
219	0x3bfdf2ec	0.007749906
220	0xbd169b9c	-0.036769494
221	0x3d313c51	0.043270413
222	0x39f3e5ff	0.00046519932
223	0x3c4bda5e	0.0124421995
224	0x3cd4bb40	0.025968194
225	0x3d48739a	0.04893837
226	0x3d2dd7de	0.042442195
227	0x3cb1d9e6	0.021710347
228	0x3ccec7c4	0.02524174
229	0xbd2a5dac	-0.04159324
230	0x3ca0ff81	0.019653084
231	0x3c548893	0.012972015
232	0xbd4b46f3	-0.04962821
233	0x3c971cac	0.018446289
234	0xbb0ac576	-0.0021174825
235	0x3cca49f8	0.024693474
236	0x3cbea07a	0.02326988
237	0xbd13d0de	-0.036087863
238	0x3c410642	0.011781277
239	0xbcbaa86c	-0.022785388
240	0x3cc5b87e	0.024135824
241	0x3b8b4982	0.004250706
242	0xbd471369	-0.048602495
243	0xbce7250d	-0.02821591
244	0x3d0ca7eb	0.034339827
245	0x3cbb9af3	0.022901034
246	0x3b9cd36f	0.004785947
247	0x3c783aa4	0.0151507
248	0xba8c7521	-0.001071606
249	0x3bd077aa	0.0063619213
250	0xbcb41045	-0.021980414
251	0x3bed188b	0.0072355918
252	0x3c6f78ae	0.014616175
253	0xbbd01e85	-0.0063512945
254	0x3bd9b973	0.0066444217
255	0x3b970d67	0.004609752

bias f4 [128]
0	0x3c03483e	0.008012829
1	0xbcc8b4b1	-0.024500223
2	0xbcf9dc09	-0.030500429
3	0x3c304d6a	0.010760644
4	0xbd0179c6	-0.031610273
5	0x3be69330	0.007036589
6	0xbd1bd655	-0.0380462
7	0x3c505cd5	0.012717445
8	0xbc5fe2c3	-0.013664904
9	0x3d9ae12d	0.0756248
10	0xbd03e145	-0.032197256
11	0xbc12b817	-0.008955023
12	0x3cacd51a	0.021097708
13	0x3c4ead0b	0.012614499
14	0xbb8ed913	-0.0043593734
15	0x3ccdcb29	0.025121288
16	0xbc4b9a61	-0.0124269435
17	0x3cfe544c	0.031046055
18	0x3c39a17c	0.011330005
19	0xbce3409e	-0.027740773
20	0xbc99a6f1	-0.018756362
21	0x3cbb93b7	0.022897584
22	0x3b6e0c5d	0.0036323287
23	0xbd1746e9	-0.03693286
24	0x3bb34b54	0.0054716263
25	0xbc3fc4b8	-0.011704616
26	0xbc0fe74d	-0.008783174
27	0xbc4931e5	-0.012279962
28	0x3d28ac03	0.04117967
29	0xbc825bc9	-0.015912907
30	0x3c823213	0.015893018
31	0x3cf4ebae	0.029897537
32	0xbb411a3b	-0.0029465097
33	0x3c6e5db8	0.0145487115
34	0xbd42d437	-0.047565665
35	0x3bbc1ae6	0.005740511
36	0xbc1404b7	-0.009034327
37	0xbd69dd32	-0.057095714
38	0xbb5edb4e	-0.0034005227
39	0x3aded0fc	0.0016999538
40	0xbcac83b4	-0.021058895
41	0xbd630228	-0.05542198
42	0x3bd4ca58	0.006493848
43	0xbd10ddc7	-0.035367753
44	0x3d06dcaa	0.032925285
45	0x3c274021	0.010208161
46	0xbc12669b	-0.008935596
47	0xbcc21aba	-0.023694385
48	0xbd1d30f7	-0.038376775
49	0x3d7605c9	0.06006411
50	0xbd127b2a	-0.03576199
51	0xbcec01be	-0.028809424
52	0x3cebdd37	0.028792007
53	0x3ccc189f	0.024914084
54	0xbcc276ff	-0.023738382
55	0x3a82305e	0.0009932627
56	0x3cd44b96	0.025914948
57	0x39e43697	0.0004352822
58	0x3ccf38cf	0.025295643
59	0xbd12b334	-0.035815433
60	0xbd52c33b	-0.051455718
61	0x3cc57a60	0.024106205
62	0xbbb81f0c	-0.0056189355
63	0xbb8309c2	-0.003998966
64	0xbd893534	-0.06699601
65	0xbc07b49d	-0.008282808
66	0x3d4c079a	0.049811937
67	0x3af3e96a	0.0018608992
68	0x3c2f57f8	0.010702126
69	0x3b135d9d	0.0022486218
70	0x3cf2aa9f	0.029622374
71	0x3c32d699	0.010915422
72	0xbd77e007	-0.060516383
73	0xbd196e35	-0.037458617
74	0xbd391398	-0.0451847
75	0x3ce73317	0.028222604
76	0xbce706a2	-0.028201405
77	0xbcb85d2c	-0.022505365
78	0xbcd0ce40	-0.025488973
79	0x3b93a296	0.0045054657
80	0xbc728163	-0.014801356
81	0xbd189c4b	-0.037258428
82	0xbd4f3815	-0.050590593
83	0x3c89eb1a	0.016835738
84	0xbbcd89bf	-0.006272524
85	0xbb90683f	-0.0044069584
86	0xbc4ede9e	-0.012626318
87	0xbc48fdf5	-0.012267579
88	0xba39e60f	-0.00070914713
89	0x3c5c6e0c	0.013453972
90	0x3b9d9a05	0.0048096203
91	0xbc8de0da	-0.017319132
92	0xbb06608f	-0.002050433
93	0x3cd31ba1	0.02577001
94	0x3c8581d8	0.016297266
95	0x3ac27246	0.0014835082
96	0x3cfdf21f	0.030999241
97	0x3cde4625	0.027133057
98	0xbb838c69	-0.004014541
99	0xbab5df83	-0.0013875816
100	0xbc88bf4e	-0.016692784
101	0x3ab7a026	0.001400952
102	0xbd47a87e	-0.04874467
103	0xbc606c74	-0.013697732
104	0xbc8b7e98	-0.017028138
105	0xbd43da2e	-0.047815494
106	0x3b69a0e7	0.0035648884
107	0x3c87441b	0.016511967
108	0xbd3dcb07	-0.0463362
109	0xbc96b0ff	-0.018394945
110	0xbc487c9f	-0.012236743
111	0xbd488197	-0.04895171
112	0x3b0a09b1	0.0021062905
113	0xbb0a7ada	-0.0021130354
114	0xbba9a186	-0.005176726
115	0xbd2ef542	-0.042714365
116	0x3c3c0983	0.011476877
117	0x3ccaa287	0.024735702
118	0xbb68d805	-0.0035529148
119	0xbba10443	-0.004913838
120	0x3c23c2a9	0.009995141
121	0xbc883478	-0.016626582
122	0xbd57c5fb	-0.052679043
123	0x3bb7da96	0.0056107743
124	0x3c331ed5	0.010932644
125	0x3c7252f6	0.014790287
126	0x3d01d737	0.031699385
127	0x3c6acddc	0.014331307

weight f4 [128]
0	0x3f76a050	0.9633837
1	0x3f74c3e6	0.9561142
2	0x3f6e7f84	0.93163323
3	0x3f7d1465	0.98859245
4	0x3f77a1f0	0.9673147
5	0x3f79ecc2	0.9762689
6	0x3f753391	0.9578181
7	0x3f75b9ac	0.9598644
8	0x3f74d36d	0.9563511
9	0x3f75a264	0.95950913
10	0x3f7a415b	0.97755975
11	0x3f758211	0.9590159
12	0x3f768449	0.962956
13	0x3f79b6e6	0.97544706
14	0x3f7b3369	0.9812532
15	0x3f7d061a	0.98837435
16	0x3f74947f	0.9553909
17	0x3f744814	0.9542248
18	0x3f7f6703	0.9976656
19	0x3f763ecc	0.9618957
20	0x3f73111d	0.9494799
21	0x3f74daad	0.9564617
22	0x3f7fed45	0.9997142
23	0x3f75d7b5	0.9603227
24	0x3f747f37	0.95506614
25	0x3f759b08	0.95939684
26	0x3f65ef4c	0.89818263
27	0x3f7aeed6	0.98020685
28	0x3f75dc3f	0.96039194
29	0x3f6ebe0d	0.93258744
30	0x3f794681	0.97373205
31	0x3f77ca07	0.96792644
32	0x3f74e557	0.95662445
33	0x3f70f3e2	0.94122136
34	0x3f75f88a	0.96082366
35	0x3f778d74	0.96700215
36	0x3f71ebab	0.94500226
37	0x3f73797f	0.95107263
38	0x3f7aee41	0.98019797
39	0x3f767972	0.9627906
40	0x3f79e028	0.9760766
41	0x3f74fc3c	0.9569738
42	0x3f79ebee	0.97625625
43	0x3f762636	0.96152055
44	0x3f6df221	0.92947584
45	0x3f759682	0.9593278
46	0x3f742c34	0.9537995
47	0x3f6fec6a	0.93720114
48	0x3f652581	0.8951035
49	0x3f78d244	0.9719584
50	0x3f6d87fd	0.92785627
51	0x3f79d5d2	0.9759189
52	0x3f77a9b0	0.967433
53	0x3f7f86ab	0.9981486
54	0x3f7f83ae	0.998103
55	0x3f761527	0.96126026
56	0x3f6978aa	0.91199744
57	0x3f77b12f	0.96754736
58	0x3f7842c7	0.96976894
59	0x3f764ce5	0.9621108
60	0x3f6d72ea	0.9275347
61	0x3f7ed3ed	0.99542123
62	0x3f74959d	0.9554079
63	0x3f7ebebc	0.9950979
64	0x3f7347fd	0.9503172
65	0x3f7bb089	0.98316246
66	0x3f75a28a	0.9595114
67	0x3f7b2902	0.9810945
68	0x3f752998	0.9576659
69	0x3f7ab61c	0.97934127
70	0x3f77741d	0.9666155
71	0x3f779cba	0.9672352
72	0x3f73bd67	0.9521088
73	0x3f840ac7	1.0315789
74	0x3f6d80d4	0.927747
75	0x3f76c318	0.9639144
76	0x3f710cc1	0.94160086
77	0x3f7107bb	0.9415242
78	0x3f7fbae0	0.99894524
79	0x3f777181	0.9665757
80	0x3f784242	0.969761
81	0x3f766e22	0.962618
82	0x3f729828	0.9476342
83	0x3f7cefa0	0.9880314
84	0x3f76c818	0.9639907
85	0x3f7ff61c	0.9998491
86	0x3f768482	0.9629594
87	0x3f7c177d	0.9847334
88	0x3f7720d5	0.9653447
89	0x3f76f024	0.96460176
90	0x3f74a933	0.9557068
91	0x3f814df2	1.0101912
92	0x3f77b503	0.96760577
93	0x3f755077	0.95825905
94	0x3f7761b0	0.96633434
95	0x3f7868d5	0.9703496
96	0x3f77d08e	0.96802604
97	0x3f788b73	0.9708778
98	0x3f77cda3	0.9679815
99	0x3f76d0d6	0.9641241
100	0x3f6f4077	0.9345774
101	0x3f72faae	0.94913757
102	0x3f768f99	0.9631286
103	0x3f7f6397	0.9976134
104	0x3f764f24	0.9621451
105	0x3f674b7a	0.90349543
106	0x3f7a5688	0.97788286
107	0x3f80144a	1.0006192
108	0x3f7bcb5e	0.9835719
109	0x3f7a2310	0.9770975
110	0x3f747a49	0.9549909
111	0x3f7636f5	0.9617761
112	0x3f812ce9	1.009183
113	0x3f7567ce	0.9586152
114	0x3f741346	0.9534191
115	0x3f7e249c	0.9927461
116	0x3f70666e	0.93906295
117	0x3f770aaf	0.96500677
118	0x3f73c6fe	0.95225513
119	0x3f73d848	0.95251894
120	0x3f7606dc	0.96104217
121	0x3f77c8b8	0.9679065
122	0x3f746dd3	0.9548008
123	0x3f7c156a	0.98470175
124	0x3f73cdbd	0.95235807
125	0x3f71e315	0.94487125
126	0x3f80079a	1.000232
127	0x3f7b06d6	0.98057306

bias f4 [128]
0	0x3cb77a23	0.022397107
1	0xbb30dba3	-0.0026986382
2	0xbb448551	-0.002998669
3	0xbb4f39c1	-0.0031620117
4	0xbd5e3604	-0.054250732
5	0x3d9a64ea	0.07538779
6	0xbd22e304	-0.03976728
7	0x3d654f3e	0.055983774
8	0x3d13119e	0.035905473
9	0x3d8b44ea	0.06800254
10	0xbd62e3f4	-0.055393174
11	0x3d84061f	0.0644648
12	0x3deb0674	0.1147584
13	0xbd564a15	-0.052316744
14	0x3d49b0e4	0.04924096
15	0x3d738265	0.059450526
16	0x3d611f3f	0.05496144
17	0xbcc264e8	-0.023729756
18	0xbd4ffdfe	-0.050779335
19	0xbd55694a	-0.052102365
20	0x3d9d3f67	0.07678109
21	0xbb4fe881	-0.0031724276
22	0x3d99351d	0.07480834
23	0xbccad2e8	-0.024758771
24	0x3d86bd21	0.06579042
25	0xbd250901	-0.04029179
26	0xbd67c87b	-0.056587677
27	0x3cf04205	0.029328356
28	0xbd887cc4	-0.06664422
29	0x3b976cfe	0.004621147
30	0x3d86a656	0.06574695
31	0x3b4c2670	0.003115084
32	0xbd36d4ca	-0.044636525
33	0xbc29d6a8	-0.010366119
34	0x3d2ba207	0.04190257
35	0xbd3f14f1	-0.04665083
36	0x3d316e7d	0.04331826
37	0x3d566410	0.05234152
38	0x3d3ea8dc	0.046547756
39	0x3d6cfd52	0.057858773
40	0x3c7bc775	0.0153673785
41	0x3c10b96b	0.00883327
42	0xbd2a9c5f	-0.041653033
43	0x3ba9f26e	0.0051863706
44	0x3bc1af70	0.0059108064
45	0x3d4b8921	0.049691323
46	0xbcfd578c	-0.030925535
47	0xbd46a716	-0.04849919
48	0xbc80702c	-0.015678488
49	0x3e072ba0	0.13200235
50	0xbd62983e	-0.05532097
51	0x3d35813a	0.044312693
52	0x3d8072b8	0.06271881
53	0xbd18a242	-0.037264116
54	0xba4e68bc	-0.0007873883
55	0x3d615699	0.055014227
56	0xbd6c79c2	-0.057733305
57	0xbd3991fa	-0.04530523
58	0xbb3c1ea5	-0.002870479
59	0xbd5806bb	-0.052740794
60	0xbd558add	-0.052134383
61	0x3d57d41a	0.05269251
62	0x3d1493a4	0.036273614
63	0x3d161e27	0.03664985
64	0x3d4a3bea	0.049373545
65	0x3d89ce8b	0.06728848
66	0xb94b84bf	-0.0001940904
67	0xbca75101	-0.020424368
68	0x3dc2574c	0.09489307
69	0x3c198c1a	0.009371782
70	0x3dd28915	0.102800526
71	0x3d4306a8	0.04761377
72	0x3d05738e	0.032580905
73	0x3bec0249	0.007202421
74	0x3c264c2e	0.010149999
75	0xbbb1204c	-0.0054054614
76	0xbd14b150	-0.03630191
77	0x3d251a35	0.040308196
78	0xbbfc7b68	-0.007705141
79	0x3d8aef69	0.06783945
80	0x3d0b83a6	0.034061097
81	0x3ce0ef29	0.02745779
82	0x3d62090e	0.055184416
83	0x3d79a578	0.06094882
84	0x3bcbd6d3	0.0062206774
85	0x3d72e1a0	0.059297204
86	0x3d7309e3	0.0593356
87	0x3d828035	0.0637211
88	0xbc246726	-0.010034358
89	0xbd9c9f69	-0.076475926
90	0x3d667fa2	0.056274064
91	0x3d55ced7	0.05219921
92	0xbdd3cc3d	-0.1034169
93	0xbc4fac21	-0.012675316
94	0x3dc51f89	0.096251555
95	0xbd88e834	-0.06684914
96	0x3bee41ab	0.007271012
97	0xbb0c116f	-0.0021372696
98	0xbd2076e0	-0.039175868
99	0x3d8c46b9	0.06849427
100	0x3b3dcd73	0.0028961569
101	0x3c85a5bf	0.016314385
102	0xbd542267	-0.05179062
103	0x3cef6032	0.029220674
104	0xbc6392e3	-0.013890001
105	0x3c1305e5	0.008973573
106	0x3d5a3c94	0.053280428
107	0x3d8cf53e	0.06882714
108	0x39f7903d	0.00047218977
109	0xbd41e9b1	-0.047342006
110	0xbadfe031	-0.0017080364
111	0x3c8a4b49	0.016881602
112	0x3d3748fd	0.04474734
113	0xbba2399e	-0.004950716
114	0x3dcc0417	0.099617176
115	0x3b6a5376	0.0035755313
116	0xbd6b4e38	-0.057447642
117	0xbd8b66c6	-0.06806712
118	0xbdbbd88d	-0.09172163
119	0x3d3db929	0.04631916
120	0xbd1a30b6	-0.03764411
121	0x3d63786f	0.055534776
122	0xbd431679	-0.047628853
123	0x3d424dbb	0.04743741
124	0xbd04532a	-0.032305874
125	0x3dfd5ef8	0.123716295
126	0x3d70c0d9	0.058777664
127	0x3d721e32	0.059110828

running_mean f4 [128]
0	0x3dbd5a80	0.09245777
1	0x3d2ce1b9	0.042207453
2	0x39d20e33	0.000400649
3	0x3d2e3064	0.042526618
4	0x3ce7af7b	0.028281918
5	0x3ebdfdd6	0.37107724
6	0x3bb31711	0.005465396
7	0x3e1fc4e6	0.15602455
8	0x3cbb7ef5	0.022887686
9	0x3e490b3d	0.19633193
10	0x3e37ce0b	0.17949693
11	0x3d283400	0.041065216
12	0x3eb317ad	0.34979
13	0x3da7df0b	0.08196839
14	0x3d37f9ed	0.044916082
15	0x3e0da28a	0.13831535
16	0x3dd76199	0.10516662
17	0x3d2e77d5	0.04259475
18	0x3e08ad42	0.13347343
19	0x3c4c7cc1	0.0124809155
20	0x3adf5ce3	0.0017041232
21	0x3dccd6f4	0.100019366
22	0x3dd73b21	0.10509325
23	0x3d90af62	0.070647016
24	0x3c78b7b0	0.015180513
25	0x3ca0fa24	0.019650526
26	0x3d1ed9b9	0.038781855
27	0x3cbf175c	0.023326568
28	0x3cc23c7f	0.023710487
29	0x3c823115	0.015892545
30	0x3d86c570	0.06580627
31	0x3d905cef	0.07048976
32	0x3cb9603e	0.0226289
33	0x3c9cb56a	0.019129474
34	0x3c4157a6	0.011800682
35	0x3d685a74	0.056726888
36	0x3bd3b210	0.0064604357
37	0x3d2ee24b	0.04269628
38	0x3cd7a15f	0.026322065
39	0xbb3265c9	-0.0027221313
40	0x3d36283e	0.04447197
41	0xb90c4318	-0.00013376435
42	0x3e4eda22	0.20200399
43	0x3b14ba35	0.0022693996
44	0x3c814a73	0.01578257
45	0x3d832405	0.064033546
46	0xb8edb9ea	-0.0001133567
47	0x3cba909a	0.02277403
48	0xb9d3c400	-0.00040391088
49	0x3ef6a5b5	0.481733
50	0x3d0a08f8	0.03369996
51	0x3c2907d3	0.010316807
52	0x3dbde6a7	0.09272509
53	0x3e91aedf	0.2845373
54	0x3d2cceb8	0.04218933
55	0x3dfa7301	0.122289665
56	0x3bc6b0f1	0.0060635735
57	0x3d206dc0	0.039167166
58	0x3deffbfa	0.117179826
59	0x3c9cf92f	0.019161789
60	0x3bbe416c	0.0058061387
61	0x3e130167	0.14356004
62	0x3ce1057a	0.027468432
63	0x3e085e8d	0.13317318
64	0xb8dd5bdd	-0.00010555212
65	0x3db1b802	0.08677675
66	0x3e59467f	0.21218298
67	0x3d4db1bb	0.050218325
68	0x3da742fe	0.081670746
69	0x3d3c3c31	0.04595584
70	0x3e108b97	0.1411575
71	0x3d68cd9f	0.05683672
72	0x3b1f4498	0.002430236
73	0x3d430569	0.04761258
74	0xbb4cc4dc	-0.0031245267
75	0x3c87c0a0	0.016571343
76	0x3d2c339a	0.0420414
77	0x3c0eb31f	0.008709698
78	0x3d175710	0.036948264
79	0x3d9c7e26	0.076412484
80	0x3c57733c	0.013150033
81	0x3c70059e	0.014649777
82	0x3bb20a17	0.0054333317
83	0x3d5cb14a	0.053880014
84	0x3d1c09df	0.03809535
85	0x3e0dad19	0.13835563
86	0x3e170d8a	0.14751258
87	0x3da08c78	0.07839292
88	0x3c6e8261	0.014557452
89	0x3e3865c0	0.18007565
90	0x3cef2e8c	0.029197
91	0x3d467fea	0.048461832
92	0x3ee7bb45	0.45260063
93	0x3bdbe06c	0.006710103
94	0x3eb3772f	0.35051867
95	0x3cae0b01	0.021245481
96	0x3e66b9bb	0.22531788
97	0x3d9c7b8b	0.076407515
98	0x3d64f012	0.05589301
99	0x3e0691f3	0.13141613
100	0x3c504d3b	0.012713726
101	0x3b0fe577	0.002195684
102	0x3c9c661b	0.019091656
103	0x3ddac460	0.10681987
104	0x3d2a783a	0.041618563
105	0x3ae1760e	0.0017201321
106	0x3cd03b65	0.025418947
107	0x3df497ef	0.119430415
108	0x3cb2d08b	0.021827957
109	0x3e3cf383	0.18452267
110	0x3d382788	0.044959575
111	0x3b3a26c6	0.0028404458
112	0xbac06e07	-0.0014681228
113	0x3cfce0a6	0.03086884
114	0x3e4b87f8	0.19876087
115	0x3d2ee353	0.042697262
116	0x3c839f17	0.01606707
117	0x3d23cefd	0.03999232
118	0x3d7d289a	0.0618063
119	0x3ad17fb0	0.0015983488
120	0x3e821292	0.25404793
121	0x3d7309be	0.059335463
122	0x3c1c2963	0.009531352
123	0x3cdddc08	0.027082458
124	0x3d2e97cc	0.042625234
125	0x3dfbc873	0.12294092
126	0x3de067e1	0.10957313
127	0x3e9ecf9b	0.31017765

running_var f4 [128]
0	0x3d047a98	0.032343477
1	0x3c7d5df8	0.015464298
2	0x3a6426bf	0.00087032834
3	0x3c506422	0.012719186
4	0x3c8a46a0	0.01687938
5	0x3e3ead67	0.18620835
6	0x3b236ed7	0.0024937892
7	0x3d912b28	0.070883095
8	0x3be1ef77	0.0068950015
9	0x3dbee893	0.09321704
10	0x3d686d89	0.056745086
11	0x3c9c2ffa	0.019065846
12	0x3e306cde	0.1722903
13	0x3cf38d12	0.029730354
14	0x3c308d26	0.01077584
15	0x3d615d20	0.05502045
16	0x3d2635c7	0.04057863
17	0x3ca865f0	0.02055642
18	0x3d375f16	0.044768415
19	0x3bdf8e81	0.0068224077
20	0x3aeaaae5	0.0017903714
21	0x3d0c1807	0.0342026
22	0x3d5126dc	0.05106245
23	0x3cc78d6f	0.024359433
24	0x3b904abc	0.0044034403
25	0x3be7a68c	0.0070694145
26	0x3c52cdeb	0.0128664775
27	0x3c2c79b6	0.010527065
28	0x3c09f635	0.008420517
29	0x3bb8ce3a	0.0056398185
30	0x3ccbbd98	0.024870679
31	0x3cb80397	0.02246265
32	0x3c0a797d	0.008451817
33	0x3bf42cc8	0.0074516274
34	0x3bbec649	0.0058219773
35	0x3c9a9638	0.018870458
36	0x3b2fd69b	0.0026830796
37	0x3c61e6fe	0.013787983
38	0x3bdfe7da	0.006833059
39	0x38ba55f8	8.885184e-05
40	0x3c1fd564	0.009755466
41	0x3a4852ce	0.00076417334
42	0x3db0e0c7	0.08636623
43	0x3abc9ac4	0.0014389385
44	0x3b8c7f8f	0.004287667
45	0x3c9b93b3	0.018991327
46	0x3a990127	0.0011673317
47	0x3be7b890	0.007071562
48	0x3a9dff6a	0.0012054269
49	0x3e8f9ff9	0.28051737
50	0x3c428e38	0.011874728
51	0x3b877aaa	0.0041344957
52	0x3d019338	0.03163454
53	0x3e1c77ba	0.15280047
54	0x3c56f157	0.013119063
55	0x3d12a94e	0.035805993
56	0x3b3f9bb4	0.0029237093
57	0x3c422b9f	0.01185122
58	0x3d1b6ef2	0.037947603
59	0x3bc9378c	0.006140655
60	0x3b29730e	0.0025855931
61	0x3d694f7c	0.056960568
62	0x3c0b43ea	0.008500079
63	0x3d5ad08b	0.05342154
64	0x3a5c3192	0.00083997205
65	0x3d26cd49	0.04072312
66	0x3dbfeb1b	0.09371015
67	0x3c6523b7	0.013985566
68	0x3cc15d56	0.023604076
69	0x3c4b32b9	0.01240223
70	0x3d467c3b	0.04845832
71	0x3c893e3a	0.016753305
72	0x3ad8d7ef	0.0016543845
73	0x3c6ff2ea	0.014645318
74	0x399d3016	0.000299812
75	0x3bed309f	0.007238462
76	0x3c56c04c	0.013107371
77	0x3b56c3cd	0.0032770515
78	0x3cbb96f7	0.022899134
79	0x3caf7a6b	0.021420678
80	0x3b9e6310	0.0048335865
81	0x3c032bed	0.008006078
82	0x3b1325d4	0.0022452967
83	0x3ca3fe36	0.020018678
84	0x3c5d7ab0	0.0135180205
85	0x3d4cd39c	0.050006494
86	0x3d9a5d26	0.07537298
87	0x3d109ba7	0.03530469
88	0x3bac3221	0.0052549993
89	0x3d89da43	0.06731083
90	0x3c2193b5	0.009861876
91	0x3c4d4b79	0.012530201
92	0x3e808866	0.25104064
93	0x3b447fe4	0.0029983455
94	0x3e2f1d12	0.17100933
95	0x3c10995f	0.008825629
96	0x3dcf2a5b	0.101155005
97	0x3cb75b86	0.022382509
98	0x3c8db1f3	0.017296767
99	0x3d6e4966	0.058175467
100	0x3b8ebd99	0.004356098
101	0x3aadf15e	0.0013270786
102	0x3b9cd89a	0.004786563
103	0x3d4317d3	0.047630142
104	0x3c2fcbda	0.010729754
105	0x3aeda3f2	0.0018130525
106	0x3bded20d	0.0067999423
107	0x3d4bf07b	0.049789887
108	0x3be45652	0.006968298
109	0x3d8d543b	0.06900831
110	0x3c5da29d	0.01352754
111	0x3ad4b6eb	0.001622883
112	0x3a7930c8	0.0009505865
113	0x3c42f344	0.011898819
114	0x3db7ba90	0.08971131
115	0x3c30d43b	0.010792787
116	0x3bbe4e67	0.005807686
117	0x3c86019c	0.01635819
118	0x3c9e93f7	0.019357665
119	0x3a8991e6	0.0010495752
120	0x3dd7ec24	0.10543087
121	0x3cd4f061	0.025993528
122	0x3b8a2754	0.004216114
123	0x3bd0fb3f	0.006377607
124	0x3c638f61	0.013889165
125	0x3d535921	0.05159867
126	0x3d1ece11	0.03877074
127	0x3dfea00d	0.12432871
