Handwritten_numerals-recognition_model.pth (torch, 312527 bytes, 8 tensors)

weight f4 [32, 1, 5, 5]
000000 2f 72 36 be 5b 7e 22 be 30 04 49 be 14 7e 58 be
       -0.17816995 -0.15868513 -0.19630504 -0.21141845
000010 9a ba 13 be b3 24 96 be bc 16 6b bc b6 7c 87 bb
       -0.14426652 -0.29324874 -0.014348682 -0.0041347397
000020 d4 ac c7 bc 6d c1 95 be 2a 76 5e be cf 4f 09 be
       -0.024374403 -0.29249135 -0.21724764 -0.13409351
000030 01 d4 88 be 6c 23 ae be e6 52 10 bc af a1 b2 be
       -0.26724246 -0.340114 -0.008808827 -0.3488898
000040 e8 39 7f be de 82 c6 bd 23 ea 8f bd 5d fd f8 bb
       -0.24924433 -0.0969293 -0.0702708 -0.0075985626
000050 7d f2 94 be f9 c0 13 bd 91 02 6e 3c c6 5d 7c be
       -0.29091254 -0.036072705 0.014526979 -0.24645147
000060 51 cf c6 bd 17 5c 1e 3d c4 e2 24 be 85 1c 74 3c
       -0.09707511 0.038662042 -0.16102129 0.014899378
000070 a5 77 43 bd 1b b0 b7 be 1e 97 f3 bd 90 d1 6e be
       -0.047721524 -0.35876545 -0.11894058 -0.23322129
000080 b8 4a 17 be 7e b6 fe bd 82 ae a6 be e6 50 55 3d
       -0.14774597 -0.12437151 -0.32555014 0.052079104
000090 8e 9a 19 3d 4c fd 2e 3d 1e 69 3e be 44 d5 87 be
       0.03750091 0.04272203 -0.18594787 -0.26529896
0000a0 d2 c3 4d be e2 04 95 bd a8 34 cc bd 11 19 10 be
       -0.20094231 -0.07276322 -0.09970981 -0.14072062
0000b0 2f f7 05 be a0 f2 26 bd 29 c7 52 bd 90 65 28 bd
       -0.13082574 -0.04075873 -0.051459465 -0.041112483
0000c0 99 8c 60 bd 27 c6 97 be 67 cb 60 be f9 6d 8a be
       -0.054821584 -0.29643366 -0.21952592 -0.27037027
0000d0 83 34 a4 be 61 6e 99 bc fc 6a 2f be af 57 e1 3b
       -0.32071313 -0.01872939 -0.17130655 0.006876908
0000e0 2e 65 01 be d6 25 3b be a4 b5 08 be 6f 28 94 be
       -0.12636253 -0.18276152 -0.1335054 -0.28937098
0000f0 19 db a9 bd 8a de bf bd e0 c5 6b bb 46 97 1a be
       -0.08293743 -0.09368618 -0.0035976097 -0.15096769
000100 74 e6 61 3d fd 45 45 be 09 a8 b1 bd c5 fa 22 be
       0.055151418 -0.1926498 -0.08674628 -0.15915973
000110 ec 56 4a be 40 15 81 3d 6d 97 ae bd 9a 1e 85 be
       -0.1975972 0.06302881 -0.08524976 -0.2599991
000120 ce 09 1e bd bf e7 f9 3c b2 55 93 be 5e 80 47 bd
       -0.03858357 0.030506013 -0.28776318 -0.048706405
000130 f4 62 3a bf bc 86 88 bf 2a 96 fd be 0f bb f4 be
       -0.7280724 -1.0666118 -0.4952863 -0.47798964
000140 bf a0 0d 3e e2 c8 00 bf 26 c2 56 bf 60 42 e2 bc
       0.13830851 -0.5030652 -0.83889997 -0.02761954
000150 28 10 77 bf bc db 81 bf c8 79 54 bf 51 0a 75 be
       -0.9650903 -1.0145183 -0.82998323 -0.23929717
000160 5d a2 29 3f 83 58 68 bf dd 8c 2a bf a6 f6 57 3c
       0.6626337 -0.9076006 -0.6662119 0.013181364
000170 08 8f c9 be 48 c5 a0 be 55 34 54 bf 06 68 53 bf
       -0.39366937 -0.31400514 -0.8289235 -0.825806
000180 f0 d7 1e be 56 94 07 3f 17 66 e8 be a7 af 3d bf
       -0.15512061 0.5296072 -0.45390388 -0.7409615
000190 9b ff b2 bf 77 ed b7 bf 8a e5 73 bf 3d 51 01 bf
       -1.3984255 -1.4369344 -0.95272124 -0.50514585
0001a0 f4 72 b7 3e 20 3c b0 3d e5 bb c2 bf eb bd 86 3e
       0.3582989 0.08605218 -1.5213591 0.2631677
0001b0 a5 42 8d be cb 5f ed bc db 21 2b be df 8d cd be
       -0.27589908 -0.028976342 -0.16712134 -0.40147302
0001c0 b1 6f ea bf ff fa c7 bc 30 99 16 3d 59 ca 10 c0
       -1.8315336 -0.024411676 0.036767185 -2.2623503
0001d0 7e 2a 9a bf c7 81 29 c0 44 ca 58 3b d9 d6 da 3d
       -1.2044218 -2.648546 0.0033079544 0.1068551
0001e0 e3 78 d4 bf 52 dd 69 bf 15 8a 15 bf 5d 77 69 bf
       -1.6599392 -0.91353333 -0.5841382 -0.9119776
0001f0 a7 8b 7f be 8f da a9 be 6e 29 b8 be 40 07 0d be
       -0.24955617 -0.3317456 -0.35969108 -0.13772297
000200 61 38 a7 3d 98 81 e6 bc 04 79 48 3d fa 03 f0 bd
       0.0816505 -0.028137967 0.048943534 -0.117195085
000210 ca 68 f0 bd 04 57 40 3d 0d 2f 89 3d 2a f2 63 be
       -0.11738737 0.046957985 0.06698427 -0.22260347
000220 34 38 79 be 66 57 7a 3d 6c a8 99 be 06 9b 04 be
       -0.24337846 0.061118506 -0.30011308 -0.12949762
000230 90 fb 83 bd 25 7a d2 bd d8 16 68 be cc d0 38 be
       -0.06444466 -0.102772035 -0.22664964 -0.180484
000240 6e 74 70 3d 00 20 25 be ce 8f 5f be dc 4d b7 bd
       0.058704786 -0.16125488 -0.21832201 -0.08950397
000250 0a 21 3f be 4b 69 a3 be f8 a2 01 3e da 82 cc be
       -0.18664947 -0.3191627 0.12659824 -0.39943582
000260 14 ae 22 be f2 e9 65 bf 57 ca 88 bf 0c 65 a3 3d
       -0.15886718 -0.898101 -1.0686749 0.079782575
000270 f5 a7 f9 be a4 8a 82 bf e5 87 77 be 03 04 2b bf
       -0.48760954 -1.019856 -0.24172933 -0.66802996
000280 d2 de 13 3d 7b 7c 14 bf 84 c9 01 bf f3 bb 00 bf
       0.03610117 -0.5800244 -0.50698113 -0.5028679
000290 f9 b6 e3 bd f0 7b 81 be d6 66 50 bf 4f 61 3a be
       -0.11118884 -0.2528987 -0.81406915 -0.18201183
0002a0 3e a7 1f bf 38 6b 20 bd 72 61 14 be 69 18 b5 bf
       -0.62364566 -0.03916475 -0.14490297 -1.4148074
0002b0 d9 4f 69 bf e7 02 17 be e7 70 a1 3d ad a8 de bd
       -0.9113746 -0.14747201 0.078828625 -0.10872016
0002c0 b8 fc 80 3e 96 d4 c5 3e 2d 7e ba be c5 c2 14 3f
       0.2519281 0.38638753 -0.3642439 0.58109695
0002d0 fc 32 44 3e d1 03 b1 bf 27 31 a7 bf 68 aa 1b bf
       0.19160074 -1.382929 -1.3061875 -0.60806894
0002e0 2e 8a ae 3e e6 d9 ef bf d5 5e 91 bf 3c cb 96 bf
       0.34089798 -1.8738372 -1.1357065 -1.1780772
0002f0 7c 75 f4 bf 19 90 0d c0 91 60 63 c0 26 bb f4 3c
       -1.9098353 -2.21192 -3.552769 0.029874396
000300 58 69 15 3f be e8 57 3f 45 99 7a bf 2b 32 53 c0
       0.58363867 0.8433951 -0.9789012 -3.299937
000310 43 a1 a4 be 27 5c b6 3f bb 55 cb 3e a6 55 82 be
       -0.32154283 1.4246873 0.39713845 -0.2545597
000320 f2 19 20 bd 42 ba 2b be 5c b6 84 3d b1 0e 69 be
       -0.039087243 -0.1677027 0.06480095 -0.2275951
000330 1f 74 db bd ad 3c 5d be 35 79 4c be 49 3e 3a be
       -0.10715508 -0.21605177 -0.19968112 -0.18187822
000340 10 61 91 be 56 f6 c5 bb 96 6d a8 bd 51 fb 8d be
       -0.28394365 -0.0060413284 -0.08224027 -0.27730802
000350 2d db a2 3a b1 8e e4 bd bf b9 93 3d 21 3e c7 bd
       0.0012424939 -0.11160029 0.07213163 -0.09728647
000360 82 5b 56 be c2 75 7e bd e7 03 83 be ad 59 25 be
       -0.20933345 -0.06212402 -0.25588915 -0.1614749
000370 40 63 59 3d 7c 16 84 be a5 7e 8c be 78 7b 03 be
       0.053073168 -0.25798404 -0.27440372 -0.12840068
000380 6b 49 15 3d e1 c9 43 bd e8 d6 9a be e9 c7 72 be
       0.03644697 -0.04779995 -0.30242085 -0.23709072
000390 ee c1 16 be 42 ea 09 be 27 46 86 bd b5 7e 5c be
       -0.14722416 -0.13468269 -0.06556349 -0.2153271
0003a0 78 54 ca bd 61 2e 64 be 8a 33 5b be 3d f9 36 3d
       -0.098793924 -0.22283317 -0.2140638 0.044671286
0003b0 d0 71 83 be fb 50 5f be 88 46 99 be 3e ff 29 3d
       -0.2567277 -0.21808235 -0.29936624 0.041503184
0003c0 ea ea 73 be 8b a6 f5 3c 46 0b 1e be 89 73 3a 3d
       -0.23820081 0.02998664 -0.15433988 0.04552034
0003d0 d0 f9 a4 bd 20 8b 90 be 7a df ef bd 66 ae 5a bd
       -0.080554605 -0.28231144 -0.11712547 -0.053388976
0003e0 aa 8e 0b bd 93 94 1e be 5e 43 20 bf a0 db a8 be
       -0.034071602 -0.15486364 -0.62602794 -0.3298006
0003f0 93 53 ca be 09 a1 81 bc 6d 68 3d 3f 9f 0b 81 bf
       -0.39516887 -0.015823858 0.73987466 -1.0081671

bias f4 [32]
000000 8a 5a c8 bc f6 1a 06 be 9f 31 4d be 78 64 36 bf
       -0.024457235 -0.13096222 -0.2003846 -0.71247053
000010 80 be 19 bf 7b 9f 57 be 27 cc 94 be e0 34 78 bf
       -0.60056305 -0.2105693 -0.29062006 -0.9695568
000020 0d 80 5f be 15 1f 52 bd dc 90 67 be 2d 9d ad be
       -0.21826191 -0.051299173 -0.22613853 -0.33908978
000030 8d 7d 8a be b3 e4 ba be 02 e2 45 be 57 47 91 bd
       -0.27048913 -0.3650261 -0.19324496 -0.07093685
000040 f3 8f 1e be ad 38 64 be 62 e0 7d be 94 dc fa be
       -0.154846 -0.22287245 -0.24792627 -0.48996413
000050 c2 da 18 be c6 7d 08 be 11 70 33 be 00 3b e5 bd
       -0.149272 -0.13329229 -0.17523219 -0.11192894
000060 a4 d5 f1 be 50 39 25 be f8 35 21 be 7b 45 17 3e
       -0.47233307 -0.16135144 -0.15743244 0.14772598
000070 45 3c 7e be 1f 8f 31 be 81 ad 10 be 09 b2 59 be
       -0.24827679 -0.17339753 -0.14128686 -0.21259321

weight f4 [32, 32, 5, 5]
000000 22 97 38 3d da 66 1f bd e8 09 08 3e 0c 68 28 3d
       0.045066006 -0.038916446 0.13285029 0.04111485
000010 99 a7 fa bd d7 37 96 3e 5f 29 7d bd 6c 77 fb bd
       -0.12238998 0.29339477 -0.061807033 -0.12278637
000020 ff a6 f6 3d 2c ef 40 be 6e 0d dc bd 5f a5 10 be
       0.12043571 -0.18841237 -0.10744749 -0.14125584
000030 fb 6c b4 bd 43 6f cb 3d 44 46 10 be be df c4 bd
       -0.08809849 0.09933331 -0.14089304 -0.09612988
000040 d8 73 e7 bd fd 79 53 3c 05 32 1c 3e 8b f0 08 be
       -0.11301392 0.012907502 0.15253456 -0.1337301
000050 5d ba 84 bd bb 59 de bd 7d bf 07 3e f0 59 11 be
       -0.064808585 -0.108569585 0.1325664 -0.14194465
000060 7e 0e 0f be 1e bb 98 3e 94 8f 24 3e 23 00 e3 bc
       -0.13970372 0.2983026 0.16070396 -0.027710026
000070 62 74 bb bd 67 9c ae bc 31 d6 7a 3e 33 4d 49 3e
       -0.09153058 -0.021314813 0.2449577 0.19658355
000080 ae 43 5e bd 10 93 bb bd 58 df f4 bd a6 ea 89 3e
       -0.054263763 -0.09158909 -0.11956662 0.26936835
000090 a3 e4 2a 3e aa d2 75 bd 07 54 16 be ea 90 0c be
       0.1668878 -0.060015358 -0.14680491 -0.13727155
0000a0 18 f5 5c 3e 51 fe c9 3d cf e6 da bd 04 f0 fd bd
       0.21577871 0.0986296 -0.106885545 -0.12399295
0000b0 a1 ad da bd dd 7e 41 3e 35 5d 9f 3d 98 0d da bd
       -0.10677648 0.18896051 0.0778145 -0.10647124
0000c0 6e b0 f0 bd cf 9a b3 bd b3 57 f6 bc aa 55 d8 bd
       -0.11752401 -0.08769762 -0.030071115 -0.10563214
0000d0 7f 89 fb bd 40 ff 0e be d4 98 1d be d2 71 03 3e
       -0.12282085 -0.13964558 -0.1539033 0.12836388
0000e0 ea 24 d6 bd 9d 09 08 be 9b 49 07 be 8d 08 15 3e
       -0.104562595 -0.13284917 -0.13211672 0.14554043
0000f0 12 36 4a bd bf ba ee bd 67 1b 0e 3e 8d 36 4e be
       -0.04936797 -0.11656713 0.1387764 -0.20137997
000100 9b ba d5 bd ca 8b f0 bd 02 00 e9 bd a4 82 f2 bd
       -0.10435983 -0.11745413 -0.113769546 -0.11841324
000110 5f fc b3 bd 0e 4e 00 be 42 6d 1d be ef 6b e1 bd
       -0.0878837 -0.12529776 -0.1537371 -0.11006915
000120 eb ac d1 bd 70 14 d4 bd 3a c1 1d be 45 66 ef be
       -0.102380596 -0.10355461 -0.15405741 -0.46757713
000130 0f 7c 0c bf 69 dd 18 bf 89 9a 73 3f 95 d1 3f bf
       -0.548768 -0.59712845 0.95157677 -0.7492917
000140 23 97 04 bf 18 17 11 bf 70 07 17 bf b6 d8 1e 3f
       -0.51793116 -0.56675863 -0.58995724 0.62049425
000150 5b 7c 35 bf 27 d1 59 be 22 06 e8 be 4f 91 2b bf
       -0.70892876 -0.21271192 -0.4531718 -0.670186
000160 e2 72 15 3f 82 15 07 3f 2f cf b1 3e 2b 5f 5b bf
       0.5837842 0.52767193 0.3472838 -0.8569209
000170 76 df 26 bf 9c 76 0a 3f a8 8b 25 3f 4c ce f0 3e
       -0.65184724 0.54087234 0.64666224 0.47032392
000180 b0 63 28 bf 75 e9 39 bf 73 af 12 3f f7 c0 53 3f
       -0.6577711 -0.7262185 0.57298964 0.82716316
000190 6c 86 32 be 76 d3 f1 3c 80 05 b0 be c2 dd 30 3f
       -0.1743409 0.029519778 -0.34379196 0.69088376
0001a0 d8 8a ab be cf 8c 02 bf 07 1b ed 3d 80 21 d7 3e
       -0.33504367 -0.50996107 0.11577421 0.42017746
0001b0 94 9a a1 3f d2 14 d4 3d 47 3e d3 3d 16 d3 14 3e
       1.2625299 0.10355534 0.10314613 0.14533648
0001c0 b7 ed 59 be eb c9 b1 bf 4f 5b 5a bf 5c f6 5a bf
       -0.21282087 -1.3889745 -0.85295576 -0.85532165
0001d0 6c 2f f5 bf cb 40 e1 be 20 4c 06 bf e1 ea d6 bf
       -1.9155097 -0.43994746 -0.5245991 -1.6790429
0001e0 b7 31 f8 be ac a6 7c 3e d4 08 76 be cb 5f 4a be
       -0.4847543 0.24672955 -0.24026805 -0.19763105
0001f0 bf b4 75 be d8 80 89 bb b9 ed 04 bd 45 c8 56 bd
       -0.2399473 -0.0041962676 -0.032453272 -0.052437086
000200 42 72 44 be e1 fe f7 bd 46 28 7b 3c c2 cd b8 3d
       -0.19184211 -0.12109161 0.015329426 0.0902362
000210 95 4c 7c 3e 8e aa 1d bd 32 80 28 be bb de a3 3e
       0.24638589 -0.03849273 -0.16455153 0.32005867
000220 78 4e 0b be 74 21 2c be ac c2 30 bd da bc 2f 3e
       -0.13604152 -0.16809636 -0.043154404 0.17161885
000230 68 81 12 3e d7 80 36 be 7f 20 f3 bd 5d 27 e3 3d
       0.14307177 -0.17822586 -0.118714325 0.11091492
000240 a1 ec 8f 3d 12 9c 21 be a2 e6 12 be 9a c9 b6 bd
       0.07027555 -0.15782192 -0.14345792 -0.08925171
000250 a1 0f 48 be 3e 58 c4 bd 32 69 6a be 7d f4 a0 3e
       -0.19537212 -0.09587143 -0.22891691 0.3143653
000260 67 e3 dc 3d 70 de b1 be de b0 2c 3f 08 66 94 be
       0.10785561 -0.3474002 0.6745738 -0.28984094
000270 56 0c a2 be a1 99 3b 3e 26 0e 74 be 9c f9 f3 be
       -0.31650037 0.18320324 -0.23833522 -0.47651374
000280 b5 a9 43 bf a2 87 f7 3d 14 61 b7 3e 34 e6 c1 bf
       -0.7643083 0.12086417 0.35816252 -1.5148377
000290 1e 12 8b bd 48 17 14 bf 5a fe 64 3e 98 b8 03 be
       -0.06790565 -0.57848024 0.22362652 -0.12863386
0002a0 ad 64 71 bf 9f c4 de be 12 df a2 3e e9 83 28 bf
       -0.94294244 -0.43509385 0.31810814 -0.6582628
0002b0 fd f1 19 3e 88 85 6f be 4f ba ac 3e e8 5b 03 3e
       0.15033717 -0.23390782 0.33735892 0.12828028
0002c0 c9 eb f3 3c cb 7b 9e be c8 e4 02 3e 82 0e 37 bd
       0.029775517 -0.30953822 0.12782586 -0.04469157
0002d0 6b 12 af 3d a9 4c e8 be 44 8f 2e c0 2b 67 fe be
       0.08548435 -0.45370987 -2.7274942 -0.49688086
0002e0 6c 9c 4d c0 30 cc a0 be d9 6e e1 bf 1e bf 5e bf
       -3.2126722 -0.31405783 -1.7611953 -0.8701037
0002f0 53 9d 8b c0 92 a2 dc bf 61 4a 2a 3f d8 aa d0 be
       -4.3629546 -1.7237113 0.66519743 -0.40755343
000300 88 33 8c bf bb 75 33 c0 65 58 38 be d0 15 28 3d
       -1.0953226 -2.8040607 -0.1800247 0.041036427
000310 e0 61 91 3d 2a 94 53 bf 13 e2 4f c0 3d 69 8e c0
       0.07098746 -0.82647955 -3.2481735 -4.4503465
000320 a4 e8 8d bd f8 98 5d 3e 18 58 99 bd ef 8b de bd
       -0.06929138 0.21640384 -0.07487506 -0.10866534
000330 c4 25 eb bd 26 fd 64 3d 3b 7d 40 3e cd f4 fb bd
       -0.114818126 0.055905484 0.18797772 -0.123025514
000340 af 1e bb bd fc 5a c6 bd 42 8a 33 3e c0 de ec 3d
       -0.09136712 -0.09685323 0.1753321 0.11565924
000350 6a b5 1e 3e 12 ff 08 3e 94 d5 02 be f1 d3 0f 3e
       0.15498891 0.13378552 -0.12776786 0.14045693
000360 c9 cc b1 bd ee 37 10 3e c5 76 08 be 67 db 0b be
       -0.08681638 0.14083835 -0.13326557 -0.13657914
000370 cd cf 09 be e1 3d 06 3e 05 74 bc bd 5e c3 65 bd
       -0.13458176 0.13109542 -0.092018165 -0.05609452
000380 56 e7 12 be 2e 3d 4e bd 8b 8e 84 3d 56 3a 69 3d
       -0.1434606 -0.050351314 0.064725004 0.0569404
000390 74 0e 1e 3e 2c e5 4c bd 0f 3d be bd 65 fe 65 bd
       0.15435201 -0.050023243 -0.0928899 -0.056150813
0003a0 4d 27 01 3e 63 2d dc 3b a6 4d 64 bd f2 84 22 be
       0.12612648 0.0067192777 -0.055738114 -0.15871027
0003b0 41 56 a0 ba d8 4a bf 3d 00 ef b7 bc 7c 3f 94 bd
       -0.0012232737 0.09340447 -0.022452831 -0.07238671
0003c0 69 bf c5 be 23 68 bc 3d b4 65 84 3d 4e 0f aa bd
       -0.38622597 0.0919955 0.06464711 -0.083037004
0003d0 73 77 1e bd 32 b1 96 3c 53 a1 28 3e 91 09 88 bb
       -0.038688134 0.01839504 0.1646779 -0.004151531
0003e0 8e 48 c9 bc 26 da 28 3d 43 32 0c be f8 3e 8f be
       -0.02457073 0.041223668 -0.13691048 -0.2797773
0003f0 52 ce f5 3e c0 26 10 3d 04 60 9d bf 17 11 a8 bf
       0.48008972 0.035193205 -1.2294927 -1.3130215

bias f4 [32]
000000 11 35 43 3e 77 59 b9 bf 3a 99 0a be 10 51 09 be
       0.19063212 -1.4480428 -0.13535014 -0.13409829
000010 2e c6 1e be a5 04 23 be 87 2f c1 bd 4f 7d cf bd
       -0.15505287 -0.1591974 -0.09432893 -0.101313226
000020 69 6e 24 be 40 e1 f0 bd 12 17 fc bf 76 7e df be
       -0.16057743 -0.11761713 -1.969454 -0.4365117
000030 65 ef f2 bd be 7c c2 3e 59 e6 6c 3e 0c f9 d2 bf
       -0.11862067 0.37985796 0.23134746 -1.6482253
000040 69 d6 e9 bd 0b d9 4c be fa 51 09 c0 66 2a eb bf
       -0.114178486 -0.2000467 -2.1456285 -1.8372314
000050 7a 47 df bd f4 d7 c4 bd 77 e7 68 be 9e 23 ca bd
       -0.10902305 -0.09611502 -0.22744547 -0.09870075
000060 63 09 8c bd e0 c9 3f bf 6a 71 a2 bd fc a5 d3 bd
       -0.06837728 -0.7491741 -0.07931788 -0.103343934
000070 eb b2 ec bd a5 1a 23 be ef 1f c6 bd e1 6b e6 bd
       -0.115575634 -0.15928133 -0.096740596 -0.11251045

weight f4 [32, 1568]
000000 91 ff d7 bf bb 3c 96 3f bb f0 6c 3f cc 25 94 3e
       -1.6874868 1.1737283 0.92554826 0.28935087
000010 b7 24 92 3f e3 46 05 3f a2 d8 b2 bf 29 5d fd bf
       1.1417454 0.5206129 -1.3972361 -1.9794055
000020 98 c4 2c bf 17 a7 08 3f 3f 8c c7 3d c1 4c b0 3d
       -0.6748748 0.5337996 0.09743547 0.0860839
000030 1d fe ac 3e ee 07 a0 be 78 f7 93 3f 67 f3 b3 3f
       0.33787623 -0.3125605 1.1559896 1.4058656
000040 22 a6 ec be db 44 b3 3e 60 5f 48 3d 3f ff 47 bd
       -0.462205 0.3501347 0.04891908 -0.048827406
000050 bc e5 a5 be c9 c0 85 bf 4f 1c 9c 3f 36 0a 92 be
       -0.32401836 -1.0449458 1.2196139 -0.28523415
000060 27 ec c8 3e a1 6d ad 3d a2 3d 69 bd 0c f2 8a bd
       0.3924267 0.08468176 -0.056943543 -0.06784448
000070 a4 9e ff bd 8d f3 0e 3e cf 8d 3a 3e 56 7b 16 3e
       -0.1248143 0.13960095 0.18218158 0.14695486
000080 e2 d7 87 3e d6 c3 c9 be f2 f3 d5 3d 34 84 fc bf
       0.26531893 -0.39407223 0.104469195 -1.9727845
000090 0a cc 59 be ae 6a b1 3e bc 7c a4 3f 61 f3 e0 3c
       -0.21269241 0.34651703 1.2850566 0.027459802
0000a0 13 a4 be be 49 71 e6 be 18 d4 96 be 26 fd b8 bc
       -0.37234554 -0.45008305 -0.2945869 -0.022581648
0000b0 f0 94 15 bf 2d ac 61 3e 53 f5 93 be 23 3d 23 bf
       -0.58430386 0.22038336 -0.28898105 -0.6376516
0000c0 ce 3f d6 bf d1 eb e7 bd 65 e9 e4 3d b7 4a 29 3c
       -1.6738222 -0.11324275 0.11177329 0.010332755
0000d0 e3 ba 45 be cb a4 dc bd b0 a5 f7 bd 8f e1 fb 3d
       -0.19309573 -0.10773619 -0.12092149 0.12298881
0000e0 46 d3 de 3d 5c 8c df bd 21 3a f6 3e fc 0d 21 be
       0.10880141 -0.10915443 0.48091224 -0.15727991
0000f0 fb 69 d8 bd ac 35 05 be ea bf de 3d bd 32 06 3e
       -0.10567089 -0.13008755 0.108764485 0.13105293
000100 23 4e fc bd a9 e6 91 3f 52 9d 96 be 10 5d e9 3e
       -0.12319591 1.1398517 -0.294169 0.45578814
000110 67 a9 6b 3e 1b e3 2f be 91 36 fe 3d f4 04 5a 3f
       0.2301384 -0.17176478 0.124127515 0.8516381
000120 ec e6 1c 3f 92 77 ba 3f 40 49 c5 bc e4 75 c6 bd
       0.6128986 1.456774 -0.02408278 -0.096904546
000130 a3 9f b4 bd 61 f5 0e 3e 3d 80 4e 3f 0c 34 01 3f
       -0.08819511 0.13960792 0.80664426 0.5047004
000140 c9 2a 28 bd c6 49 25 bf 1b 76 9c 3e 6f 48 f4 bd
       -0.041056428 -0.64565694 0.30558857 -0.11927878
000150 94 19 ec 3d 96 20 0b be d7 c4 ea bd 33 76 b3 3d
       0.11528316 -0.1358665 -0.114633255 0.08762779
000160 78 11 1c bf 21 47 33 bf 54 d2 cd bd 1c 03 f9 3d
       -0.60964155 -0.7003041 -0.100498825 0.12158796
000170 11 76 11 be eb bb 0a be 76 d7 0b 3e 55 2a ee bd
       -0.14205195 -0.13548248 0.1365641 -0.11629168
000180 89 0c ef bd 14 52 c2 bd f1 93 d4 bd b1 38 9c bd
       -0.11672313 -0.094883114 -0.1037978 -0.076280005
000190 d7 01 15 be 31 1a 16 be 7d ec 01 be 75 a7 a4 bd
       -0.14551483 -0.14658429 -0.1268787 -0.080397524
0001a0 5f 45 e5 bd 3c 28 8f bd 3d b2 c5 bd 2d 71 bd bd
       -0.11194872 -0.06990096 -0.09653137 -0.09250102
0001b0 53 4a 0e be 9a 69 1d be f5 96 e9 bd 19 b8 ba bd
       -0.1389554 -0.15372315 -0.11405746 -0.09117145
0001c0 9a 8a 72 bd c8 6c 04 be 3c cd db bd 45 fe 1c be
       -0.059214212 -0.12932122 -0.10732505 -0.15331371
0001d0 5c b8 0b be 42 da ab bd 32 e0 ad bd be 11 83 bd
       -0.13644546 -0.08391239 -0.084900275 -0.063998684
0001e0 24 a1 a1 bd 73 b8 a8 bd 9d 58 a2 bd d0 e4 e9 bd
       -0.07892063 -0.08238306 -0.07927058 -0.11420596
0001f0 85 1f 96 bd b6 c6 f4 bd 57 10 b2 bd ec d5 9d bd
       -0.073302306 -0.119519636 -0.08694523 -0.07706818
000200 60 21 d6 bd 93 e9 18 be 2a 3e d4 bd 8c 17 19 be
       -0.104555845 -0.14932851 -0.10363419 -0.14950389
000210 30 ce 0b be 75 bd 9a bd fc eb c2 bd 65 ae 09 be
       -0.13652873 -0.07555667 -0.09517667 -0.13445432
000220 a0 98 15 be 61 99 b8 bd 8a 5a d5 bd 89 d2 ff bd
       -0.14609003 -0.0901363 -0.104176596 -0.12491328
000230 89 66 89 bd 8a 32 44 bd 77 d7 9e bd c9 dd bb bd
       -0.0670901 -0.04789976 -0.077559404 -0.091731615
000240 42 b5 b3 bd c9 f2 dd bd f9 31 9c bd c3 3e bd bd
       -0.087748066 -0.10837323 -0.07626719 -0.092404865
000250 42 19 45 bd 32 ad 67 bd a7 fa e0 bd 7d 00 b1 bd
       -0.04811979 -0.056561656 -0.10985308 -0.08642671
000260 ac 8a 6f 3d ad a9 1f 3e ff 2f 3d 3c 38 02 51 3d
       0.058481857 0.1559207 0.011547088 0.051027507
000270 cb e2 0d 3d b9 6f 0b 3b fe 71 12 3d 24 26 7c 3d
       0.034640115 0.0021276309 0.035753243 0.06155981
000280 4e ad 2c 3e d9 f9 20 be 9a f0 7b 3d 76 47 ad 3d
       0.16862985 -0.1572031 0.061508752 0.08460896
000290 f2 e5 1f 3d 09 08 32 3d da c0 85 3d 52 8c d4 3d
       0.039037652 0.043464694 0.06530924 0.103783265
0002a0 bc 9e 04 3e 8d 1e b2 3d 00 2f fb 3c f5 c9 84 3d
       0.12951177 0.08697233 0.03066206 0.06483833
0002b0 0e 9d 39 3d 0a 5b 08 3d 6b b7 5c 3c 77 44 8d 3d
       0.045315795 0.033289947 0.013471465 0.06897824
0002c0 5a ff c1 3d e1 4b 91 3d fd 31 29 3d ff 71 6a 3d
       0.094725326 0.07094551 0.04130744 0.05723762
0002d0 1a a2 1f 3d af b7 24 be 23 92 08 3e a9 b7 99 3d
       0.03897295 -0.16085695 0.13336997 0.075057335
0002e0 41 e0 b3 3d d7 ac e3 3d 62 23 e1 3d 0b 29 b9 3d
       0.087830074 0.11116951 0.10993077 0.090410315
0002f0 8e 92 9f 3d e0 36 4f 3d c2 98 be 3d 29 ac e7 3d
       0.07791625 0.050589442 0.0930648 0.11312134
000300 90 4c d0 3d f2 32 05 3e 0c 93 3e 3d 78 fc 45 3c
       0.10170853 0.13007715 0.046526954 0.012084119
000310 f2 2e e0 bd 19 45 4d bd e5 d7 92 bd be ba b3 bd
       -0.10946454 -0.050114725 -0.07170085 -0.087758526
000320 29 0b c7 bd 9b 14 0f 3c 9e 0b 0d 3c 1f d4 b9 bd
       -0.097189255 0.00873294 0.008608727 -0.09073662
000330 65 12 86 bd ba d7 7e bc 01 ea 67 bd fe 69 6a bd
       -0.06546477 -0.015554363 -0.056619648 -0.05722999
000340 44 9c 98 bc e5 a5 a6 3a bf 48 bd bd 27 35 35 bd
       -0.0186292 0.0012714235 -0.09242391 -0.044240143
000350 7c 32 3c bb 5b 86 7c bd d1 64 5f bd b4 0f 7c bd
       -0.0028716614 -0.06165157 -0.054539505 -0.061538413
000360 d9 63 44 bd 4f 34 1f be 66 65 85 bd e1 ff 3c bd
       -0.047946785 -0.15547298 -0.06513481 -0.046142463
000370 00 ed 31 bd b6 37 f6 bc 65 02 20 bc 4e 80 9e bd
       -0.04343891 -0.030055862 -0.009766196 -0.07739316
000380 74 80 54 bd 7d 6c dd bc 01 83 4c bd 47 19 82 bd
       -0.051880315 -0.02702927 -0.049929623 -0.063524775
000390 f6 97 25 bd 81 51 98 bd d0 cc ee bd 1c d2 90 bd
       -0.040428124 -0.07437421 -0.11660159 -0.07071325
0003a0 76 9c 3f bd 0b 7b 5e bd fc bf 8f bd b9 ec e2 bc
       -0.046780072 -0.05431656 -0.0701904 -0.027700769
0003b0 3b d8 b9 bd 27 5f d0 bd d9 15 9b bd 9e c4 7e bd
       -0.09074446 -0.10174399 -0.075725265 -0.062199228
0003c0 b7 79 a3 bc 36 ea 59 bd eb 84 95 bd 08 9c d1 bd
       -0.0199555 -0.053201877 -0.07300743 -0.10234839
0003d0 5b 95 fd bd 8f 22 a5 bd 18 a8 f2 bd a5 c5 e8 bd
       -0.12382003 -0.08063232 -0.118484676 -0.11365823
0003e0 4b 7e 06 be 41 9c 0e be 81 8d 8e bd b6 65 37 bd
       -0.13134114 -0.13926794 -0.069605835 -0.044774733
0003f0 7a 36 8e bd 74 5d 7f bd 37 d4 fb bd a4 19 c0 bd
       -0.06943984 -0.062344983 -0.12296336 -0.093798906

bias f4 [32]
000000 6b 57 88 3e 05 35 10 bf 0e 6c 68 bb 9b b3 76 bf
       0.26629195 -0.563309 -0.0035464796 -0.96367806
000010 a5 bc 72 3e ea d7 e7 3c f7 ba 40 3e 6b dc 8c 3d
       0.23704775 0.028301198 0.18821321 0.06877979
000020 9a 44 e9 3e 5a de 4d 40 40 a6 90 bd 19 eb bf bc
       0.4556015 3.2166963 -0.0706296 -0.023427533
000030 25 18 73 bf c6 10 8d 3e 4b b0 f2 bf 4e ff d9 bd
       -0.94958717 0.2755186 -1.896005 -0.10644399
000040 21 39 6b 3e 62 40 be 3e 85 59 b4 be 14 82 04 c0
       0.22971012 0.37158495 -0.35224548 -2.0704393
000050 37 64 41 3e bc 45 1a be 7f 32 86 3e c9 57 c1 3d
       0.18885885 -0.15065664 0.262104 0.09440572
000060 db 3b c5 3d 3d 5c 4f 40 f9 48 0a 3f 0a b1 d2 3e
       0.09630557 3.2400048 0.540176 0.41150695
000070 2f 60 c1 bd f0 a0 c3 3e df 03 28 bd 74 80 00 3e
       -0.09442174 0.38208723 -0.041019317 0.12549001

weight f4 [10, 32]
000000 16 53 8d be f2 e1 d1 bc 81 8c 53 be 30 a4 4c bf
       -0.27602452 -0.025620434 -0.20659067 -0.7993803
000010 84 82 5a bd a8 1b 92 bc da 45 38 bd bf e2 a5 bd
       -0.053347126 -0.017835453 -0.04498849 -0.08099889
000020 55 fd 63 be 8a cf c4 3e 90 00 00 3e 7f 16 4b 3d
       -0.22264607 0.3843959 0.12500215 0.049582
000030 67 6d c8 be 30 98 b3 3b d5 06 5b be 4d b5 33 3e
       -0.39145967 0.0054807886 -0.21389325 0.1754963
000040 2f ea 94 3b 89 38 a2 3d ad 9f 77 3d d5 12 8c 3f
       0.0045445184 0.079209395 0.060455013 1.0943247
000050 1c 63 c4 bd 62 67 97 bd 82 9e da bc bc c1 78 3d
       -0.09589216 -0.073927656 -0.02668691 0.060731634
000060 0a 6e 5a be 90 93 e2 be c8 14 d8 3c a4 25 13 bf
       -0.21331039 -0.44253206 0.026377097 -0.5747931
000070 58 d1 2c 3e 9d 89 08 be 34 64 2c 3e a5 ad bc 3d
       0.16876733 -0.13333745 0.168351 0.092128076
000080 6a 0a 01 be 52 89 ae 3d b3 e0 bc bd 37 7d 0c bf
       -0.12601629 0.085222855 -0.092225455 -0.5487856
000090 91 7d 65 be 8e 5e 5f 3b 25 d8 f6 3e 6f 24 73 3e
       -0.22411181 0.0034083459 0.4821178 0.23744367
0000a0 ca bf 09 3c 84 1a 2b 3a 42 cd c3 3d bc 9c ac bd
       0.0084075425 0.00065270835 0.09560634 -0.08428332
0000b0 8b c4 4d be c2 cb 1c 3e ac e1 97 be 08 6a 86 bd
       -0.20094506 0.15312102 -0.2966436 -0.065631926
0000c0 90 a6 c3 bd 20 d3 05 3d f5 cb 90 3e d1 c6 9c be
       -0.09553254 0.032672048 0.28280607 -0.30620435
0000d0 a9 01 af bc be 39 01 be ba 49 e4 bd b6 d5 3d 3e
       -0.021363096 -0.12619683 -0.11146875 0.18538556
0000e0 ae d5 f5 bd b2 25 a3 3f 35 18 9b 3e a3 99 4f bf
       -0.12003647 1.2745879 0.30291906 -0.81093806
0000f0 48 f6 f9 3c 6a 5b 91 3e c0 ac 96 bc 97 6e 22 bd
       0.030512944 0.28390056 -0.01839292 -0.039656248
000100 e9 18 0f be 56 d3 3a bd df 48 89 be 79 88 ee 3d
       -0.13974346 -0.045611702 -0.2681341 0.11647124
000110 74 13 b2 bd 7a 8b 0a 3d 0f 6a cd 3d fd 1d 2c bc
       -0.08695117 0.03382442 0.10029995 -0.010505197
000120 d6 5a 78 be 22 62 e9 3e f1 a9 d9 bc 06 33 d6 bd
       -0.24253401 0.45582682 -0.026570292 -0.10458951
000130 10 5d 0e bc 4c f6 64 3e 4e 94 b6 3e 0e f9 75 bd
       -0.00868918 0.2235958 0.35660022 -0.06005197
000140 fc a3 01 3c c5 af d8 bd e1 72 74 3e 12 04 9c be
       0.007912632 -0.105804004 0.23871948 -0.30471855
000150 b2 83 4a 3c 49 a2 03 3e 86 5b 8d bd ae bf 38 be
       0.0123605 0.12854876 -0.06902222 -0.1804187
000160 23 cb d9 3e 62 c7 69 be 4d 06 5c 3e d4 33 94 bf
       0.42537794 -0.22829965 0.21486779 -1.1578317
000170 bb 47 ef bd 2f e1 8e 3c 8e 22 23 bd 5a 4e 72 3e
       -0.116836034 0.01744136 -0.039827876 0.23662701
000180 76 73 b0 bd a6 f6 a1 3c c6 ed 10 3e 1c 03 38 3f
       -0.086157724 0.019770931 0.14153203 0.71879745
000190 92 86 71 3c e1 c8 bc 3d d1 55 92 3e e1 3e 23 bc
       0.014741557 0.09218002 0.28581098 -0.009963722
0001a0 d1 35 08 be 01 49 36 3e 67 04 87 bd 1e 7c 1a be
       -0.1330178 0.17801286 -0.065926366 -0.1508641
0001b0 d3 cd 96 be 0c b4 48 3d 09 3e 05 3f 7e 2a 47 bd
       -0.29453906 0.04899983 0.52047783 -0.048624508
0001c0 2a 24 c5 3d 5e 4f b3 3b 78 bb 35 3e 36 b2 96 be
       0.09626038 0.005472108 0.17747295 -0.2943284
0001d0 71 ac 02 3e a0 05 2b be 34 9a a9 3d a9 a0 bb 3d
       0.12761094 -0.16701365 0.08281365 0.09161503
0001e0 ce c5 36 bd bd ff 45 be 82 d9 32 3d 33 2d b3 3e
       -0.044622235 -0.19335838 0.043664463 0.34995422
0001f0 e2 28 b5 3d 3d 34 a5 3d 23 44 dc 3d d4 77 ce 3d
       0.088456884 0.08066604 0.107551835 0.10081449
000200 bb 25 61 be a2 36 ea bd bc 30 9a bb 8c 48 95 bf
       -0.2198705 -0.11436202 -0.0047055166 -1.1662765
000210 a1 64 f8 bd ec fb 20 3e fb 50 36 3f 9f 94 48 be
       -0.121285684 0.157211 0.71217316 -0.19587944
000220 1e bb 87 bd 00 18 04 be f6 5c 97 3d ac eb 2a 3c
       -0.06627487 -0.1289978 0.07390778 0.010432165
000230 75 24 30 3f fe 59 b2 bd 07 b0 75 3d 98 32 56 3d
       0.6880563 -0.08708571 0.059982326 0.052294344
000240 c1 af 25 3d cd 64 43 3d f2 aa 30 3e ab 70 10 bf
       0.040450815 0.047703553 0.1725271 -0.5642192
000250 38 50 b6 bd ae 19 29 3d 3c 87 9e bb 8f 82 9a 3d
       -0.08902019 0.041284256 -0.0048378985 0.07544433
000260 18 06 8c be 3b 90 68 be 10 fb ef bc 88 c8 0f be
       -0.273484 -0.2271127 -0.02929452 -0.1404134
000270 58 60 43 3d 79 bd 1b 3e 52 6b 98 3e a6 44 df bc
       0.047699302 0.15208997 0.2976938 -0.027254414
000280 68 2c e0 3d 9f af 58 be 7a 16 b3 3c 28 dc c0 be
       0.1094597 -0.21160744 0.021861304 -0.37667966
000290 be 0b 15 3e 24 28 06 bd c8 c4 bf bd b0 34 8e 3b
       0.1455526 -0.032753125 -0.09363705 0.004339777
0002a0 c3 4c 58 be 0b e5 60 be 13 5d a8 3d f0 bb c6 3b
       -0.21123032 -0.21962373 0.082208775 0.0060648844
0002b0 16 f0 0b bf 9d b9 84 3c ed 25 04 bf 1b 77 1a be
       -0.5466322 0.016201789 -0.5162037 -0.15084498
0002c0 3a c0 fd 3c a5 16 3b bd db 46 1f 3d d0 02 90 be
       0.03097545 -0.045675892 0.038885932 -0.28127146
0002d0 62 21 ce 3d 62 38 32 bc ca 67 bd 3d de ba 92 be
       0.10064961 -0.0108777005 0.09248312 -0.28658193
0002e0 25 0f f0 3e 1a fe ba bd dc b9 67 3d 05 56 58 3f
       0.46886554 -0.09130497 0.056573734 0.84506255
0002f0 ab 37 6a 3d f6 0e c9 bd e0 56 72 bc 3a 6f a7 bc
       0.057181995 -0.09817307 -0.01479122 -0.02043878
000300 0c 9b a8 bd 75 1f 1b 3e 84 4d 98 3b 47 32 5f bf
       -0.08232698 0.15148719 0.0046479125 -0.8718609
000310 64 bd 32 be 90 8d 08 3e b4 06 03 bf 1b b1 97 bd
       -0.1745506 0.13335252 -0.51182103 -0.07406827
000320 f8 0c b3 be 09 d4 47 bd 21 9c e6 bc a5 ef 04 3e
       -0.34970832 -0.048786197 -0.02815062 0.12982042
000330 60 d1 b9 bf e6 86 55 3e c0 f7 7a be 2e 34 ea 3d
       -1.4517021 0.20852241 -0.24508572 0.11435734
000340 f2 f8 34 be 21 dd 50 3e f2 74 13 3e 1b 7f ae be
       -0.1767309 0.20396854 0.1440008 -0.3408135
000350 a4 6e 8b 3d 6c 7b cf bc f8 77 96 3d 52 46 05 3e
       0.068082124 -0.025327407 0.07347101 0.13015106
000360 f4 c6 09 bf 89 26 f1 be 9d a3 de 3c ef b6 f1 bd
       -0.53819203 -0.47099712 0.027177626 -0.1180247
000370 cd 81 44 3e 4f 81 63 3d f7 72 1b 3e 67 5b 9f bd
       0.1919014 0.05554324 0.15180574 -0.077811055
000380 58 d0 69 bd e7 06 8a be c4 16 36 bd 3d fc 95 3e
       -0.057083458 -0.2695839 -0.044455305 0.29294005
000390 82 16 66 be d9 96 d8 3d 45 40 02 3f 7c cd 4b bb
       -0.22469524 0.10575647 0.5087932 -0.003109782
0003a0 2d 1d 08 be 54 f4 a0 3e 77 eb 6a bc 6a fc 0c be
       -0.1329238 0.31436408 -0.014338366 -0.13768163
0003b0 6b 19 47 3f ea a0 3f 3e e4 50 2d bf 88 27 3d bd
       0.7777316 0.18713728 -0.67701554 -0.046180278
0003c0 05 ab 06 3c 22 21 be bd 0e 91 04 3e 37 0e e2 be
       0.008219485 -0.09283663 0.12945959 -0.4415147
0003d0 d8 20 f2 3d 8a 61 97 3d 40 88 27 3d f7 45 c4 bd
       0.11822671 0.07391651 0.040901423 -0.09583657
0003e0 15 2d 2c bf 44 e1 88 be ba e8 b6 3c 73 27 0b bf
       -0.6725629 -0.26734364 0.02232777 -0.5435707
0003f0 4a f4 8b 3e 4c 66 2c bb 09 5c 8d 3c 9d 98 4e 3e
       0.27334815 -0.002630609 0.0172558 0.20175405

bias f4 [10]
000000 98 d9 5d bf 6e ca d7 3d c0 e9 ba 3d f1 0e 29 3f
       -0.86660147 0.10536657 0.091266155 0.66038424
000010 b5 46 1e bf b9 60 5c 3d 43 6f 87 c0 59 82 37 be
       -0.6182664 0.05380318 -4.2323318 -0.17920817
000020 45 40 3a 40 27 7b 13 3f
       2.9101727 0.5760979
