Handwritten_numerals-recognition_model.pth (torch, 312655 bytes, 8 tensors)

weight f4 [32, 1, 5, 5]
00000000: 2f72 36be 5b7e 22be 3004 49be 147e 58be
00000010: 9aba 13be b324 96be bc16 6bbc b67c 87bb
00000020: d4ac c7bc 6dc1 95be 2a76 5ebe cf4f 09be
00000030: 01d4 88be 6c23 aebe e652 10bc afa1 b2be
00000040: e839 7fbe de82 c6bd 23ea 8fbd 5dfd f8bb
00000050: 7df2 94be f9c0 13bd 9102 6e3c c65d 7cbe
00000060: 51cf c6bd 175c 1e3d c4e2 24be 851c 743c
00000070: a577 43bd 1bb0 b7be 1e97 f3bd 90d1 6ebe
00000080: b84a 17be 7eb6 febd 82ae a6be e650 553d
00000090: 8e9a 193d 4cfd 2e3d 1e69 3ebe 44d5 87be
000000a0: d2c3 4dbe e204 95bd a834 ccbd 1119 10be
000000b0: 2ff7 05be a0f2 26bd 29c7 52bd 9065 28bd
000000c0: 998c 60bd 27c6 97be 67cb 60be f96d 8abe
000000d0: 8334 a4be 616e 99bc fc6a 2fbe af57 e13b
000000e0: 2e65 01be d625 3bbe a4b5 08be 6f28 94be
000000f0: 19db a9bd 8ade bfbd e0c5 6bbb 4697 1abe
00000100: 74e6 613d fd45 45be 09a8 b1bd c5fa 22be
00000110: ec56 4abe 4015 813d 6d97 aebd 9a1e 85be
00000120: ce09 1ebd bfe7 f93c b255 93be 5e80 47bd
00000130: f462 3abf bc86 88bf 2a96 fdbe 0fbb f4be
00000140: bfa0 0d3e e2c8 00bf 26c2 56bf 6042 e2bc
00000150: 2810 77bf bcdb 81bf c879 54bf 510a 75be
00000160: 5da2 293f 8358 68bf dd8c 2abf a6f6 573c
00000170: 088f c9be 48c5 a0be 5534 54bf 0668 53bf
00000180: f0d7 1ebe 5694 073f 1766 e8be a7af 3dbf
00000190: 9bff b2bf 77ed b7bf 8ae5 73bf 3d51 01bf
000001a0: f472 b73e 203c b03d e5bb c2bf ebbd 863e
000001b0: a542 8dbe cb5f edbc db21 2bbe df8d cdbe
000001c0: b16f eabf fffa c7bc 3099 163d 59ca 10c0
000001d0: 7e2a 9abf c781 29c0 44ca 583b d9d6 da3d
000001e0: e378 d4bf 52dd 69bf 158a 15bf 5d77 69bf
000001f0: a78b 7fbe 8fda a9be 6e29 b8be 4007 0dbe
00000200: 6138 a73d 9881 e6bc 0479 483d fa03 f0bd
00000210: ca68 f0bd 0457 403d 0d2f 893d 2af2 63be
00000220: 3438 79be 6657 7a3d 6ca8 99be 069b 04be
00000230: 90fb 83bd 257a d2bd d816 68be ccd0 38be
00000240: 6e74 703d 0020 25be ce8f 5fbe dc4d b7bd
00000250: 0a21 3fbe 4b69 a3be f8a2 013e da82 ccbe
00000260: 14ae 22be f2e9 65bf 57ca 88bf 0c65 a33d
00000270: f5a7 f9be a48a 82bf e587 77be 0304 2bbf
00000280: d2de 133d 7b7c 14bf 84c9 01bf f3bb 00bf
00000290: f9b6 e3bd f07b 81be d666 50bf 4f61 3abe
000002a0: 3ea7 1fbf 386b 20bd 7261 14be 6918 b5bf
000002b0: d94f 69bf e702 17be e770 a13d 6be0 b0be
000002c0: ccda 943d 72ca fe3e 3f8f 6f3e 2681 f13e
000002d0: 4a0c 0bbf 2c67 bebf 85ff 18c0 e8c4 1ebf
000002e0: 1d59 de3d f0b6 fdbf 6e85 14bd 032b 8cbf
000002f0: 60df e8bf 141e dbbf e8ae 75c0 00f1 58be
00000300: 2878 363f 9c5c 323f 0db0 7fbf b9ab 6ec0
00000310: 4afe acbe 0f55 9d3f 67df 843e fd84 f7bd
00000320: f219 20bd 42ba 2bbe 5cb6 843d b10e 69be
00000330: 1f74 dbbd ad3c 5dbe 3579 4cbe 493e 3abe
00000340: 1061 91be 56f6 c5bb 966d a8bd 51fb 8dbe
00000350: 2ddb a23a b18e e4bd bfb9 933d 213e c7bd
00000360: 825b 56be c275 7ebd e703 83be ad59 25be
00000370: 4063 593d 7c16 84be a57e 8cbe 787b 03be
00000380: 6b49 153d e1c9 43bd e8d6 9abe e9c7 72be
00000390: eec1 16be 42ea 09be 2746 86bd b57e 5cbe
000003a0: 7854 cabd 612e 64be 8a33 5bbe 3df9 363d
000003b0: d071 83be fb50 5fbe 8846 99be 3eff 293d
000003c0: eaea 73be 8ba6 f53c 460b 1ebe 8973 3a3d
000003d0: d0f9 a4bd 208b 90be 7adf efbd 66ae 5abd
000003e0: aa8e 0bbd 9394 1ebe 9762 3abf 5d1c 8abe
000003f0: b8e8 a2be 7a3c 18bd 800f 353f 624d 03c0
-0.17816995 -0.15868513 -0.19630504 -0.21141845 -0.14426652 -0.29324874 -0.014348682 -0.0041347397
-0.024374403 -0.29249135 -0.21724764 -0.13409351 -0.26724246 -0.340114 -0.008808827 -0.3488898
-0.24924433 -0.0969293 -0.0702708 -0.0075985626 -0.29091254 -0.036072705 0.014526979 -0.24645147
-0.09707511 0.038662042 -0.16102129 0.014899378 -0.047721524 -0.35876545 -0.11894058 -0.23322129
-0.14774597 -0.12437151 -0.32555014 0.052079104 0.03750091 0.04272203 -0.18594787 -0.26529896
-0.20094231 -0.07276322 -0.09970981 -0.14072062 -0.13082574 -0.04075873 -0.051459465 -0.041112483
-0.054821584 -0.29643366 -0.21952592 -0.27037027 -0.32071313 -0.01872939 -0.17130655 0.006876908
-0.12636253 -0.18276152 -0.1335054 -0.28937098 -0.08293743 -0.09368618 -0.0035976097 -0.15096769
0.055151418 -0.1926498 -0.08674628 -0.15915973 -0.1975972 0.06302881 -0.08524976 -0.2599991
-0.03858357 0.030506013 -0.28776318 -0.048706405 -0.7280724 -1.0666118 -0.4952863 -0.47798964
0.13830851 -0.5030652 -0.83889997 -0.02761954 -0.9650903 -1.0145183 -0.82998323 -0.23929717
0.6626337 -0.9076006 -0.6662119 0.013181364 -0.39366937 -0.31400514 -0.8289235 -0.825806
-0.15512061 0.5296072 -0.45390388 -0.7409615 -1.3984255 -1.4369344 -0.95272124 -0.50514585
0.3582989 0.08605218 -1.5213591 0.2631677 -0.27589908 -0.028976342 -0.16712134 -0.40147302
-1.8315336 -0.024411676 0.036767185 -2.2623503 -1.2044218 -2.648546 0.0033079544 0.1068551
-1.6599392 -0.91353333 -0.5841382 -0.9119776 -0.24955617 -0.3317456 -0.35969108 -0.13772297
0.0816505 -0.028137967 0.048943534 -0.117195085 -0.11738737 0.046957985 0.06698427 -0.22260347
-0.24337846 0.061118506 -0.30011308 -0.12949762 -0.06444466 -0.102772035 -0.22664964 -0.180484
0.058704786 -0.16125488 -0.21832201 -0.08950397 -0.18664947 -0.3191627 0.12659824 -0.39943582
-0.15886718 -0.898101 -1.0686749 0.079782575 -0.48760954 -1.019856 -0.24172933 -0.66802996
0.03610117 -0.5800244 -0.50698113 -0.5028679 -0.11118884 -0.2528987 -0.81406915 -0.18201183
-0.62364566 -0.03916475 -0.14490297 -1.4148074 -0.9113746 -0.14747201 0.078828625 -0.34546217
0.07268295 0.4976383 0.23394488 0.47168845 -0.54315627 -1.4875236 -2.3905957 -0.62019205
0.10856841 -1.9821453 -0.03626006 -1.0950626 -1.8193169 -1.7118554 -3.8388004 -0.21185684
0.71277094 0.6967256 -0.9987801 -3.729231 -0.33787757 1.2291583 0.25951692 -0.120859124
-0.039087243 -0.1677027 0.06480095 -0.2275951 -0.10715508 -0.21605177 -0.19968112 -0.18187822
-0.28394365 -0.0060413284 -0.08224027 -0.27730802 0.0012424939 -0.11160029 0.07213163 -0.09728647
-0.20933345 -0.06212402 -0.25588915 -0.1614749 0.053073168 -0.25798404 -0.27440372 -0.12840068
0.03644697 -0.04779995 -0.30242085 -0.23709072 -0.14722416 -0.13468269 -0.06556349 -0.2153271
-0.098793924 -0.22283317 -0.2140638 0.044671286 -0.2567277 -0.21808235 -0.29936624 0.041503184
-0.23820081 0.02998664 -0.15433988 0.04552034 -0.080554605 -0.28231144 -0.11712547 -0.053388976
-0.034071602 -0.15486364 -0.72806686 -0.26974764 -0.31818175 -0.03716705 0.70726776 -2.051598

bias f4 [32]
00000000: 8a5a c8bc f61a 06be 9f31 4dbe 7864 36bf
00000010: 80be 19bf 7b9f 57be 27cc 94be 69d0 5bbf
00000020: 0d80 5fbe 151f 52bd da87 b2be 2d9d adbe
00000030: 8d7d 8abe ff20 88be 02e2 45be 5747 91bd
00000040: f38f 1ebe ad38 64be 62e0 7dbe 94dc fabe
00000050: c2da 18be c67d 08be 1170 33be 003b e5bd
00000060: bb9d babe 5039 25be f835 21be 760d cf3d
00000070: 453c 7ebe 1f8f 31be 81ad 10be 09b2 59be
-0.024457235 -0.13096222 -0.2003846 -0.71247053 -0.60056305 -0.2105693 -0.29062006 -0.85864884
-0.21826191 -0.051299173 -0.34869272 -0.33908978 -0.27048913 -0.26587674 -0.19324496 -0.07093685
-0.154846 -0.22287245 -0.24792627 -0.48996413 -0.149272 -0.13329229 -0.17523219 -0.11192894
-0.36448464 -0.16135144 -0.15743244 0.10109989 -0.24827679 -0.17339753 -0.14128686 -0.21259321

weight f4 [32, 32, 5, 5]
00000000: 2297 383d da66 1fbd e809 083e 0c68 283d
00000010: 99a7 fabd d737 963e 5f29 7dbd 6c77 fbbd
00000020: ffa6 f63d 2cef 40be 6e0d dcbd 5fa5 10be
00000030: fb6c b4bd 436f cb3d 4446 10be bedf c4bd
00000040: d873 e7bd fd79 533c 0532 1c3e 8bf0 08be
00000050: 5dba 84bd bb59 debd 7dbf 073e f059 11be
00000060: 7e0e 0fbe 1ebb 983e 948f 243e 2300 e3bc
00000070: 6274 bbbd 679c aebc 31d6 7a3e 334d 493e
00000080: ae43 5ebd 1093 bbbd 58df f4bd a6ea 893e
00000090: a3e4 2a3e aad2 75bd 0754 16be ea90 0cbe
000000a0: 18f5 5c3e 51fe c93d cfe6 dabd 04f0 fdbd
000000b0: a1ad dabd dd7e 413e 355d 9f3d 980d dabd
000000c0: 6eb0 f0bd cf9a b3bd b357 f6bc aa55 d8bd
000000d0: 7f89 fbbd 40ff 0ebe d498 1dbe d271 033e
000000e0: ea24 d6bd 9d09 08be 9b49 07be 8d08 153e
000000f0: 1236 4abd bfba eebd 671b 0e3e 8d36 4ebe
00000100: 9bba d5bd ca8b f0bd 0200 e9bd a482 f2bd
00000110: 5ffc b3bd 0e4e 00be 426d 1dbe ef6b e1bd
00000120: ebac d1bd 7014 d4bd 3ac1 1dbe 4566 efbe
00000130: 0f7c 0cbf 69dd 18bf 899a 733f 95d1 3fbf
00000140: 2397 04bf 1817 11bf 7007 17bf b6d8 1e3f
00000150: 5b7c 35bf 27d1 59be 2206 e8be 4f91 2bbf
00000160: e272 153f 8215 073f 2fcf b13e 2b5f 5bbf
00000170: 76df 26bf 9c76 0a3f a88b 253f 4cce f03e
00000180: b063 28bf 75e9 39bf 73af 123f f7c0 533f
00000190: 6c86 32be 76d3 f13c 8005 b0be c2dd 303f
000001a0: d88a abbe cf8c 02bf 071b ed3d 8021 d73e
000001b0: 949a a13f d214 d43d 473e d33d 16d3 143e
000001c0: b7ed 59be ebc9 b1bf 4f5b 5abf 5cf6 5abf
000001d0: 6c2f f5bf cb40 e1be 204c 06bf e1ea d6bf
000001e0: b731 f8be aca6 7c3e d408 76be cb5f 4abe
000001f0: bfb4 75be d880 89bb b9ed 04bd 45c8 56bd
00000200: 4272 44be e1fe f7bd 4628 7b3c c2cd b83d
00000210: 954c 7c3e 8eaa 1dbd 3280 28be bbde a33e
00000220: 784e 0bbe 7421 2cbe acc2 30bd dabc 2f3e
00000230: 6881 123e d780 36be 7f20 f3bd 5d27 e33d
00000240: a1ec 8f3d 129c 21be a2e6 12be 9ac9 b6bd
00000250: a10f 48be 3e58 c4bd 3269 6abe 7df4 a03e
00000260: 67e3 dc3d 70de b1be deb0 2c3f 0866 94be
00000270: 560c a2be a199 3b3e 260e 74be 9cf9 f3be
00000280: b5a9 43bf a287 f73d 1461 b73e 34e6 c1bf
00000290: 1e12 8bbd 4817 14bf 5afe 643e 98b8 03be
000002a0: ad64 71bf 9fc4 debe 12df a23e e983 28bf
000002b0: fdf1 193e 8885 6fbe 4fba ac3e 3adb 163e
000002c0: 99c9 003d 96a4 4ebf 823a 16be 5e84 0e3d
000002d0: 3398 bdbd fbe3 00bf 45b4 e3bf dd99 73bf
000002e0: d4e5 7ec0 9fa3 2dbd 1c12 95bf 3c27 dabe
000002f0: c11d 86c0 819a 31c0 5763 3e3f 33b8 ffbe
00000300: 9b8d c5bf 66c1 c2bf a28a 17bf 56e1 25be
00000310: 1260 7dbf a3d8 8abf ad29 16c0 c3ac 8ac0
00000320: a4e8 8dbd f898 5d3e 1858 99bd ef8b debd
00000330: c425 ebbd 26fd 643d 3b7d 403e cdf4 fbbd
00000340: af1e bbbd fc5a c6bd 428a 333e c0de ec3d
00000350: 6ab5 1e3e 12ff 083e 94d5 02be f1d3 0f3e
00000360: c9cc b1bd ee37 103e c576 08be 67db 0bbe
00000370: cdcf 09be e13d 063e 0574 bcbd 5ec3 65bd
00000380: 56e7 12be 2e3d 4ebd 8b8e 843d 563a 693d
00000390: 740e 1e3e 2ce5 4cbd 0f3d bebd 65fe 65bd
000003a0: 4d27 013e 632d dc3b a64d 64bd f284 22be
000003b0: 4156 a0ba d84a bf3d 00ef b7bc 7c3f 94bd
000003c0: 69bf c5be 2368 bc3d b465 843d 4e0f aabd
000003d0: 7377 1ebd 32b1 963c 53a1 283e 9109 88bb
000003e0: 8e48 c9bc 26da 283d dd5a d23c a869 41bf
000003f0: f84f c63e 6b44 9dbe 2b4f c5bf 31cd 17be
0.045066006 -0.038916446 0.13285029 0.04111485 -0.12238998 0.29339477 -0.061807033 -0.12278637
0.12043571 -0.18841237 -0.10744749 -0.14125584 -0.08809849 0.09933331 -0.14089304 -0.09612988
-0.11301392 0.012907502 0.15253456 -0.1337301 -0.064808585 -0.108569585 0.1325664 -0.14194465
-0.13970372 0.2983026 0.16070396 -0.027710026 -0.09153058 -0.021314813 0.2449577 0.19658355
-0.054263763 -0.09158909 -0.11956662 0.26936835 0.1668878 -0.060015358 -0.14680491 -0.13727155
0.21577871 0.0986296 -0.106885545 -0.12399295 -0.10677648 0.18896051 0.0778145 -0.10647124
-0.11752401 -0.08769762 -0.030071115 -0.10563214 -0.12282085 -0.13964558 -0.1539033 0.12836388
-0.104562595 -0.13284917 -0.13211672 0.14554043 -0.04936797 -0.11656713 0.1387764 -0.20137997
-0.10435983 -0.11745413 -0.113769546 -0.11841324 -0.0878837 -0.12529776 -0.1537371 -0.11006915
-0.102380596 -0.10355461 -0.15405741 -0.46757713 -0.548768 -0.59712845 0.95157677 -0.7492917
-0.51793116 -0.56675863 -0.58995724 0.62049425 -0.70892876 -0.21271192 -0.4531718 -0.670186
0.5837842 0.52767193 0.3472838 -0.8569209 -0.65184724 0.54087234 0.64666224 0.47032392
-0.6577711 -0.7262185 0.57298964 0.82716316 -0.1743409 0.029519778 -0.34379196 0.69088376
-0.33504367 -0.50996107 0.11577421 0.42017746 1.2625299 0.10355534 0.10314613 0.14533648
-0.21282087 -1.3889745 -0.85295576 -0.85532165 -1.9155097 -0.43994746 -0.5245991 -1.6790429
-0.4847543 0.24672955 -0.24026805 -0.19763105 -0.2399473 -0.0041962676 -0.032453272 -0.052437086
-0.19184211 -0.12109161 0.015329426 0.0902362 0.24638589 -0.03849273 -0.16455153 0.32005867
-0.13604152 -0.16809636 -0.043154404 0.17161885 0.14307177 -0.17822586 -0.118714325 0.11091492
0.07027555 -0.15782192 -0.14345792 -0.08925171 -0.19537212 -0.09587143 -0.22891691 0.3143653
0.10785561 -0.3474002 0.6745738 -0.28984094 -0.31650037 0.18320324 -0.23833522 -0.47651374
-0.7643083 0.12086417 0.35816252 -1.5148377 -0.06790565 -0.57848024 0.22362652 -0.12863386
-0.94294244 -0.43509385 0.31810814 -0.6582628 0.15033717 -0.23390782 0.33735892 0.14732066
0.03144226 -0.8071989 -0.14670756 0.034794204 -0.09257545 -0.5034787 -1.7789389 -0.9515665
-3.9827776 -0.04239237 -1.1646152 -0.42608058 -4.191132 -2.7750552 0.7437033 -0.4994522
-1.543384 -1.521527 -0.5919591 -0.1619924 -0.98974717 -1.0847362 -2.3462937 -4.333589
-0.06929138 0.21640384 -0.07487506 -0.10866534 -0.114818126 0.055905484 0.18797772 -0.123025514
-0.09136712 -0.09685323 0.1753321 0.11565924 0.15498891 0.13378552 -0.12776786 0.14045693
-0.08681638 0.14083835 -0.13326557 -0.13657914 -0.13458176 0.13109542 -0.092018165 -0.05609452
-0.1434606 -0.050351314 0.064725004 0.0569404 0.15435201 -0.050023243 -0.0928899 -0.056150813
0.12612648 0.0067192777 -0.055738114 -0.15871027 -0.0012232737 0.09340447 -0.022452831 -0.07238671
-0.38622597 0.0919955 0.06464711 -0.083037004 -0.038688134 0.01839504 0.1646779 -0.004151531
-0.02457073 0.041223668 0.025678093 -0.75551844 0.38732886 -0.3071626 -1.5414785 -0.14824368

bias f4 [32]
00000000: f509 923e 7759 b9bf 3a99 0abe 1051 09be
00000010: 2ec6 1ebe a504 23be 872f c1bd 4f7d cfbd
00000020: 696e 24be 40e1 f0bd db04 fcbf 767e dfbe
00000030: 65ef f2bd 9efc a43e b04d 3b3e dee2 d6bf
00000040: 69d6 e9bd 0bd9 4cbe 513e c4bf c931 1bbf
00000050: 7a47 dfbd f4d7 c4bd 77e7 68be 9e23 cabd
00000060: 6309 8cbd e0c9 3fbf ca15 ed3b fca5 d3bd
00000070: ebb2 ecbd a51a 23be ef1f c6bd e16b e6bd
0.28523222 -1.4480428 -0.13535014 -0.13409829 -0.15505287 -0.1591974 -0.09432893 -0.101313226
-0.16057743 -0.11761713 -1.9688982 -0.4365117 -0.11862067 0.32223982 0.18291354 -1.6787984
-0.114178486 -0.2000467 -1.5331517 -0.6062284 -0.10902305 -0.09611502 -0.22744547 -0.09870075
-0.06837728 -0.7491741 0.0072352635 -0.103343934 -0.115575634 -0.15928133 -0.096740596 -0.11251045

weight f4 [32, 1568]
00000000: 879e fcbf 70be 583f c47f 0340 81d7 1a3e
00000010: 0a1d bebe edb6 093f f932 7fbf 4160 2ec0
00000020: 3a74 29bf b051 653f 3a08 3f3e 77af 03be
00000030: 9b62 a33e b54f 313d 808b ce3f 8e4f 243f
00000040: 46a7 95bf 3984 553e 164f 5b3c f722 88be
00000050: 0e6a f6bc c420 acbf b92a abbe f9d8 9fbd
00000060: 90b1 1c3e e590 91bd e49d d53c f598 a83f
00000070: 58d6 a0bf 8ce7 f7be 76cb 003f 0d7f a73e
00000080: bf6f 80be 71ad 86be b6ed 313f 489b b1bf
00000090: 2056 94be 4839 ea3e 2f0d 513f 9094 dabd
000000a0: 7ee2 8dbe d962 0bbd 23ff 28bf 3fb2 be3e
000000b0: 033b 3abf 4df0 20bd a46b 94be d3ae 9cbf
000000c0: e4cc 8abf d1eb e7bd 65e9 e43d b74a 293c
000000d0: e3ba 45be cba4 dcbd b0a5 f7bd 8fe1 fb3d
000000e0: 46d3 de3d 5c8c dfbd 213a f63e fc0d 21be
000000f0: fb69 d8bd ac35 05be eabf de3d bd32 063e
00000100: 234e fcbd a9e6 913f 529d 96be 105d e93e
00000110: 67a9 6b3e 1be3 2fbe 9136 fe3d f404 5a3f
00000120: ece6 1c3f 9277 ba3f 4049 c5bc e475 c6bd
00000130: a39f b4bd 61f5 0e3e 3d80 4e3f 0c34 013f
00000140: c92a 28bd c649 25bf 1b76 9c3e 6f48 f4bd
00000150: 9419 ec3d 9620 0bbe d7c4 eabd 3376 b33d
00000160: 7811 1cbf 2147 33bf 54d2 cdbd 1c03 f93d
00000170: 1176 11be ebbb 0abe 76d7 0b3e 552a eebd
00000180: 890c efbd 1452 c2bd f193 d4bd b138 9cbd
00000190: d701 15be 311a 16be 7dec 01be 75a7 a4bd
000001a0: 5f45 e5bd 3c28 8fbd 3db2 c5bd 2d71 bdbd
000001b0: 534a 0ebe 9a69 1dbe f596 e9bd 19b8 babd
000001c0: 9a8a 72bd c86c 04be 3ccd dbbd 45fe 1cbe
000001d0: 5cb8 0bbe 42da abbd 32e0 adbd be11 83bd
000001e0: 24a1 a1bd 73b8 a8bd 9d58 a2bd d0e4 e9bd
000001f0: 851f 96bd b6c6 f4bd 5710 b2bd ecd5 9dbd
00000200: 6021 d6bd 93e9 18be 2a3e d4bd 8c17 19be
00000210: 30ce 0bbe 75bd 9abd fceb c2bd 65ae 09be
00000220: a098 15be 6199 b8bd 8a5a d5bd 89d2 ffbd
00000230: 8966 89bd 8a32 44bd 77d7 9ebd c9dd bbbd
00000240: 42b5 b3bd c9f2 ddbd f931 9cbd c33e bdbd
00000250: 4219 45bd 32ad 67bd a7fa e0bd 7d00 b1bd
00000260: ac8a 6f3d ada9 1f3e ff2f 3d3c 3802 513d
00000270: cbe2 0d3d b96f 0b3b fe71 123d 2426 7c3d
00000280: 4ead 2c3e d9f9 20be 9af0 7b3d 7647 ad3d
00000290: f2e5 1f3d 0908 323d dac0 853d 528c d43d
000002a0: bc9e 043e 8d1e b23d 002f fb3c f5c9 843d
000002b0: 0e9d 393d 0a5b 083d 6bb7 5c3c 7744 8d3d
000002c0: 5aff c13d e14b 913d fd31 293d ff71 6a3d
000002d0: 1aa2 1f3d afb7 24be 2392 083e a9b7 993d
000002e0: 41e0 b33d d7ac e33d 6223 e13d 0b29 b93d
000002f0: 8e92 9f3d e036 4f3d c298 be3d 29ac e73d
00000300: 904c d03d f232 053e 0c93 3e3d 78fc 453c
00000310: f22e e0bd 1945 4dbd e5d7 92bd beba b3bd
00000320: 290b c7bd 9b14 0f3c 9e0b 0d3c 1fd4 b9bd
00000330: 6512 86bd bad7 7ebc 01ea 67bd fe69 6abd
00000340: 449c 98bc e5a5 a63a bf48 bdbd 2735 35bd
00000350: 7c32 3cbb 5b86 7cbd d164 5fbd b40f 7cbd
00000360: d963 44bd 4f34 1fbe 6665 85bd e1ff 3cbd
00000370: 00ed 31bd b637 f6bc 6502 20bc 4e80 9ebd
00000380: 7480 54bd 7d6c ddbc 0183 4cbd 4719 82bd
00000390: f697 25bd 8151 98bd d0cc eebd 1cd2 90bd
000003a0: 769c 3fbd 0b7b 5ebd fcbf 8fbd b9ec e2bc
000003b0: 3bd8 b9bd 275f d0bd d915 9bbd 9ec4 7ebd
000003c0: b779 a3bc 36ea 59bd eb84 95bd 089c d1bd
000003d0: 5b95 fdbd 8f22 a5bd 18a8 f2bd a5c5 e8bd
000003e0: 4b7e 06be 419c 0ebe 818d 8ebd b665 37bd
000003f0: 7a36 8ebd 745d 7fbd 37d4 fbbd a419 c0bd
-1.9735879 0.84665585 2.0546732 0.1512127 -0.3713153 0.5379475 -0.99687153 -2.7246249
-0.6619297 0.8957777 0.18655482 -0.12859903 0.31911168 0.043288905 1.6136322 0.6418389
-1.1691673 0.2085122 0.013385555 -0.26589176 -0.030079868 -1.3447499 -0.33431032 -0.07805056
0.1530211 -0.071077146 0.026076265 1.3171679 -1.2565413 -0.48418844 0.50310457 0.3271412
-0.25085256 -0.263042 0.69503343 -1.3875513 -0.28971958 0.45746827 0.8166074 -0.10672867
-0.27711862 -0.034029815 -0.6601431 0.37245366 -0.72746295 -0.03929167 -0.28988373 -1.2240852
-1.0843778 -0.11324275 0.11177329 0.010332755 -0.19309573 -0.10773619 -0.12092149 0.12298881
0.10880141 -0.10915443 0.48091224 -0.15727991 -0.10567089 -0.13008755 0.108764485 0.13105293
-0.12319591 1.1398517 -0.294169 0.45578814 0.2301384 -0.17176478 0.124127515 0.8516381
0.6128986 1.456774 -0.02408278 -0.096904546 -0.08819511 0.13960792 0.80664426 0.5047004
-0.041056428 -0.64565694 0.30558857 -0.11927878 0.11528316 -0.1358665 -0.114633255 0.08762779
-0.60964155 -0.7003041 -0.100498825 0.12158796 -0.14205195 -0.13548248 0.1365641 -0.11629168
-0.11672313 -0.094883114 -0.1037978 -0.076280005 -0.14551483 -0.14658429 -0.1268787 -0.080397524
-0.11194872 -0.06990096 -0.09653137 -0.09250102 -0.1389554 -0.15372315 -0.11405746 -0.09117145
-0.059214212 -0.12932122 -0.10732505 -0.15331371 -0.13644546 -0.08391239 -0.084900275 -0.063998684
-0.07892063 -0.08238306 -0.07927058 -0.11420596 -0.073302306 -0.119519636 -0.08694523 -0.07706818
-0.104555845 -0.14932851 -0.10363419 -0.14950389 -0.13652873 -0.07555667 -0.09517667 -0.13445432
-0.14609003 -0.0901363 -0.104176596 -0.12491328 -0.0670901 -0.04789976 -0.077559404 -0.091731615
-0.087748066 -0.10837323 -0.07626719 -0.092404865 -0.04811979 -0.056561656 -0.10985308 -0.08642671
0.058481857 0.1559207 0.011547088 0.051027507 0.034640115 0.0021276309 0.035753243 0.06155981
0.16862985 -0.1572031 0.061508752 0.08460896 0.039037652 0.043464694 0.06530924 0.103783265
0.12951177 0.08697233 0.03066206 0.06483833 0.045315795 0.033289947 0.013471465 0.06897824
0.094725326 0.07094551 0.04130744 0.05723762 0.03897295 -0.16085695 0.13336997 0.075057335
0.087830074 0.11116951 0.10993077 0.090410315 0.07791625 0.050589442 0.0930648 0.11312134
0.10170853 0.13007715 0.046526954 0.012084119 -0.10946454 -0.050114725 -0.07170085 -0.087758526
-0.097189255 0.00873294 0.008608727 -0.09073662 -0.06546477 -0.015554363 -0.056619648 -0.05722999
-0.0186292 0.0012714235 -0.09242391 -0.044240143 -0.0028716614 -0.06165157 -0.054539505 -0.061538413
-0.047946785 -0.15547298 -0.06513481 -0.046142463 -0.04343891 -0.030055862 -0.009766196 -0.07739316
-0.051880315 -0.02702927 -0.049929623 -0.063524775 -0.040428124 -0.07437421 -0.11660159 -0.07071325
-0.046780072 -0.05431656 -0.0701904 -0.027700769 -0.09074446 -0.10174399 -0.075725265 -0.062199228
-0.0199555 -0.053201877 -0.07300743 -0.10234839 -0.12382003 -0.08063232 -0.118484676 -0.11365823
-0.13134114 -0.13926794 -0.069605835 -0.044774733 -0.06943984 -0.062344983 -0.12296336 -0.093798906

bias f4 [32]
00000000: 4870 14bd 0002 12be 4969 59be 93ce 63bf
00000010: aa82 ad3e 3ef6 bb3e c898 003e e05e 8a3e
00000020: 9f9a 5f3e 31de 4c40 4906 ebba 4b22 5b3e
00000030: 5695 65bf 9c90 2a3f 11b7 00c0 9485 febb
00000040: 2bd0 173e 312d 213f c8d5 f5be 917b 02c0
00000050: 33a6 253e cab0 5abd b3cc 8c3e bb7f 243d
00000060: f936 923d 9a59 4240 ee64 093f 1def 433e
00000070: f7ae e33d 2e29 6b3e b64b b93d 7855 f4bc
-0.036239892 -0.14258575 -0.2123157 -0.8898708 0.3388875 0.36711305 0.12558281 0.2702551
0.21836327 3.2010615 -0.001793095 0.213998 -0.89680994 0.66626906 -2.0111735 -0.0077673886
0.14825504 0.6295958 -0.48014665 -2.038792 0.16176681 -0.053391255 0.27499923 0.040160876
0.071393915 3.0367188 0.5366963 0.19134183 0.11117356 0.22964928 0.09047644 -0.02982591

weight f4 [10, 32]
00000000: 3611 0bbe 8699 043e ce52 d0bd 7800 31bf
00000010: 0534 8cbe 0d88 0f3e f304 95bd 854f 3c3e
00000020: 5cee 8ebe 6a8f ab3e 50fa 133e 6015 9ebc
00000030: 143e a5be acc7 35be 4130 93be c469 053d
00000040: 25fd 27bd 2b0b 36bd b980 05be 439a 8e3f
00000050: 6c55 c3bc 2320 16be e31c 96bd 1ac7 bcbd
00000060: 3dfa d7bd b759 a1be 018f d63d 1481 30bf
00000070: 6b4e 183e 5a1f b23d ab24 e33d 4ed4 70bd
00000080: b0e6 acbe 5d6a 503d 5777 8b3a a153 bdbe
00000090: 590c d9bd c488 0b3e 9fba 1b3f 6146 ce3d
000000a0: 0085 79be 4eaf 33bd bde7 333d c2af 85bd
000000b0: 7e86 a5be d707 043d b7e7 73be 5d1b 5cbe
000000c0: 5aa1 aebc bbbf 59be 69a2 433e b19d d0be
000000d0: ab8b 513e 5e74 063e b171 b83d bbb1 dd3c
000000e0: 5b43 5ebe f6e1 803f 7be2 363f 072b 45bf
000000f0: a04e 5c3e 547f 213e e9ad 03be ec3d d2bd
00000100: 30c4 57bd 8039 fdbd b094 d7bd f43d 2e3e
00000110: 4dbc c1bc b2ce 1fbd e911 1f3e 80ae 513b
00000120: 4e76 a5bd b118 e73e c3c1 84bd 5add 7f3d
00000130: 479b a83c 87f8 bb3d f2b2 c03e 79e0 b93d
00000140: 2172 823e 84d1 cfbd 180e 203e b410 84be
00000150: 512d 7cbd 7b7c 843d 674e 69be 7ae5 a23c
00000160: 890e c13e 6c1e 05be c49b 1d3e de11 9cbf
00000170: 8259 16bd 1e06 b33d c1fe 9ebd ac46 1b3e
00000180: 2e8c bdbe 5b9f 2c3e 5ddb 80bd 462e 383f
00000190: 67f7 dc3c 2b1a 17be 8767 b23e bb93 bcbd
000001a0: f24c a6bd 1a21 813e 2d66 e7bd ba56 08be
000001b0: 5c14 babe 1f26 70bd b0bc ad3e 96f5 e6bd
000001c0: a572 113e 9c40 22be 523e 4e3e 492f 3ebe
000001d0: f28f d93d 356a 7b3d f6be 4bbe f2e6 313d
000001e0: 5241 023e ee80 0fbe 785f 04be 6528 d43e
000001f0: c53e dc3d c2b5 a7bc d5e7 bfbc 022f 473e
00000200: 1bec b0bd 30af dabd c530 ab3d a0e1 8cbf
00000210: 4bfb 463b a7cf 853d 467a 393f 02f8 77bd
00000220: f413 d1bd 4e2c 5bbc ace3 1a3d 5728 6b3d
00000230: 8c5c 193f 5859 c93d 4c08 623d 41ad 303e
00000240: 7ce4 433e 6af0 ab3b b415 d33d 626f 01bf
00000250: c917 5d3d bfe4 69bc 4531 47bd fa6e 9b3d
00000260: afa2 d6be dc14 56be 1978 dcbd 9081 46be
00000270: c09f a3bd bb02 033c 0ba0 373d 5201 15bd
00000280: a9fc bd3d ca27 40bc 50af fcbd a183 e7be
00000290: ef00 ca3d f7a0 41bc 4ddc 21be 24c7 ad3d
000002a0: 3a9f c9bd 539b 7ebe b764 93bc 9207 59bd
000002b0: 140e 0fbf 3f9d c73d 04c5 d0be 90ee 61bd
000002c0: 68ba 41be 6c10 6d3d 41b1 9c3e 36a1 9dbe
000002d0: ff98 963e d9c5 df3d 9813 f23d fada ec3c
000002e0: 473a fd3e 1be7 a2be 97d5 533d 54b3 523f
000002f0: 7aa1 60bc 7185 03be 75aa 64bd cb8d 89bd
00000300: 693c 853d 0e03 9fbd c43a 743d 32af 76bf
00000310: dff8 12be 0927 4d3e b83e 1ebf 2a99 7cbd
00000320: 7242 5cbe dfe7 2f3d 650f a83c ea25 debd
00000330: 15a0 afbf e8b3 813d d2a5 6cbe 086f 333e
00000340: 99b7 b53d d38a f9bc bdd5 073e 8bbf cabe
00000350: c9ec 27be d39d 193d 4857 8c3d 8c47 7cbe
00000360: a816 20bf d5cb 9ebe 5fb6 46bd 20b6 7cbe
00000370: 238a 8fbd b2bb b4bd feea 123e 1e48 e63d
00000380: e785 06bd ee4b 5cbd ec7f a7bd 00e3 923e
00000390: c7c4 863d d111 d43c 608b d93e c47a 8d3c
000003a0: 2d01 8abe 17f0 f33e a88d 1e3e 2973 713c
000003b0: bd9c 463f 0bf4 6c3d 3cf6 36bf 7a6e 74bd
000003c0: a892 92b9 c87c 123e 22a7 423d 6e90 18bf
000003d0: 9e7e 2fbe 9adf e03d c311 2d3c f77f f2bd
000003e0: 9996 07bf 99a2 3abe aafb 313d 8471 ecbe
000003f0: 9259 8b3d acc2 4e3c fbb0 993b e1b4 473d
-0.13580784 0.1294919 -0.10172044 -0.6914134 -0.27383438 0.14016743 -0.072763346 0.1838971
-0.2791623 0.33507854 0.14450955 -0.019297302 -0.32273924 -0.1775195 -0.28747752 0.03257157
-0.0410129 -0.044444244 -0.13037385 1.1140827 -0.023844443 -0.14660697 -0.073297285 -0.09217663
-0.10545776 -0.3151376 0.104764946 -0.6894696 0.14873664 0.08697386 0.11090978 -0.05879622
-0.3376975 0.050882686 0.0010640424 -0.36977866 -0.10598058 0.1362639 0.60831636 0.100720175
-0.24367142 -0.043868355 0.043922175 -0.06527664 -0.32329172 0.03223404 -0.23818861 -0.21494813
-0.021317173 -0.21264546 0.19104923 -0.4074531 0.20463435 0.13130328 0.0900606 0.027062288
-0.21705382 1.0068958 0.7143933 -0.7701878 0.21514368 0.15771228 -0.1285931 -0.10265717
-0.052677333 -0.12364483 -0.10526407 0.1701582 -0.02364936 -0.03901548 0.15534176 0.003199488
-0.080792055 0.45136026 -0.064822696 0.062466957 0.020581855 0.09178262 0.37636524 0.09076018
0.25477698 -0.10147384 0.15630376 -0.25793993 -0.061566655 0.06469055 -0.22783814 0.019884814
0.37706402 -0.12999886 0.15391451 -1.2192953 -0.036706455 0.08741401 -0.07763434 0.15163678
-0.3702101 0.16857664 -0.0629184 0.7194561 0.02697344 -0.14756076 0.3484461 -0.09207865
-0.08120145 0.25220567 -0.11298785 -0.13314334 -0.36343658 -0.058630105 0.3393302 -0.112773106
0.1420389 -0.15844959 0.20140961 -0.18572725 0.106231585 0.061380584 -0.19897065 0.043433137
0.1272023 -0.14014027 -0.12927043 0.4143707 0.1075416 -0.020472411 -0.023425976 0.19451526
-0.086387835 -0.106779456 0.083589114 -1.1006355 0.0030362185 0.06533747 0.724522 -0.060539253
-0.10208884 -0.013377262 0.03781478 0.057411518 0.5990684 0.09831494 0.055183694 0.17253591
0.19130129 0.0052471654 0.10306874 -0.5056058 0.05397776 -0.014275729 -0.04863097 0.075895265
-0.41920993 -0.20906395 -0.10765094 -0.19385362 -0.07989454 0.007996256 0.044830363 -0.036378212
0.09276707 -0.011728236 -0.12338126 -0.45217612 0.09863459 -0.011818162 -0.15806694 0.08485249
-0.09844823 -0.24863939 -0.01799236 -0.052985735 -0.55880857 0.09746789 -0.4077531 -0.05515915
-0.18918765 0.05787699 0.30603984 -0.30787057 0.29413602 0.10926408 0.118201435 0.02891301
0.49458525 -0.31816944 0.051717367 0.82304883 -0.013710374 -0.12843873 -0.055826623 -0.06716498
0.06505663 -0.077642545 0.059626356 -0.96361077 -0.1435275 0.20034422 -0.6181445 -0.061669506
-0.21509722 0.04294574 0.020515153 -0.10847075 -1.3720728 0.063331425 -0.2311013 0.17522824
0.08872909 -0.030461704 0.13265128 -0.3959926 -0.1639892 0.03750403 0.06852585 -0.24636668
-0.6253457 -0.31014886 -0.048513766 -0.2467885 -0.07008769 -0.088248625 0.14347455 0.11244224
-0.032842543 -0.05378335 -0.08178696 0.28688812 0.06580501 0.025887402 0.42489147 0.017270453
-0.26954022 0.47644112 0.15483725 0.014736929 0.77582914 0.057849925 -0.71469474 -0.05967567
-0.00027956557 0.14305413 0.04752267 -0.5959538 -0.17138144 0.109801486 0.010563317 -0.118408136
-0.5296417 -0.18226089 0.043452896 -0.46180356 0.068041936 0.012619656 0.004690287 0.048756484

bias f4 [10]
00000000: 55fe 27bf 30d8 883d 3a1e 753e bdb2 2c3f
00000010: b00f 57bf 7419 6e3c b445 7fc0 442c f2bd
00000020: e4fc 2c40 3142 143f
-0.65622455 0.066818595 0.23937312 0.6746023 -0.8400831 0.014532436 -3.9886293 -0.11824849
2.7029352 0.579135
