model_tarin_final.pth (torch, 587335 bytes, 10 tensors)

weight f4 [32, 3, 5, 5]
00000000: 91d6 973d 9e2c 223e 05d8 203e 6e7d 0b3e
00000010: 84c7 bd3d 2ac1 90bd 3743 453d 5c8f 2e3e
00000020: 3a4e 023e 9ca1 4c3e 4ebd 71bd 8b64 cdbd
00000030: 206d 1e3e daa9 443e a9eb 4d3e 8377 223d
00000040: a8c6 84bd 6436 8d3d 756a 833d 7b60 443d
00000050: c980 b6bd 6412 e7bd 4a06 dcbc 82a1 8d3d
00000060: b068 6f3d 9737 f73c 119d c3bc a821 70bc
00000070: d3f3 ca3d ce48 0ebd 1bb4 77be b094 8cbd
00000080: 8e0b 553d faae 8bbd ca45 a13c d538 86be
00000090: 9826 3bbe 3e4d 3bbe abfe b3bd c6e7 da3b
000000a0: 2ede 7abe c98c 46be 86d4 65be 0e96 53be
000000b0: bbd0 55bd d84d 8ebc 677b 5ebe ce6c 1ebe
000000c0: b6d7 1cbe 1d1a ce3b 98c6 783d ff76 253e
000000d0: c811 98bc 73e5 f43d f497 083e 13ed d2bc
000000e0: 66df 853d a987 83bc 447e 363d 0127 e03d
000000f0: f921 09be ab3b ad3d df9e 983c 4e12 0d3e
00000100: 4f49 453e 47fa 6ebd c0d6 a03c 618c 23be
00000110: c98f a1bd d892 00bc 4b87 adbd b04a a3bc
00000120: e88a 493d 5407 acbd dcae 073d 16ed 3bbb
00000130: 868c c43d e707 e83d b512 1f3e 36d8 2b3d
00000140: acc7 373d cdcb a93d 244f 183e 7a74 e03d
00000150: aec4 f2bc 695f d33d 297e 583e 738d 2d3e
00000160: ad54 f03d 9f94 14bc b21f 513e 756c 953d
00000170: e200 c63d 9eb0 babd c88f 1bbc 7ca0 963d
00000180: 44ee c03d cdd7 133c ea92 26bc bf26 07be
00000190: ea7d 873d b32c 073d b750 0abe d7ac a63c
000001a0: f8f3 243d 8abe 27bd 5a4e 29bd 03b4 dbbd
000001b0: a09a 06be 0132 3cbe d09d 563c 9b4a f5bc
000001c0: 8df8 c23d 4f97 01bd 64e9 11be 4a3f b43c
000001d0: f7f3 b53d bbb4 29bc 7734 38bd d03f 6fbe
000001e0: cb19 3f3e 1899 a43c d425 b63d 2c9f c9bd
000001f0: 1a86 e4bd 32ee fabd cf0c 14be 7ad1 20be
00000200: 755e 773d 098a 06be 0935 5cbd 0c6f bf3b
00000210: 25f3 0fbe 937d 03be 9b23 08be 025b 0a3e
00000220: d4be cd3c c3f6 2ebe 0337 17be 32dc 85be
00000230: 8b7d 023d 61b8 61bd 9164 463d e981 1fbe
00000240: f00a 64be ce39 253e 6251 183d f7e6 cc3d
00000250: ae5e 80bd fa2f e8bd b960 07be 9e4c d73d
00000260: 9896 c9bc 3ca6 c93d a607 8a3c 1eed 7cbd
00000270: 4e07 053e ac25 103d 6018 af3c b9a3 bd3b
00000280: a27a d93d 8bd6 0c3e 78e9 ba3d 8674 92bd
00000290: 7103 0bbe aad6 e2bc 7248 36bd 1bad 993d
000002a0: 820c 9b3c f34e 003d f570 34bd 9232 473d
000002b0: f020 f33d 41cb 77bd 849e f6bd 419e 1dbe
000002c0: 89a1 843d 756c 9a3d 57cf f3bb 548c eebd
000002d0: aabf a03c fb32 993d 7f26 fd3d b3e3 853d
000002e0: 86a5 ee3a 3d4c 81bd 6f7a 643d 6ce8 93bc
000002f0: 1c71 c2bd 83d6 f73c d921 f7bd 5c4a 8fbd
00000300: 7154 8a3d ff23 e5bd f5d5 41be 6483 9dbc
00000310: 467d 943d 8bae fa3d c6c9 f63c a782 a9bd
00000320: 88ef e6bd bbd4 9d3d fcfc 133e 7ab2 5d3d
00000330: 7e67 f1bd f220 d8bd 9e68 843d 5ef5 2cbd
00000340: f88b babd dea3 8dbc 22e9 cb3c a8e2 263e
00000350: fd80 cf3c e335 45bd 69ca 2fbe 35fa b23d
00000360: d122 f23c bf30 44bb 7140 293d b41f 23be
00000370: c1b8 053e 37c0 1c3e 9132 2cbd dd6f c5bc
00000380: b6bf 28be 391d 8d3e 90cd 683e d4a1 913e
00000390: a01f 273e aa85 28bd 0b49 6c3d f2a1 c43c
000003a0: 7ee9 033e 229a 9f3d 8213 e53d 08b0 d63d
000003b0: 9e5a 23bd adcf a73d 40ce 973d 2b8f 503e
000003c0: 0683 09bc 66b2 d0bc bb8d 71bc d309 0cbe
000003d0: bd50 a4bb d398 9cbd 2994 47bd 5c73 b83d
000003e0: 038b 8e3c a8b3 9f3d c2ea 313e 7a9e 283e
000003f0: 4b2c 243e 9cd1 e4bd 3d7f 17be 49bf d8bd
0.07413972 0.15837333 0.15707405 0.13622066 0.0926657 -0.07068093 0.048159804 0.17046875
0.12725154 0.19983524 -0.059018426 -0.10028943 0.15471315 0.19205418 0.20109428 0.039664757
-0.06483203 0.0689514 0.064167894 0.047943573 -0.089112826 -0.112828046 -0.026858468 0.06915571
0.058449447 0.030177874 -0.023878606 -0.014656462 0.09909787 -0.0347374 -0.24189799 -0.068642974
0.052012973 -0.068204835 0.019686598 -0.26215234 -0.18276441 -0.18291184 -0.087888084 0.0066804616
-0.24498817 -0.19389643 -0.22444353 -0.2066271 -0.052201014 -0.017371103 -0.21726762 -0.15471193
-0.15316662 0.006289734 0.06073627 0.16158675 -0.018563166 0.119578265 0.13339216 -0.025747811
0.065367505 -0.016055899 0.04455401 0.109449394 -0.13391866 0.084586464 0.018630443 0.13776514
0.19266246 -0.05834415 0.01963365 -0.15971519 -0.07888753 -0.00784751 -0.08473071 -0.019933075
0.049204737 -0.08399835 0.033125743 -0.002867525 0.09597115 0.11329632 0.1553448 0.04195424
0.044868156 0.08290825 0.1487394 0.10959716 -0.0296348 0.103209324 0.21141876 0.1694849
0.117349006 -0.009068637 0.20422247 0.07296077 0.09668137 -0.09115718 -0.009494729 0.07354829
0.094204456 0.009023619 -0.010166863 -0.13198374 0.06615813 0.033001613 -0.13507353 0.020346088
0.04027173 -0.040953197 -0.041334487 -0.10727694 -0.13144922 -0.1837845 0.013099149 -0.029942801
0.095200635 -0.03163844 -0.14249188 0.022002835 0.08884423 -0.010358031 -0.04497191 -0.23364186
0.18662183 0.020092532 0.08893934 -0.09844813 -0.1115839 -0.122524634 -0.14458011 -0.15704909
0.060392816 -0.13138594 -0.053761516 0.0058420952 -0.14057596 -0.12840872 -0.13294832 0.13511279
0.025115408 -0.1708632 -0.14767079 -0.26144558 0.03185801 -0.055107478 0.04843575 -0.155769
-0.22269797 0.16135332 0.037186988 0.100049905 -0.06268059 -0.11337276 -0.1322049 0.105126604
-0.024607942 0.0984616 0.01684935 -0.06174957 0.12991068 0.035192177 0.021373928 0.0057873395
0.106190935 0.13753717 0.09126562 -0.07151131 -0.13575532 -0.02769025 -0.044502683 0.075037204
0.018926863 0.03132529 -0.044053037 0.048632212 0.11871517 -0.060496572 -0.12041953 -0.153924
0.06476123 0.07540218 -0.0074404883 -0.11647859 0.019622643 0.07480427 0.12360858 0.06537571
0.0018207289 -0.063133694 0.055780824 -0.018055163 -0.0949423 0.030253654 -0.12067003 -0.06996605
0.06754387 -0.11188506 -0.18929274 -0.019227691 0.072504565 0.12240323 0.03012551 -0.08276873
-0.11276156 0.07706591 0.14451975 0.054125287 -0.11787318 -0.10553159 0.06465267 -0.042226188
-0.09108728 -0.017290052 0.02489144 0.162974 0.025330061 -0.048147094 -0.17167057 0.087391295
0.029557617 -0.0029936281 0.04132122 -0.15930063 0.1305876 0.15307699 -0.04204041 -0.024101192
-0.16479382 0.27561358 0.22734666 0.28443778 0.16320658 -0.041143097 0.057686847 0.024003003
0.12882039 0.077930704 0.111853614 0.10482794 -0.03988134 0.08193908 0.07412386 0.20367114
-0.008393055 -0.025475692 -0.014743264 -0.13675623 -0.0050145076 -0.076463364 -0.04872528 0.09006378
0.01740027 0.077979386 0.17374709 0.16466704 0.16032521 -0.11172792 -0.14794631 -0.1058336

bias f4 [32]
00000000: b8c0 f0bd 3e95 b7bd e94f 10be 98b2 7f3e
00000010: a372 fe3d dba5 6c3e 22cd dcbc 72a3 81be
00000020: 6a7f 74bd 8956 903e ce3f adbd bd56 4a3e
00000030: 2f12 d5bd 6bb7 00be edea 97be 7cfd 01be
00000040: 3eca 6ebd 87bd 82be 66b0 96be 421d 1bbd
00000050: e8bc 4cbe 8e8b 3fbd 9195 6c3d a32c 7bbd
00000060: bd6e 10be 8f19 9ebd 804e 4d3e 0b9f 5d3d
00000070: 6f21 09be 6c69 a53c 1953 ebbd 60d3 e2be
-0.11755508 -0.089640126 -0.14092983 0.24970472 0.12424209 0.23110144 -0.026953284 -0.2532001
-0.059691824 0.2819102 -0.084594354 0.1975965 -0.10403859 -0.12569968 -0.29671422 -0.12694353
-0.058298342 -0.25535223 -0.29431456 -0.0378697 -0.19993937 -0.04676395 0.057759825 -0.061321866
-0.14104743 -0.07719719 0.20049477 0.054106753 -0.1339166 0.02019187 -0.11490459 -0.4430189

weight f4 [32, 32, 5, 5]
00000000: 4d5c bd3c 8a7b 1c3c ce62 b03c 9009 123c
00000010: 3c2e cbbc b313 833b 1b13 1abd 2841 14bd
00000020: 0a14 d1bc 5bc6 22bb e022 4b3c 6065 693d
00000030: b846 9c3d 8ab6 343c 040f c5bc 3a3a ba3c
00000040: e37a 753d a39c 873d cd68 8c3d e204 043c
00000050: 9f50 df3c b001 37bc c9c2 063d 5aaf 563d
00000060: 2752 1bbb 9e35 3d3d 9e84 83bc 2780 413d
00000070: 80e1 0637 2e23 793c 859d 69bc f12a 6b3b
00000080: 6218 9c3c 405e f63c 8369 c2bb ea77 eabc
00000090: 19a8 b83b db87 ac3c 7105 233d b5c9 023d
000000a0: 36a6 353d a5f9 cf3c ed3f 90bc 5658 b0bc
000000b0: 892b d3bc 36f8 263c efe0 a63b c232 0eba
000000c0: 0e54 0f39 1cba 473b d8bc 283d fde6 d7bc
000000d0: e87c 13bc 37b6 2f3d 4e43 4e3c e0e4 ec3c
000000e0: 64cd 75bc 9c48 a33b 2e44 393d b136 063d
000000f0: 3ef6 cb3c 2b6e 9e3c cb8b 0f3c 83a5 123c
00000100: 7866 233d 7db7 7e3c e700 a239 acd8 cdbc
00000110: f5f5 0e3c 52fc 013d baff e73c 1479 e63b
00000120: 389a 2cbd 8fd8 b2bc 0175 0dbd 709f 38bd
00000130: a613 e7bc 52fe a2bc 983f 9cbb 98f8 143c
00000140: 1cb7 0abd 25a3 8ebd 3642 8bbd 4ab9 41bd
00000150: 265e 04bc 9f78 103d 1a82 1c3c 5935 9d3d
00000160: 3109 813d 90fc 653c edfe 803d f7d6 fb3d
00000170: 54d2 173e 938c 943d 00e4 f53c 7902 3b3d
00000180: f10b 843d b0f1 0a3d f7af 7e3d 4a8a 2c3d
00000190: b1fe 05bd 27ba ab3c 0b5f 013c a4e5 33bb
000001a0: 889a a53c d2bf 633c e844 96bc cc18 c7b9
000001b0: f445 d63c ffa2 0fbc 0db2 993c 2739 90bc
000001c0: 4354 f0bb 7b35 0ebd 6586 313b d74e 9f3c
000001d0: 3473 90bc ef76 27bd 888f ac3c 5fab b53b
000001e0: 241e 913c 45b2 f23b 0919 4fbc ece2 f83b
000001f0: 4919 b03c f9b7 473b 7f73 a13b e219 e33b
00000200: 85f8 1bbd 4d25 9bbc 08b4 14bc 1d19 8fbb
00000210: df5e 3abd a8de d4bc 7411 f83a c977 0cbd
00000220: 4d84 6fbc e9e2 94bc 6323 28bd 1813 e1bc
00000230: ebe8 043b 78bd ad3c 64d9 eebb fa7e e7bb
00000240: e5f0 3abd 26ae 23ba f07c 623c 765a d4bc
00000250: 5742 51bc 501b 98bc 1543 a5bc c09c 0d3d
00000260: 2c20 033d ad28 493d 1faa a8bc 9e69 093d
00000270: e817 f0b9 5165 143d 13c3 603d a99a 733d
00000280: 0538 9abc 3e6d 403d 9ca5 2e3d 55c6 013d
00000290: f681 bc3c 3d34 1c3c 421a febb 4a10 84bb
000002a0: 2adc 9f3c 3d9d 02bd a44d 41ba 6712 94bc
000002b0: 4353 7abd 2062 43bd 4457 4a3c e5b4 ca3a
000002c0: 1b09 803d 2ea0 8d3d e577 263d cc5a 353d
000002d0: 37ab e23c 3bb0 2a3d 4bf2 1a3d d0d9 033b
000002e0: 8cd7 f33c 4a81 22bb 8c6e d8ba a4d7 103d
000002f0: dfcd 1d3d e79b 983d 5a03 cdbc e546 103d
00000300: 6f01 313c cc79 ea3b 33b5 b53c 5291 673c
00000310: 6a64 f63c 9585 4e3b 581a b73c d843 05bd
00000320: 658b 9b3c e392 4bbc 2290 363d 2bfd b93b
00000330: eba5 363c 6e29 df3b 8e90 e13c 4753 0a3d
00000340: f177 f13c 3f10 823b 8dc3 ea3c 94cc a33c
00000350: 1831 493b efe6 a93c 2d86 593d 14c9 243d
00000360: e0e5 c03c d2fc 943d 6af5 913d aaa9 463c
00000370: d919 073d c77a 433d 6abf 8d3d cdc9 a83c
00000380: f9bd 123d 73f7 67bc 0423 16bd 4232 07bb
00000390: cf34 c1bc 9053 aa3c acb0 08bd 130c 6b3b
000003a0: cb84 513c 4a02 48bc fcdf de3b 7ded c73a
000003b0: 5fac 46bd af07 823c efd6 183d 4cde 1c3d
000003c0: c700 873c b8f8 643d e15b 603d c572 933d
000003d0: 8c3a 723c 0610 353d d715 8f3d 9fe0 733d
000003e0: dba1 f23c 5760 b43b 2b2f 06bc c800 ab3c
000003f0: 2432 5d3d 1d70 fb3c 8b58 073d d5f1 5f3d
0.023115302 0.009550938 0.021531489 0.008913413 -0.02480232 0.004000151 -0.037615877 -0.03619495
-0.02552225 -0.0024837467 0.012398452 0.056981444 0.07630676 0.011029849 -0.024055012 0.022732843
0.059931647 0.06621673 0.06855927 0.008057805 0.027260123 -0.011169836 0.032900605 0.052413322
-0.002370009 0.04619371 -0.016054448 0.047241356 8.039526e-06 0.015206141 -0.014258747 0.003588375
0.019054595 0.030074239 -0.005932988 -0.028621633 0.005635273 0.021060875 0.03980011 0.031930644
0.044347964 0.025387594 -0.017608607 -0.021526497 -0.025777595 0.010191014 0.005092732 -0.00054244336
0.00013668856 0.003047592 0.04119572 -0.026355261 -0.009001948 0.042898383 0.012589289 0.02891773
-0.015002582 0.004983021 0.045231037 0.032767 0.02489769 0.019339642 0.008761357 0.008950594
0.039892644 0.015546677 0.0003089972 -0.025127731 0.008725633 0.031734772 0.028320182 0.0070334766
-0.042139262 -0.021831779 -0.03453541 -0.045073926 -0.028207611 -0.01989666 -0.004768323 0.0090924725
-0.033866033 -0.06964711 -0.06799738 -0.047295846 -0.008079087 0.035271283 0.009552503 0.07676191
0.06300581 0.014037266 0.06298623 0.12296861 0.14826328 0.07253375 0.030015945 0.045656655
0.0644759 0.033921897 0.062179532 0.04212407 -0.032713596 0.020962788 0.007896195 -0.002745011
0.020215288 0.013900714 -0.018343404 -0.00037974713 0.026156403 -0.008766889 0.018761659 -0.017605377
-0.0073342635 -0.03471897 0.0027088162 0.019446773 -0.017633058 -0.04088491 0.021064535 0.0055441107
0.017714567 0.0074065053 -0.012640246 0.0075954106 0.021496432 0.0030474646 0.0049270983 0.0069305757
-0.038078804 -0.018938685 -0.009076126 -0.0043670074 -0.045500632 -0.025985077 0.00189261 -0.034293924
-0.014618945 -0.018174605 -0.041049372 -0.027474925 0.0020280431 0.02120851 -0.0072890986 -0.0070646973
-0.04563989 -0.00062439067 0.013823733 -0.025922041 -0.012772164 -0.018567711 -0.020173589 0.034573317
0.032013103 0.049111057 -0.020588933 0.03354799 -0.0004579418 0.036229435 0.054873537 0.059473667
-0.01882554 0.04697918 0.042638406 0.031683285 0.023011189 0.009533939 -0.007754595 -0.004030262
0.019514162 -0.031888235 -0.0007373935 -0.018075181 -0.06111456 -0.047701 0.012349907 0.0015465288
0.06251737 0.069153175 0.040641684 0.044276044 0.027669532 0.041671973 0.037828725 0.002011884
0.029765867 -0.00247963 -0.0016512438 0.0353619 0.038526412 0.07451611 -0.025026012 0.03522386
0.010803564 0.0071556326 0.02218113 0.014133768 0.030077178 0.0031512727 0.022351429 -0.032535404
0.018987367 -0.012425157 0.04457105 0.005675932 0.011147956 0.0068103587 0.02753475 0.033770826
0.029476138 0.003969222 0.028657699 0.019995011 0.0030699428 0.02074 0.053106476 0.040230826
0.023547113 0.07274784 0.07126887 0.012125412 0.032983635 0.04772451 0.06921275 0.020604039
0.035825703 -0.014158118 -0.036654487 -0.0020629321 -0.023584751 0.020791799 -0.033371612 0.003586535
0.012788008 -0.012207577 0.0068016034 0.0015253272 -0.04850423 0.015872804 0.03731435 0.038297936
0.016479863 0.05590126 0.054775123 0.07199625 0.0147844665 0.044204734 0.069865875 0.059540387
0.029618194 0.0055046487 -0.008189957 0.020874396 0.054002896 0.030693108 0.033043426 0.05467399

bias f4 [32]
00000000: 992f f7bc b784 4fbe daed 52bb 2c0c b9bd
00000010: 5060 10b8 2f18 88bd c048 fdbd 05f0 18be
00000020: 9143 0fbd 0c2c aabb 917d dcbd fda1 ebbd
00000030: b443 aebd 1400 18be 6cc4 813d 1f94 fd3c
00000040: 8ff0 03be 0b26 90bd bf82 58bd 6eb1 7fbe
00000050: 9c75 0fbd cca9 05be ee94 ddbd fe04 b6bd
00000060: 16b8 3e3d f72a 53bc e3e8 bdbd 1b92 183c
00000070: a3a1 9bbd fc34 19be 2e18 223d adad 403d
-0.030174064 -0.2026547 -0.0032185228 -0.09035525 -3.4421973e-05 -0.06645238 -0.123673916 -0.1493531
-0.034976546 -0.005193239 -0.107661374 -0.11505506 -0.08509007 -0.1484378 0.063362926 0.030954419
-0.12884735 -0.07038506 -0.052859064 -0.24970028 -0.03502427 -0.13053054 -0.10819422 -0.08887671
0.046562277 -0.012888662 -0.09272935 0.009312178 -0.07599189 -0.14961618 0.03957384 0.04704063

weight f4 [64, 32, 5, 5]
00000000: 26ee a8ba a4f5 e13a 555e 023d 74e7 083c
00000010: 6b3b 8cbc b686 ab3c b8b4 fa3c 7b95 6a3d
00000020: 8adb ac3d bd6b 9d3d b277 b13a bf9b 00bc
00000030: bf92 063b ebe1 85bc 32ab 1f3c 32b8 c6bb
00000040: 118b 1bbd 9e7d adbd f580 42bd b7aa 1d3c
00000050: 8002 e03c 643b 5ebc 7ebd 8f3b 13cb f73c
00000060: 6495 d53b 6e65 e23c bf45 7b3d 22d3 893d
00000070: 8bc8 91bc aef1 e73c e91f bebc 27e8 973a
00000080: 82a3 1abc 5e7a 973c f27f 023c 6884 76bc
00000090: 9404 7c3c 6618 53bc 023a 1bbc 5f70 a2bc
000000a0: f8b8 b53c 5ccf 4ebc 4c98 d7b9 c3f0 c93c
000000b0: bbdf 613c 9c4a 4abc 353b 023d 9ef8 9d3c
000000c0: 827f 283c dc07 133a 4ba1 213d 26a7 d73c
000000d0: ffcc fabb 38bd a53b de26 a3bc ac48 793c
000000e0: b894 2d3c a5de 393c cad5 25bd cc35 2ebd
000000f0: eb9c d5bc fb72 40bd 0947 94bd 4e57 05bd
00000100: ee94 18bd 8e09 70bd 1021 c63b a60b f1bc
00000110: d3c4 65bb fd72 03bd b242 113c 795c e9bc
00000120: 3e82 18bc e6e2 7d3c befc 423d ae48 ca3c
00000130: a5cb 5cbc 4825 88bc 8ea7 c7bc 6c35 2abb
00000140: d2f0 01bb 0eaf 02bd cc28 2bbc 3b64 31bc
00000150: 94a5 413d c7ee 373c 72e8 c5bb 7147 a93c
00000160: 7f27 5b3d 2cb7 ad3c 1d2f c8bb 4343 1b3c
00000170: d0f0 dd3c 4296 03bc 981d 5cbd 047f 19bb
00000180: 943a 2c3c 83b0 033c ac92 72bb 1f4b 303c
00000190: c4d9 83bb e2a5 d83c b9da 843c 2eea 603b
000001a0: 5ca3 d13c e742 b23c 89e6 a83c 1ddc 6b3d
000001b0: dc90 cb3c a7de 143d 877d 19bc c2e9 adbc
000001c0: 82e7 efbc cfe1 38bc dbbc 5c3b 78d8 0abd
000001d0: e761 583b bb27 1abc ba53 1c3d 15b1 2c3d
000001e0: fd19 1e3c 2c8e 61bc 508e 21bc 52dc 233d
000001f0: a942 dfbc 4e09 553c 9e90 143d cdd0 423c
00000200: c6a8 1d3c aa00 223d 819d 2d3d 0967 293d
00000210: 6347 153d 2ddf 993b 2dab 55bb d4fa a33c
00000220: 6f40 c4bc 6f4a 3cbc 85d0 d5bc 3af9 7fbd
00000230: 5904 23bd 73cb 6c3c fee0 5fbc 2ea5 25bd
00000240: ec76 103d fae7 04bd 1880 3bbd 5d5c 1dbc
00000250: bd71 ce3c a5af 10bd 46a9 083c 76db b13c
00000260: 9db6 b7bc 2b42 7f3b fc05 083c 83c9 43bb
00000270: c38d 1abb dc83 ad3c 687b 25bc 2b9c b13c
00000280: d93c 1a3c 060c b1bc c87c 713c 5315 7dbc
00000290: 7cd1 6fbc 5172 f3bc be47 d13b 5f82 39bd
000002a0: 5db6 11bc aa44 b63c 877e 8d3c 5a43 81bc
000002b0: 73d0 46bd 8fc6 e3bc 82dc 81bc 5cdd 28bc
000002c0: 7895 edbb 4559 3e3d 51fc 3a3d 76a6 023d
000002d0: 3a6b 00bd 13d5 1f3b f6bd e93c be2b d4bc
000002e0: a6ad cd3a 30ea b5bc a0b6 37bd 82a9 53bd
000002f0: 5a83 e5bc a0be c5b8 ced5 0abc 8951 efbc
00000300: c9d8 f03c f720 b2bc 8abd bfbc 65b9 14bc
00000310: 1e7d 07bb 895f 0b3d 2d31 24bb 50f9 94bc
00000320: b048 70bb 18a6 4dbc ef30 39bc 66cd f33c
00000330: 1d13 693d 4196 c43c 0fb2 dfbc bd4f 673c
00000340: 9877 183d 79d2 533d 477e f2bb 463d a13a
00000350: 4218 34bb 867b f73c b859 c7bc 8040 d7b5
00000360: 0f02 97bc 0cdd 28bd 8864 5f3a 001a ba3c
00000370: 54d5 db3c f048 293c 4c36 62bc bfeb cbbc
00000380: c61d 123d aef7 4d3c 43bc f9bb baa6 5e3c
00000390: ac7e 493c 94d6 54bd 76e8 403d 7127 62bc
000003a0: aaac f3bc b70c 2abc 24a4 0c3d cf3e a63c
000003b0: 9b31 753c 57f4 6f3d 46fb 95bc 3596 5e3d
000003c0: 4c6b 0b3d 9ba1 993c fae4 bbbc 5cb7 07bb
000003d0: 94d5 ae3c 61df 27bd de45 0fbd 6312 113d
000003e0: e040 bfba 3b5c 9f3c 6e01 763c fd36 373c
000003f0: 0c19 053d 2f8a a73b d84f be3b cca5 b7ba
-0.0012888357 0.0017239344 0.031828243 0.008355964 -0.017118176 0.020938259 0.030603752 0.057271462
0.08440311 0.07686565 0.00135397 -0.007849633 0.0020534245 -0.016343078 0.009745406 -0.0060644383
-0.03797442 -0.08471225 -0.047486264 0.009623221 0.027344942 -0.0135639645 0.004386603 0.0302482
0.006518053 0.027636256 0.061345812 0.067297235 -0.017795822 0.028313484 -0.023208575 0.0011589573
-0.009438397 0.018490966 0.007965075 -0.015046217 0.015381951 -0.012884235 -0.009474279 -0.019828973
0.022182927 -0.0126226805 -0.00041121466 0.024650937 0.013786252 -0.01234689 0.031794745 0.019283589
0.0102843065 0.0005608776 0.03946046 0.02632482 -0.007653832 0.005057957 -0.019915994 0.01521508
0.010594539 0.0113445865 -0.04048709 -0.042531773 -0.0260758 -0.046984654 -0.072401114 -0.032553963
-0.037251405 -0.058602862 0.006046422 -0.0294245 -0.0035059943 -0.032092083 0.008865999 -0.028486477
-0.009308396 0.015495991 0.047604315 0.02469286 -0.013476287 -0.01661934 -0.024371888 -0.0025971783
-0.0019827378 -0.031905226 -0.010446738 -0.010827119 0.04727705 0.011226363 -0.0060396725 0.020663949
0.053504463 0.021205507 -0.006109132 0.009476486 0.027092367 -0.00803143 -0.05373916 -0.0023421654
0.010512013 0.008037689 -0.0037013693 0.010760098 -0.0040237624 0.026446287 0.016217576 0.003431927
0.025590591 0.021760417 0.02061774 0.057582963 0.024849348 0.03634515 -0.009368307 -0.021229628
-0.029285196 -0.011284306 0.0033681903 -0.033897847 0.0033017339 -0.009408887 0.038165785 0.042161066
0.009649751 -0.013766807 -0.00986059 0.040005036 -0.027253466 0.013002707 0.03627073 0.011890602
0.009622758 0.039551415 0.042386536 0.041358028 0.036445033 0.004695794 -0.003260325 0.020017065
-0.023956506 -0.011492356 -0.026100406 -0.06249354 -0.039799068 0.014452803 -0.013664482 -0.04044073
0.035269663 -0.032447793 -0.045776457 -0.009604541 0.025200719 -0.035323758 0.008341139 0.021711092
-0.022425944 0.0038949351 0.008302208 -0.002987475 -0.0023583032 0.02118104 -0.010100223 0.021680912
0.009413921 -0.021612179 0.014739223 -0.015446979 -0.014637347 -0.029717596 0.006386726 -0.045290347
-0.008893576 0.022249538 0.017272247 -0.015779186 -0.048538636 -0.027804641 -0.015852217 -0.010306682
-0.007250484 0.046471853 0.045650784 0.03189703 -0.03135226 0.0024388477 0.028532963 -0.025899764
0.001569201 -0.022206396 -0.0448519 -0.051675327 -0.028016735 -9.429199e-05 -0.008473827 -0.029213684
0.029400246 -0.021744234 -0.023405809 -0.009077405 -0.002067394 0.034026656 -0.0025053725 -0.018185288
-0.003666442 -0.012551807 -0.011303171 0.029761028 0.056902993 0.023997428 -0.027306585 0.014118132
0.03722343 0.051714394 -0.0074003073 0.0012301586 -0.002748028 0.030210268 -0.024334773 -1.603752e-06
-0.018433599 -0.04122643 0.0008521755 0.022717476 0.026835121 0.010332331 -0.013806891 -0.024892686
0.035672925 0.0125712585 -0.0076213195 0.013589555 0.012298267 -0.05196245 0.047096692 -0.013803349
-0.029745419 -0.010379008 0.034336224 0.020293621 0.01496544 0.05858263 -0.018308293 0.054342467
0.034037873 0.018753817 -0.022936333 -0.0020708656 0.021342076 -0.040984515 -0.03497874 0.035417926
-0.0014591478 0.019453159 0.015014989 0.011182544 0.03249459 0.0051129083 0.005807858 -0.0014011203

bias f4 [64]
00000000: 1736 f7bc 9fb6 153d 4d56 4fbd 126f d3bd
00000010: d4cf d9bd 1ebb 05bd b424 ddbc e006 cbbc
00000020: 2397 71bd f1d0 adbc f663 26bd 8bf5 bdbd
00000030: 2586 3ebb b299 82bd 6e67 20bc 5f63 063b
00000040: 3ee2 1fbd b3ee 70bd 2b4e 29bc fcc0 b3bc
00000050: f401 85bd ea5a 62bd 371d a6bd 6800 d9b8
00000060: 2985 e4bd fc00 dcbd 5b9b 5fbd b223 b9bd
00000070: 291a 1bbc ee72 9abd c770 8b3c 557c 91bd
00000080: 26cc 8dbd e52e 83bd 6b03 91bd 58c1 f6bc
00000090: 4add 61bd 1c95 44bd cd0a 4abd 6491 1bbd
000000a0: 94bb f2bc c2ef 7cbd fd53 8cbd d72a b9bc
000000b0: e99f 7cbb ed0e 98bd 0b4f 84bd b909 65bd
000000c0: 6f66 a0bd 4ef6 6dbd e952 cbbd 2720 18ba
000000d0: 3c0e 80bd b466 2cbb a2d9 8d3a 73f9 1cbd
000000e0: 2be7 073d 8317 54bd 1978 51bd 2a52 aebd
000000f0: 84c0 ccbd 7089 85bd 6dfd 88bd 7cc4 433b
-0.03017716 0.036551114 -0.050619412 -0.10323919 -0.10635343 -0.032649152 -0.02699504 -0.024783552
-0.058982026 -0.021217795 -0.040622674 -0.09275349 -0.0029071656 -0.06376971 -0.009790285 0.0020506007
-0.03903412 -0.05882139 -0.010333578 -0.021942608 -0.06494513 -0.055262484 -0.08111041 -0.00010347442
-0.11158211 -0.10742375 -0.054591518 -0.090400115 -0.009466686 -0.07541452 0.01702155 -0.071037926
-0.06923704 -0.06405429 -0.0708073 -0.03012149 -0.05514268 -0.047993764 -0.049326707 -0.037980452
-0.02963046 -0.06175209 -0.06851957 -0.022603435 -0.0038547462 -0.07424722 -0.06460389 -0.055917475
-0.07832038 -0.058096223 -0.09927923 -0.0005803131 -0.06252715 -0.0026306333 0.0010822306 -0.03832383
0.033179443 -0.051780235 -0.051139925 -0.08511765 -0.09997657 -0.06520355 -0.06688962 0.0029871752

weight f4 [64, 1024]
00000000: 01d6 89bb 8f61 173c e8eb 37bd b9c4 c3bc
00000010: 0153 abbc b1b4 9dbc ce7f 9ebc caa4 0abc
00000020: 17b3 a2bc cdbb 34bc 818c 683c c65d 19bd
00000030: 904d 9abb d098 23bc 993a 2fbc e330 04bd
00000040: cd7c e6bb 4294 bbbc da3e 5dbb 27a4 dbbb
00000050: 7147 fcbc 21ce 83bb 9b77 66bb add1 d33c
00000060: 4220 4abc 71f1 5c3c 77ff e33c 1733 8bbc
00000070: f45d a5bc 7654 c23b b975 13bd 9f4b 203c
00000080: cef2 a63c a200 cabc 5452 c23b a32f 3c3c
00000090: 7aa0 54bd d2b9 44bd b3e7 30bd 5ddc d93c
000000a0: e1df cbbc 38d3 8f3c e2a0 8c3c de26 723c
000000b0: 0ef5 88b9 1636 4e3b 5281 05ba 43a0 04bd
000000c0: 0acd 25bd 8259 0abd 872e 76bb df16 c7bb
000000d0: 6c3e 38bc a0b8 25bd 60cc ffbc 0592 97bc
000000e0: 5242 55b8 860f 883b 2df5 183d a7ef 0e3c
000000f0: 1bbf 183c a520 92bc 6e42 27bd 0a61 76bc
00000100: 4486 d7bc a2cb ce3c 9868 adbc f59a cfbb
00000110: 4ab9 f03c 7090 973a 29e1 1fbd 0a7c 043a
00000120: 1395 983c 5294 303d b384 bc39 24a4 2b3c
00000130: 6432 f5bb 59d1 e33b a6d6 1b3d 99eb 87bc
00000140: 81d5 df3c 4864 3dbc a5ab 893b 11d9 083d
00000150: 7764 b7bc 54bf 62bc f225 d6bc e5cd 8c3c
00000160: 5efe 923c d83d f83b b57a adbc bcf4 56ba
00000170: 908a c13c 8e4c 96ba ba74 ca3c e634 eabc
00000180: 460f 333b 4314 8d3c 61c6 193d 6958 1fbc
00000190: a868 843c 9fc5 ddbb 0b48 dbbc 64f0 94bc
000001a0: afc2 f63b fc0d 233d 7af4 343c 2226 e8bc
000001b0: 4c06 e93c 4257 bbbc c201 0ebc b48a ac3c
000001c0: a3f1 523d 60a2 c93c ca65 82bc 5f0b 74bc
000001d0: bbaa 80bc ac4a b8bc 68a4 283c 9006 09bd
000001e0: 6377 d1bc 4243 1d3d d4f1 3d3b 78e8 93bc
000001f0: a585 b53b 4932 7abc 8584 0dbd 2119 323b
00000200: 5df6 1d3d 2910 d43b 448f 96bb 116a 503c
00000210: 0c72 88ba a5aa 4b3a e2f8 163c e51c ee3c
00000220: 3236 593d 47f1 143c d1bd 8cbc de45 35bc
00000230: 377d 76bc f376 453d a810 4c3c c072 9f3c
00000240: 5179 9abc 315a 08bd bb27 0dbc b0a3 7ebc
00000250: 04df 543a 86e8 a8bc c701 3cbc 78fc 29bc
00000260: f234 723c f69f 243c b0e7 983c a5fb 8abc
00000270: 39a1 d93c bfbc 783c abb0 313b 2194 1dbd
00000280: 4bee e2bc 27d8 8b3c f270 ce3c ab52 f0bc
00000290: 8434 813b fe8a 1abc d086 23bd 55c2 bc3c
000002a0: dea0 133d 3754 21bb 6f85 353d 9f70 b33c
000002b0: 869e 333c 0856 ec3c 9290 e53c b5fa e2bc
000002c0: 0f2b 22bc 07c6 e03b 1725 4a3d 5715 b93c
000002d0: 8e40 d5bc 4cbb 20bb 9155 853c 900e 1a3c
000002e0: 0835 acbc 019c 0f3b 8bba ce3c 1040 33bc
000002f0: f2c0 6cbc 85d0 043d dcf9 91ba 370a d93b
00000300: 6e7d dd3c e31b 95bc 0146 fb3c 637e e33c
00000310: e6f1 373b 111b 8c3c b019 323d b10c 883c
00000320: 8553 3fbc 5a7e 18bd 4ee9 80bc 04a4 28bc
00000330: fa8c 203d b9bd 1f3b 4d8a c53c c132 afbc
00000340: 43b2 a3bb 45ad c5bc 304a 283a fca0 0dbd
00000350: f3e5 523c 8c84 df3b 1b6b 20bc 01f0 f8bc
00000360: 4bf4 b13c e1da 24bc ea9f c53a 0776 393c
00000370: 7ebd 233c b85b c1bb 8a88 bbbc c54f 983c
00000380: c4ff 2b3d d1b0 ec3c 26d2 f7bc 7af8 b13c
00000390: faba 55b9 c9de e2bc 46bf cbbc e0a7 e23b
000003a0: 0bcd f63b 5d89 cdbc 3648 30bc 3c7d 78bc
000003b0: 24ad 1bbc 916f 563c 1910 23bb 8bc2 a8bc
000003c0: 2927 023d 1d20 f03a 3c2e acbb a64d 11bb
000003d0: 6e86 e2bc cb40 003d 3ae9 8dbc 8be9 6a3d
000003e0: d418 93bb 01a7 13bd 68e5 023d 0472 1a3d
000003f0: f4bf 9a3c d458 7d3c 49ba 1a3d c2f2 a6bc
-0.0042064195 0.009239568 -0.044902712 -0.023897516 -0.020913603 -0.0192512 -0.019348051 -0.00846214
-0.019860787 -0.011031103 0.014193655 -0.037442945 -0.004708953 -0.009985164 -0.010695123 -0.032273185
-0.0070339204 -0.022897843 -0.0033759386 -0.006702918 -0.030795785 -0.004022375 -0.0035166505 0.025856817
-0.012336792 0.0134852985 0.027831776 -0.016992135 -0.020186402 0.0059304787 -0.03600094 0.0097836545
0.02037945 -0.024658505 0.0059302244 0.011485967 -0.051910855 -0.048028775 -0.043189716 0.026594335
-0.024887027 0.017556772 0.017166559 0.0147797745 -0.0002612252 0.0031465343 -0.00050928176 -0.0323794
-0.040478744 -0.033776768 -0.0037564354 -0.0060757245 -0.011245351 -0.040459275 -0.031225383 -0.018502245
-5.0844923e-05 0.004152241 0.037343193 0.00872413 0.009322907 -0.017837832 -0.040834837 -0.015037784
-0.02630914 0.025243584 -0.021168038 -0.006335611 0.029385228 0.0011563431 -0.03903309 0.00050538837
0.018625772 0.0431102 0.00035957023 0.010476146 -0.0074828137 0.0069524464 0.0380465 -0.016591834
0.027323486 -0.011559553 0.00420137 0.033410136 -0.022386773 -0.0138395615 -0.02614114 0.017188022
0.017943557 0.0075757317 -0.021176675 -0.00081999204 0.023625642 -0.0011466907 0.024713863 -0.028589677
0.0027322336 0.017221576 0.037542704 -0.0097256685 0.016163185 -0.006767943 -0.026767751 -0.018181033
0.0075305323 0.03980826 0.011044616 -0.028338496 0.028445385 -0.022868756 -0.008667411 0.021062233
0.051499974 0.02461356 -0.015917677 -0.014895289 -0.01570641 -0.022496544 0.010293104 -0.033453524
-0.025569623 0.03839422 0.0028983252 -0.018055186 0.0055396133 -0.015270778 -0.03455021 0.0027175623
0.03856503 0.006471653 -0.0045947153 0.012720601 -0.0010409965 0.00077692635 0.009214612 0.029066512
0.0530302 0.009090728 -0.017180355 -0.011064021 -0.015044502 0.048209142 0.012455143 0.019463897
-0.018856676 -0.03328914 -0.0086154295 -0.015541956 0.000812039 -0.020618688 -0.011475033 -0.010375135
0.014783131 0.010047903 0.018665165 -0.016965697 0.026566135 0.015181719 0.002711336 -0.038471345
-0.027701518 0.017070843 0.02520034 -0.029336294 0.003943028 -0.009432552 -0.03992349 0.023041883
0.036042087 -0.0024616846 0.044316705 0.021904288 0.010963088 0.028849617 0.028023038 -0.027707437
-0.009897961 0.006859544 0.049351778 0.022593183 -0.026031759 -0.00245257 0.016276153 0.009402886
-0.021021381 0.0021913054 0.025235435 -0.010940567 -0.014450299 0.032425422 -0.0011137086 0.006623532
0.027037349 -0.018201774 0.030673029 0.027770227 0.0028067767 0.01710275 0.04348153 0.016607614
-0.011677627 -0.037229873 -0.015736248 -0.010293011 0.039196946 0.0024374558 0.024113799 -0.021386506
-0.0049956157 -0.024130473 0.0006419746 -0.034577355 0.012872207 0.0068212207 -0.009791161 -0.03038788
0.021722933 -0.01006195 0.0015077565 0.011319644 0.009993909 -0.0059008263 -0.022892255 0.018592725
0.041991964 0.028892906 -0.030251574 0.021724928 -0.00020382917 -0.027694123 -0.02487148 0.006916985
0.0075317672 -0.025089914 -0.010759404 -0.015166577 -0.009501729 0.013088123 -0.002488142 -0.020600578
0.031775627 0.0018320117 -0.005254535 -0.0022171526 -0.027651992 0.03131179 -0.017323125 0.05735163
-0.0044890437 -0.03604794 0.03195706 0.03770639 0.018890359 0.015463073 0.03777531 -0.020379428

bias f4 [64]
00000000: 7bda 2cbc 29e9 163c f99c d6bc bc26 0a3d
00000010: d773 6e3d 9b21 66bd 3b0d dbbc ce7c 27bc
00000020: 2070 603c 5451 113d d37a 39bd 10e3 fabc
00000030: 1c1f 17bd 5b7b 81bd 64ba 353c a437 4c3d
00000040: e262 813b b1e6 88bc 4692 4f3c 7005 173c
00000050: d626 38bd dc59 e03b bbbf 14bd 7833 993d
00000060: 5a83 8e3c d64f 29bd 6e59 7a3c 6780 35bd
00000070: eb17 fb3c 8d96 a63c 5af4 42bd 0e0d 103d
00000080: 8411 f3bc 926c cbbc f0da 483d 6823 0ebb
00000090: f49a af3c 4235 b8bc 399c 65bc d0ce d9bb
000000a0: f986 f3bb cb30 0cbc 85fb d6bc 9248 30bc
000000b0: 50d4 403d fbcf ee3c 0f74 5c3c e5b7 b03c
000000c0: a707 efbc 07d2 f53b cd78 033d f660 083d
000000d0: 1e0f 5b3d f406 12bd 3252 8cbc 4a60 363d
000000e0: 768e 183d 7d25 07bc 7150 103d a7c0 8b3d
000000f0: d00e e4bb 902b 1fbd b981 8c3b 5e76 833c
-0.010550137 0.009210863 -0.026197897 0.033728346 0.058215942 -0.056184392 -0.026739707 -0.010222627
0.013698608 0.03547795 -0.04528315 -0.03062585 -0.036894903 -0.06322356 0.011091802 0.04985775
0.0039485553 -0.016711565 0.012669152 0.009217605 -0.04495891 0.0068466496 -0.03631566 0.0748052
0.017396618 -0.041335903 0.015280111 -0.044311907 0.030651053 0.02033546 -0.047596313 0.0351687
-0.029671438 -0.024832044 0.04903692 -0.0021688584 0.021436192 -0.022486333 -0.014014297 -0.0066469684
-0.0074318615 -0.008556555 -0.02624298 -0.01075949 0.047077477 0.029151907 0.013455405 0.021572063
-0.029178454 0.007501844 0.032097626 0.033295594 0.053481214 -0.035651162 -0.017129038 0.044525422
0.037245236 -0.008248684 0.035232965 0.06823855 -0.0069597736 -0.038859904 0.004287925 0.016047653

weight f4 [10, 64]
00000000: 233f 9dbd d013 213e ea6b 4a3e f195 22bd
00000010: 66a3 3ebe 3966 59bb cd8a 23bd 7f17 e13d
00000020: 5681 9dbd bc8a fcbd 3008 933e ceb5 22be
00000030: ad44 1a3e 7c73 673e fafa 1bbe e0e0 47be
00000040: 080e 1dbd 1578 3e3e f96e 5ebe 34b2 00bd
00000050: fd57 dd3d 5fa7 723b cf2c 323d a126 7fbe
00000060: cd4f 28be 7ea3 2f3e cd94 413e 60fb 443e
00000070: e216 19be a2ad 493e e612 893d af89 7b3d
00000080: 5ce8 8f3e 837f aa3d e528 3b3b 7b30 24be
00000090: 004c 0e3e 2114 8ebc 5e4f 92bd 65c6 2abe
000000a0: b703 84be 8a87 b9bd 1c88 963e 83ca 29be
000000b0: b4d3 76be 208d 2dbd 5ec9 d8bd b8c3 78be
000000c0: 274e b7bc 1463 3bbe 268a 6e3d bcd9 6d3d
000000d0: 9f87 06bc 0624 8d3d 1fbc 3abe c57e 22be
000000e0: 68d3 853d 7848 223e 834f 7e3e 4e98 2c3e
000000f0: 1eb1 e23d e249 bbbd 13ca e0bb 4bb6 b5bd
00000100: 2ee2 593e 6beb 9ebc 9dfb d3bb 639f c83d
00000110: afda 9c3d 2054 293e 9db9 a33d 01cb d3bd
00000120: 9df7 8e3e 00c5 58be 0f6f c1bd d184 64be
00000130: f970 a23d 0cda b03c 77d7 0abd 0f0e 5a3e
00000140: 5f27 21be ae6c 1bbe 6766 7c3e c780 4bbe
00000150: ac6a a43e 9de1 d8bc b6a1 8bbd 8329 05be
00000160: 511f d7bd 9ba0 9fbe 329c 6dbd b90e 43be
00000170: 1836 5d3e 2fdf 8abe cf69 f23d 8e52 883e
00000180: f0b2 693d 1bfb 813d 3305 8ebd 44c7 0dbe
00000190: d7ff 4e3e 1409 863d b137 873e 7b74 723e
000001a0: a639 87bd cc77 92bd 54e2 a1bd a987 05be
000001b0: 5c62 cd3d 7c70 8abe b65d 9c3e d489 86be
000001c0: a25a 743e b244 87be 040e 8bbe 0517 82be
000001d0: ef21 97be ddf7 3abe 9e66 4dbe 2c03 20be
000001e0: bc2b 26be 8045 403e e17c 6c3e ff04 5d3e
000001f0: ad17 48be 5eac 5a3e 5bb6 003e 0215 8a3b
00000200: e143 c63d 3ab3 3dbe 5170 b7bd 8a4d 833d
00000210: 598d efbd bdb5 503d 2bd3 9ebe b03e 9a3d
00000220: fa75 25be 9efa 563e aa87 053d 0632 ec3d
00000230: f827 c2bd b5e1 273e 08fd 3fb9 a312 4abd
00000240: fe24 b8bd 27e8 25be e5eb 75be 61cd 443e
00000250: b25f 9bbe 1515 40be c5e4 133e 88af 81ba
00000260: 7c1c 953c 9672 1d3e 87f6 04be c3e5 e8bd
00000270: f7c8 c7bd 8765 8b3e e13f 2e3e f113 3d3e
00000280: 08fa 603e 257a 47be a881 323e 2c8f 553e
00000290: c837 90be 200e 7b3e 04f9 163e 59d8 c23d
000002a0: ef05 fcbc d18d 633b f074 363e 0f8a b0bd
000002b0: d308 d3bc ea44 1abe 9170 a4bd 760c 3b3e
000002c0: f85e 8bbd 9bf1 16bd 9ad9 a13d 00dc 363e
000002d0: d122 2d3e e0ea c9bd 372b 3d3e 108d 433e
000002e0: 267d f43d 83b1 3a3d 1f6c d93d 0199 173d
000002f0: f4a3 3c3e f366 043e d3c0 ddbd 74c7 85bd
00000300: 3550 233d e23b 0abd 04a6 dabc 9637 113e
00000310: 62eb 20be 61c0 13be 4c4b 25be 8a6c 5b3c
00000320: f5df 28bd 0f79 c2bd e5c8 abbd 65f5 1bbe
00000330: 8162 ccbd 5055 b1bd d3a0 21bd f1d8 8abd
00000340: 2b95 27be 9698 ab3d eb5c 7f3d 996f eb3c
00000350: cd00 09be 9be3 4a3e 09b1 88bd 5686 8b3d
00000360: fcd2 e8bd 3eaa ddbd 188c 313d 6a05 4ebe
00000370: ab66 15be 9b67 7d3c 119b d2bd a238 3cbd
00000380: a1a9 52be 5a49 493e 02fc abbd a4fb 383e
00000390: 7d3b 7abd 91da e1bd 1ccb 3abe 453f 823c
000003a0: 7706 9dbd 6799 4f3e 4ca2 15be c8cb a93d
000003b0: fd92 8abc 15ad 4a3e 4c58 49bd 2c3a 9e3d
000003c0: 7e8f 3a3e 7953 4a3e 8daa 863c 6134 6b3e
000003d0: 39c0 b6bc e810 30be e80a 1c3e e6a3 91bd
000003e0: 60ba 243e 77b5 063d 6e3e 15be 61e7 053e
000003f0: d075 62be dfae ff3d 608a 013e 2ebb 943d
-0.07678058 0.15730214 0.19767728 -0.039693777 -0.18617019 -0.0033172502 -0.039927293 0.1099081
-0.076906845 -0.12331149 0.28717184 -0.15889665 0.1506526 0.22602648 -0.15232459 -0.19519377
-0.03834346 0.18600495 -0.2172202 -0.031419948 0.10807798 0.003702603 0.043499764 -0.2491708
-0.16436692 0.17152211 0.18904419 0.19236517 -0.14950135 0.19695142 0.06693058 0.061410602
0.28106964 0.08325102 0.002855831 -0.16034119 0.13896179 -0.017343583 -0.07144044 -0.16677244
-0.25784084 -0.09059055 0.29400718 -0.16581158 -0.24104196 -0.042370915 -0.10585283 -0.24293411
-0.022376133 -0.18299514 0.058237217 0.058068976 -0.0082110455 0.068916366 -0.18235825 -0.15868671
0.06534463 0.15847957 0.24835019 0.16854975 0.11068939 -0.091449514 -0.0068600266 -0.0887266
0.21277687 -0.019399365 -0.0064692036 0.097960256 0.07658898 0.16535997 0.07994387 -0.10341454
0.2792329 -0.211689 -0.09445011 -0.2231629 0.07931704 0.021588348 -0.03389689 0.21294425
-0.15737675 -0.15178177 0.24648438 -0.19873343 0.32112634 -0.026474768 -0.06817953 -0.13004117
-0.1050402 -0.3117722 -0.058010288 -0.19048585 0.21602666 -0.271234 0.11836588 0.26625484
0.057055414 0.06346723 -0.069345854 -0.13845545 0.20214783 0.065447 0.26409677 0.23677246
-0.066027924 -0.07151756 -0.07904497 -0.13040031 0.10028526 -0.27038944 0.30540246 -0.2627703
0.23862699 -0.26419598 -0.2715913 -0.25408188 -0.29518077 -0.18258615 -0.20058677 -0.1562621
-0.16227621 0.18776512 0.23094513 0.21583937 -0.19540282 0.21354815 0.12569563 0.00421393
0.096809156 -0.18525401 -0.089569695 0.06411274 -0.11696882 0.05095457 -0.31020483 0.07531488
-0.16158286 0.2099404 0.032600082 0.11532979 -0.0948028 0.16394694 -0.00018309441 -0.04933418
-0.08991431 -0.1620184 -0.24015768 0.19218971 -0.30346447 -0.18758042 0.14442737 -0.0009894231
0.018202059 0.15375742 -0.12984668 -0.113719486 -0.09755128 0.27225897 0.17016555 0.18464638
0.2197038 -0.19480188 0.17432272 0.20855397 -0.28167558 0.24517107 0.1474343 0.09513921
-0.030764548 0.003472198 0.17818046 -0.086200826 -0.025761044 -0.15065351 -0.08029283 0.18266472
-0.06805223 -0.036851507 0.07902832 0.17857361 0.16907813 -0.09859252 0.18473516 0.1909678
0.11937933 0.045579445 0.106163256 0.03701115 0.18421918 0.12929897 -0.10827794 -0.06532183
0.039871413 -0.033748515 -0.02669049 0.1418136 -0.15714791 -0.14428855 -0.16142005 0.013392577
-0.041229207 -0.09495746 -0.08387927 -0.1523033 -0.09979726 -0.0865885 -0.039460015 -0.067796595
-0.16365497 0.08378713 0.062344473 0.028739737 -0.13379212 0.19813387 -0.06674392 0.06812732
-0.11368367 -0.10823487 0.043346494 -0.20119253 -0.14589946 0.015466596 -0.10283483 -0.045952447
-0.20572521 0.19656888 -0.08397676 0.18064743 -0.06109189 -0.11028016 -0.18241543 0.01589931
-0.07667249 0.20273362 -0.14612693 0.08290821 -0.016915793 0.19792588 -0.049156472 0.07725939
0.182188 0.19758405 0.016438747 0.229692 -0.022308456 -0.17193949 0.15238535 -0.07111339
0.16086721 0.032887902 -0.14574596 0.13076545 -0.22115254 0.12484526 0.12650442 0.07262264

bias f4 [10]
00000000: fe63 e8bc d7ca cbbb 4bab c53d c45e 093d
00000010: c68b 093e 667d c0bd 298f f03d 950a c33c
00000020: 0bb5 15bd f70c b53d
-0.028367992 -0.0062192488 0.09651812 0.03353764 0.13432226 -0.09398918 0.11746056 0.023808757
-0.03654961 0.088403635
