RNN-Handwritten_numerals-recognition_model.pth (torch, 101655 bytes, 6 tensors)

weight_ih_l0 f4 [256, 28]
0.008997725 0.34596244 0.014637982 0.4981428 0.8152601 1.2205192 0.0974681 0.19605935
0.38782027 0.57365435 0.9856833 1.145695 1.6019257 1.0303172 0.5901402 0.61118925
0.20612863 0.012302107 0.5267648 0.92334455 0.28447515 0.5330464 0.6802199 -1.0743808
-1.1146655 -1.006712 -0.34601828 -0.523645 0.9349279 0.9066858 0.88176095 0.56207556
-1.2130662 -1.442628 -0.8540468 -0.49682787 -0.6638003 -0.28367898 -0.35692036 -1.0524856
-0.7666565 -0.6239811 -0.021080239 0.6505379 0.15164907 0.14346457 0.1809566 0.037662916
0.015181138 0.67409414 0.99002564 1.1191492 1.3303094 0.5670491 0.58618647 -0.44802958
-0.28086233 -0.21879831 -0.5478721 -1.1348094 -1.2506925 -0.25994572 0.4315365 1.1888902
0.6161248 0.6422314 -0.36364442 0.70038044 0.9124137 0.87563866 -0.19541219 -0.59327364
0.54372483 1.6320448 0.609808 0.11614176 0.058504716 0.03580412 -0.13443744 0.15227926
0.24510242 -0.3391619 -0.79559493 -0.42412123 0.81730866 1.8117912 0.428131 0.52783847
0.82611024 0.5159378 1.4382434 0.4474718 -0.79868746 -0.6333479 -0.92140883 -1.0055196
-0.8767286 0.18082646 0.84299713 0.8664702 0.2822577 0.5281784 -0.37204963 0.24630281
0.5628427 0.25660047 0.39119214 0.2896132 -0.10927527 0.21450604 0.34580028 -0.038903832
-0.8576296 -0.21722399 0.73664707 -0.7511797 -1.8212385 -0.97561145 0.15163402 0.012674379
-1.1148652 -1.1789217 -1.241508 -1.5635098 -0.68257844 0.58228403 0.67903477 0.35712686
1.2192042 1.4338284 -0.4628995 -1.2859153 -1.4755745 0.29865628 -0.34660155 0.29279906
1.746988 1.4108007 0.82654595 0.3174754 0.581589 0.29612753 0.84672445 0.41868824
-0.051002 0.5446342 0.9115139 0.5001069 1.209221 0.9723788 2.0181625 1.4025798
0.3338985 -0.8840485 -1.2365228 -1.3746128 -1.4223605 -1.341781 -0.86197364 -0.22807823
-0.27703908 -0.118258804 0.04661118 -0.51041454 -0.7143246 0.28608087 0.28634062 0.91793483
0.12053387 0.6893341 0.51843774 0.5026101 -0.16189961 -0.16598193 0.13069816 0.654611
1.194894 1.2066039 1.3346744 1.2066956 0.36819118 -0.8423441 -0.82786053 -0.19642851
0.6915959 1.4863058 0.72076064 0.2757001 0.1514393 0.36287552 0.5164331 0.3421568
0.18390673 0.06497758 0.49693605 -0.6414682 -0.4465068 -1.4276938 0.75369483 -0.11767259
-0.44974783 -0.27370113 -0.039381627 0.6378792 0.98996925 0.94056934 1.1274256 0.6225332
-0.96052784 -0.17185393 -1.0369679 0.88598436 1.4500426 0.97394496 0.10072797 0.14469269
-0.90395296 -0.15766479 -0.12904759 -0.15858926 0.26920444 0.28226182 0.123079784 -0.881604
0.85272515 0.5251359 0.11934145 0.029945917 -0.25679943 0.058379836 0.42459288 -0.043335006
0.22742487 0.39007175 0.764371 0.13012458 0.19066867 0.14380585 -0.059966568 0.476344
1.6971953 1.134891 0.60856014 0.20568468 -0.6458904 -0.74797696 -1.4028522 -1.7648113
-0.95996106 -0.44887558 0.05027034 -0.27007955 0.16729549 0.17006195 0.44675982 -0.25328135
00000000: 326b 133c fd21 b13e 25d4 6f3c 930c ff3e
00000010: e3b4 503f f939 9c3f 5b9d c73d c8c3 483e
00000020: 6190 c63e 03db 123f be55 7c3f 22a6 923f
00000030: e70b cd3f 6fe1 833f 6e13 173f e676 1c3f
00000040: 6213 533e c78e 493c 0fda 063f 4f60 6c3f
00000050: baa6 913e bb75 083f e422 2e3f 4f85 89bf
00000060: 5cad 8ebf f0db 80bf 4f29 b1be 990d 06bf
00000070: 6f57 6f3f 901c 683f 16bb 613f 2fe4 0f3f
00000080: c145 9bbf 09a8 b8bf d0a2 5abf 3960 febe
00000090: d1ee 29bf 5f3e 91be 44be b6be d9b7 86bf
000000a0: 9a43 44bf 3abd 1fbf 77b0 acbc a789 263f
000000b0: e549 1b3e 60e8 123e b04c 393e 6e44 1a3d
000000c0: 4fba 783c 6f91 2c3f 5272 7d3f 4840 8f3f
000000d0: 9447 aa3f 212a 113f 5110 163f 2264 e5be
000000e0: 30cd 8fbe aa0c 60be 5941 0cbf 6f41 91bf
000000f0: b116 a0bf 9b17 85be 5af2 dc3e 8e2d 983f
00000100: 5bba 1d3f 4769 243f 9a2f babe 224c 333f
00000110: f293 693f db29 603f 221a 48be c8e0 17bf
00000120: 8d31 0b3f d8e6 d03f 611c 1c3f bbdb ed3d
00000130: a4a2 6f3d 57a7 123d f8a9 09be 18ef 1b3e
00000140: 21fc 7a3e a1a6 adbe 1cac 4bbf 6b26 d9be
00000150: 243b 513f c6e8 e73f fd33 db3e 6c20 073f
00000160: f67b 533f 8014 043f 5c18 b83f 061b e53e
00000170: c876 4cbf 1723 22bf 73e1 6bbf deb4 80bf
00000180: 4971 60bf 922a 393e a9ce 573f fed0 5d3f
00000190: 1584 903e b336 073f 4a7d bebe ce36 7c3e
000001a0: 7616 103f 2361 833e 564a c83e 2e48 943e
000001b0: b6cb dfbd 79a7 5b3e bc0c b13e a059 1fbd
000001c0: 9d8d 5bbf f76f 5ebe e794 3c3f 504d 40bf
000001d0: 581e e9bf acc1 79bf f345 1b3e 33a8 4f3c
000001e0: e7b3 8ebf e8e6 96bf bce9 9ebf 1721 c8bf
000001f0: 76bd 2ebf 9110 153f 39d5 2d3f 55d9 b63e
00000200: e20e 9c3f b087 b73f 2a01 edbe df98 a4bf
00000210: a0df bcbf 7ae9 983e c275 b1be c2e9 953e
00000220: 4e9d df3f 1e95 b43f 8498 533f 238c a23e
00000230: 04e3 143f 079e 973e efc2 583f 4e5e d63e
00000240: 79e7 50bd 266d 0b3f fa58 693f 0107 003f
00000250: c1c7 9a3f d1ed 783f 9329 0140 bc87 b33f
00000260: bff4 aa3e 0151 62bf 6146 9ebf 50f3 afbf
00000270: e90f b6bf 7bbf abbf 4eaa 5cbf 578d 69be
00000280: 11d8 8dbe ac31 f2bd 5deb 3e3d 87aa 02bf
00000290: fadd 36bf 3179 923e 3d9b 923e c7fd 6a3f
000002a0: 76da f63d 3378 303f 56b8 043f 0eab 003f
000002b0: 03c9 25be 2bf7 29be bdd5 053e 9694 273f
000002c0: 49f2 983f ff71 9a3f 9cd6 aa3f 0075 9a3f
000002d0: 8e83 bc3e dda3 57bf abee 53bf 8e24 49be
000002e0: 6e0c 313f 453f be3f c583 383f 9028 8d3e
000002f0: e712 1b3e d2ca b93e f634 043f 2d2f af3e
00000300: 0c52 3c3e f712 853d 676e fe3e 4337 24bf
00000310: 8a9c e4be acbe b6bf 25f2 403f 54fe f0bd
00000320: 5945 e6be 8e22 8cbe a14e 21bd 0d4c 233f
00000330: a06e 7d3f 27c9 703f 7b4f 903f 565e 1f3f
00000340: 27e5 75bf 7afa 2fbe 5dbb 84bf dfcf 623f
00000350: ff9a b93f 7554 793f 774a ce3d 522a 143e
00000360: 7669 67bf e172 21be 0d25 04be 3965 22be
00000370: 2ad5 893e 9f84 903e 4111 fc3d cdb0 61bf
00000380: 324c 5a3f 4e6f 063f 4a69 f43d 2451 f53c
00000390: 377b 83be b21f 6f3d 3d64 d93e 0c80 31bd
000003a0: 11e2 683e 7cb7 c73e d1ad 433f 613f 053e
000003b0: a63e 433e d741 133e 819f 75bd 5ce3 f33e
000003c0: b23d d93f 1c44 913f 99ca 1b3f 019f 523e
000003d0: 1359 25bf 6b7b 3fbf a990 b3bf 56e5 e1bf
000003e0: 02c0 75bf 05d3 e5be 46e8 4d3d de47 8abe
000003f0: 824f 2b3e b824 2e3e b4bd e43e 18ae 81be

weight_hh_l0 f4 [256, 64]
-0.6851328 -0.36049905 -0.028396852 -0.7852808 1.6501276 -1.2107717 -0.09869153 0.342179
-1.3619268 0.48467717 -0.613829 0.44671836 -2.2395768 0.076533526 0.35853904 0.48840845
-1.3781081 1.022351 1.2102116 1.5010891 0.45579648 0.74664205 0.2746507 0.46527317
0.1593331 -0.53519166 1.2491474 0.41012082 -1.7940823 0.6822473 0.7845187 1.0119828
2.4776251 -0.90092033 1.1412039 -0.014972822 -0.76560557 -1.2179515 -0.73193926 -0.84115756
1.6626393 0.76428294 -0.43338263 0.7745155 0.5641445 0.3743722 1.1257259 0.08061821
0.67064524 -0.8458672 -1.0931871 0.8112569 -0.28006575 1.3343341 0.55633116 1.0625836
-1.8386157 -0.40519726 -0.046064544 0.41270718 -1.3194789 1.5867974 -0.27499738 -0.07289804
-1.7768699 2.1101472 0.12906629 -0.7919979 -0.17006084 -1.497359 -1.1838995 -1.8452392
-0.4458795 0.24667807 0.30433065 -0.74929655 -2.0099974 0.22389646 0.17506276 0.19773392
0.29663542 -1.2930043 -0.61673886 1.0866061 0.26665753 -2.0488 -0.1119023 0.22610757
0.46696907 -3.4052355 -0.61842495 -0.22073755 -0.46545133 -2.324808 0.87931496 -0.45088518
-0.34392467 0.045277882 0.606773 1.9145031 0.21425654 0.7902107 -2.394233 0.41248178
1.3855661 -0.14803614 -3.341797 0.6246333 0.78360564 0.13782386 0.5801277 0.39020073
0.6684468 -1.2204978 0.9828942 0.9554805 -0.35845456 0.547361 1.3244987 1.5013914
3.8615573e-05 0.52355087 -1.0303152 -1.8946189 1.2919226 1.2960888 0.009395268 -0.68355197
2.6470647 0.3808761 0.14482182 0.17187022 1.5872834 0.6762019 -2.4967477 0.32306495
-0.039965134 0.25193563 -1.0261502 1.1566453 -0.0012054223 -1.37512 0.30393532 0.7215874
0.04126478 0.14102443 0.27987418 1.7482047 -0.61428773 -0.09746835 -1.9068552 0.22440696
-3.5530462 -0.48957267 0.40463573 0.7489299 -1.1860511 1.52254 1.2962198 3.0028615
1.0633796 0.7113337 -1.8509581 0.90569985 0.27489558 1.8281453 -0.49887085 -0.22617868
0.2668603 0.7315054 -1.5247141 -1.9196348 -0.61236256 1.2937781 -0.040602364 -0.9269098
0.9184325 -0.036323093 0.73795676 1.8002627 2.176342 0.48292053 0.5568212 0.87766933
-1.5854545 -0.20196837 2.4854443 -0.12606929 -1.0337197 -0.3582749 -1.0689238 -1.0094041
-0.031247692 1.2475369 -0.4662165 1.8249407 -5.9770412 1.7355239 -0.4862514 -2.7377834
0.34924838 -0.06972043 1.680233 -0.24844901 -1.6976452 -1.4104022 -1.4701165 -0.9802123
0.67961955 0.30854854 -1.9349055 -0.8099775 -1.4364924 0.005415637 -0.046825945 1.0834199
1.3952765 -1.7468014 -2.5599163 -0.6826301 1.7140766 -0.569575 -1.7320406 -1.1542863
-1.3493934 0.5968585 2.3625827 -0.22480832 -0.6511446 1.9343756 -0.51739573 -0.2549527
-1.0103191 -0.8638815 -0.02373208 0.32712954 -0.8812627 -1.154182 -0.18195544 1.1683652
1.6115228 0.45956376 -0.053984135 -0.5662621 2.5741065 -1.4539464 -1.1437804 0.6828012
-0.77415866 0.041827526 1.3788841 -2.1121695 -0.85463005 -2.9307985 0.55820984 1.9690676
00000000: dd64 2fbf 5593 b8be 84a0 e8bc 2a08 49bf
00000010: 6237 d33f 91fa 9abf c91e cabd 1632 af3e
00000020: 9e53 aebf 9b27 f83e e623 1dbf 45b8 e43e
00000030: 3a55 0fc0 9cbd 9c3d 6e92 b73e ac10 fa3e
00000040: d965 b0bf 66dc 823f 37e8 9a3f b023 c03f
00000050: 285e e93e ef23 3f3f 049f 8c3e 4938 ee3e
00000060: 3728 233e 5202 09bf 10e4 9f3f 5bfb d13e
00000070: 7da4 e5bf c2a7 2e3f 38d6 483f a788 813f
00000080: 6991 1e40 b7a2 66bf f812 923f 9150 75bc
00000090: bafe 43bf d6e5 9bbf 5f60 3bbf 1a56 57bf
000000a0: 5dd1 d43f 0ca8 433f 54e4 ddbe a646 463f
000000b0: c66b 103f b7ad bf3e c917 903f 291b a53d
000000c0: 68af 2b3f c18a 58bf 8eed 8bbf 88ae 4f3f
000000d0: c764 8fbe 76cb aa3f b86b 0e3f bd02 883f
000000e0: c257 ebbf 0476 cfbe 2dae 3cbd 5b4e d33e
000000f0: afe4 a8bf 2d1c cb3f 75cc 8cbe 914b 95bd
00000100: 7970 e3bf a70c 0740 f429 043e 60c0 4abf
00000110: 6e24 2ebe 76a9 bfbf 058a 97bf cc30 ecbf
00000120: 514a e4be 2d99 7c3e 3ad1 9b3e e6d1 3fbf
00000130: cca3 00c0 1d45 653e a743 333e c37a 4a3e
00000140: 99e0 973e 2a81 a5bf 99e2 1dbf e915 8b3f
00000150: 5687 883e 8a1f 03c0 082d e5bd be88 673e
00000160: 9216 ef3e 61ef 59c0 1951 1ebf 0609 62be
00000170: a34f eebe a7c9 14c0 c91a 613f 6cda e6be
00000180: e516 b0be 4d75 393d 7a55 1b3f 700e f53f
00000190: 1166 5b3e 404b 4a3f 1d3b 19c0 d030 d33e
000001a0: 3b5a b13f c996 17be 01e0 55c0 f8e7 1f3f
000001b0: 619a 483f b321 0d3e 4083 143f 64c8 c73e
000001c0: 541f 2b3f 4639 9cbf f49e 7b3f 5f9a 743f
000001d0: 5b87 b7be da1f 0c3f 2c89 a93f 982d c03f
000001e0: 28f7 2138 6e07 063f 5ee1 83bf df82 f2bf
000001f0: b85d a53f 3de6 a53f 9cee 193c 43fd 2ebf
00000200: 8269 2940 3102 c33e 2c4c 143e bffe 2f3e
00000210: 1a2c cb3f 911b 2d3f b7ca 1fc0 c568 a53e
00000220: 7bb2 23bd b5fd 803e e458 83bf f40c 943f
00000230: 43ff 9dba ef03 b0bf 699d 9b3e f4b9 383f
00000240: 4205 293d b568 103e ab4b 8f3e 2cc5 df3f
00000250: f641 1dbf 7c9d c7bd d513 f4bf f0ca 653e
00000260: 1c65 63c0 45a9 fabe 6a2c cf3e dfb9 3f3f
00000270: 86d0 97bf 97e2 c23f 88ea a53f e22e 4040
00000280: d31c 883f f719 363f 32ec ecbf f2db 673f
00000290: 1dbf 8c3e aa00 ea3f 006c ffbe 629b 67be
000002a0: eaa1 883e f043 3b3f d529 c3bf 98b6 f5bf
000002b0: cbc3 1cbf 859a a53f aa4e 26bd f649 6dbf
000002c0: 641e 6b3f 86c7 14bd bcea 3c3f 026f e63f
000002d0: 3049 0b40 5c41 f73e d68b 0e3f f0ae 603f
000002e0: 2cf0 cabf ccd0 4ebe 8511 1f40 4f18 01be
000002f0: ed50 84bf cf6f b7be 7fd2 88bf 2734 81bf
00000300: 29fb ffbc 4aaf 9f3f eeb3 eebe a897 e93f
00000310: ec43 bfc0 a625 de3f f2f5 f8be d837 2fc0
00000320: afd0 b23e 96c9 8ebd e011 d73f 6b69 7ebe
00000330: 704c d9bf 0f88 b4bf c72c bcbf 31ef 7abf
00000340: 8cfb 2d3f 13fa 9d3e fcaa f7bf af5a 4fbf
00000350: fcde b7bf a875 b13b 90cc 3fbd 81ad 8a3f
00000360: 6c98 b23f 3097 dfbf abd5 23c0 d9c0 2ebf
00000370: dd66 db3f abcf 11bf 82b3 ddbf a7bf 93bf
00000380: ecb8 acbf b8cb 183f 8e34 1740 2734 66be
00000390: 6ab1 26bf 9f99 f73f 0c74 04bf 2989 82be
000003a0: 2352 81bf 5727 5dbf c769 c2bc 867d a73e
000003b0: 6f9a 61bf 3cbc 93bf 8752 3abe fe8c 953f
000003c0: 6146 ce3f f14b eb3e 781e 5dbd 8ef6 10bf
000003d0: 29be 2440 ea1a babf 6567 92bf 0fcc 2e3f
000003e0: 432f 46bf 5753 2b3d 467f b03f c92d 07c0
000003f0: 09c9 5abf 3492 3bc0 d7e6 0e3f 680a fc3f

bias_ih_l0 f4 [256]
0.25124165 -0.5283083 0.45762163 -0.4598931 -0.18092206 0.14858839 -0.2644672 0.43501276
-0.46059716 0.16828875 0.3186721 -1.2131524 -0.5674038 0.48725164 -0.27871794 -1.0721256
-0.060716093 -0.23827258 0.47045574 -0.16831098 0.3612827 0.2377977 -0.3075351 0.61478853
-0.2388493 -0.7868503 -0.64349526 -0.8035806 -0.08411825 -0.41290218 0.13299742 0.06121748
-0.23114601 -1.0145777 0.3780039 -0.74152315 0.38322377 -0.22503215 0.38901964 -0.93969667
-0.2483413 0.38421327 -0.382224 0.36526394 0.53521174 -0.21933818 -0.3873343 -0.7023203
-0.17448235 -0.6315695 -0.52057505 -1.139968 0.8246428 0.7193005 -0.42476046 0.16028665
-0.65014356 -1.0261647 0.5695674 0.40072364 0.23098336 0.037882935 0.87407196 -0.85506165
0.4235875 -0.004740972 -0.6914792 -0.09414876 -0.36586842 -0.20002726 0.34717464 0.20296218
-0.9709773 0.60042703 0.70683455 -0.82259667 -0.4786454 0.65858 -0.32481644 -0.030056378
0.44163856 -0.5080486 -0.18267022 -1.0661436 0.8077739 -1.2844292 -0.74394375 0.059557643
0.54570276 -0.6897915 -0.16473247 0.030383088 -1.099877 -0.65013885 -0.24684922 -0.044911318
-0.62289923 -0.1899194 0.66002756 0.5298475 0.5309373 0.5196286 1.2306421 -0.755055
-1.3262037 0.5866762 -0.25790015 0.61134344 -0.19987643 1.0136045 0.32457945 0.73291165
-0.5289802 -0.17831464 -0.050126992 0.24925202 -0.26130417 0.10872832 0.3224246 0.5277283
-0.25520375 -0.22453468 0.28387436 -0.4185357 0.19391808 -0.049274422 -0.90018934 -1.3035047
-0.34372982 0.3437617 1.2048737 0.795012 0.44759455 -0.9848051 0.13862683 -0.6943607
-0.5561058 0.71845746 -0.47712445 -0.115446165 0.9789258 -0.532751 -0.47807932 0.34179097
0.78540653 0.92200434 -0.3063563 0.09153719 0.93938255 -0.36361104 0.87709314 -0.09147036
0.044997413 -0.021051558 -0.58109903 -0.14222881 1.2667527 -0.16992024 0.8712499 0.9590582
0.82360995 -0.03748829 -0.22864735 -0.1940896 -1.5426723 0.7239649 0.6716796 0.6480086
-0.86328393 0.63608366 0.5416069 1.487113 -1.0070457 0.7381274 -0.4434465 -0.51085776
-1.4085425 -0.6852993 0.6408251 -0.2169169 -0.37641898 0.9284313 0.700014 1.5771823
-0.30147746 -0.2727777 0.4139786 0.66567343 -0.74533397 -1.5350854 -0.21532512 -0.09062925
0.96557695 1.6158683 -0.30693212 0.48320562 0.25730515 0.19601792 0.21863322 -0.39368215
-1.0440899 -0.5808581 0.54040873 -1.0776312 0.22801514 -0.9441528 0.76918054 -0.066170506
-0.8519052 0.022596167 -0.61480254 0.32492486 0.57858837 -1.0698302 -1.0040288 0.12001093
0.43049514 0.27905566 0.31051847 0.2953838 -1.0881613 -1.6020004 0.43784103 0.067707025
0.283723 -0.39896837 -0.49728504 0.26649332 0.5169669 0.06389524 -0.6629485 -0.37447906
-1.5097847 0.050151553 0.27673078 0.8459923 -0.23636979 -0.009245735 -0.22396493 0.744488
-0.45631418 0.2733654 1.4067137 0.4170427 -0.7674039 0.5830456 0.529509 0.09776067
-0.63443834 -0.43348742 0.346984 0.061102245 -0.28754383 -0.0073986687 -0.37459818 0.037923053
00000000: bfa2 803e 363f 07bf 624d ea3e 1c77 ebbe
00000010: a243 39be 8e27 183e 3f68 87be feb9 de3e
00000020: 64d3 ebbe e353 2c3e fd28 a33e 9448 9bbf
00000030: 6041 11bf 0c79 f93e 1eb4 8ebe 693b 89bf
00000040: 70b1 78bd bafd 73be 93df f03e b759 2cbe
00000050: 0cfa b83e 3e81 733e 3e75 9dbe c862 1d3f
00000060: e994 74be 056f 49bf 1bbc 24bf 75b7 4dbf
00000070: 3046 acbd ea67 d3be 7a30 083e 2ebf 7a3d
00000080: 8ab1 6cbe afdd 81bf ba89 c13e 76d4 3dbf
00000090: e835 c43e d46e 66be 952d c73e f68f 70bf
000000a0: 2f4d 7ebe 9ab7 c43e ddb2 c3be e003 bb3e
000000b0: a303 093f 309a 60be ae50 c6be 43cb 33bf
000000c0: 80ab 32be 8aae 21bf 6844 05bf 79ea 91bf
000000d0: ca1b 533f 1424 383f 347a d9be 2f22 243e
000000e0: cf6f 26bf 5d59 83bf 2bcf 113f a62b cd3e
000000f0: e786 6c3e 232b 1b3d 2ec3 5f3f 52e5 5abf
00000100: 76e0 d83e 285a 9bbb c804 31bf 11d1 c0bd
00000110: 1b53 bbbe f2d3 4cbe e0c0 b13e 51d5 4f3e
00000120: f891 78bf 96b5 193f 1cf3 343f b295 52bf
00000130: 0311 f5be b398 283f 574e a6be cb38 f6bc
00000140: 731e e23e 790f 02bf e70d 3bbe 6577 88bf
00000150: 45ca 4e3f 2d68 a4bf 1973 3ebf b7f2 733d
00000160: 2db3 0b3f 2d96 30bf a1af 28be f4e5 f83c
00000170: c5c8 8cbf 806f 26bf 0bc6 7cbe eef4 37bd
00000180: 5376 1fbf 3b7a 42be 91f7 283f 16a4 073f
00000190: 82eb 073f 6106 053f ae85 9d3f 494b 41bf
000001a0: 0bc1 a9bf 6930 163f 7d0b 84be 0181 1c3f
000001b0: 68ac 4cbe cbbd 813f 472f a63e 19a0 3b3f
000001c0: 3f6b 07bf 1d98 36be f651 4dbd ec3b 7f3e
000001d0: a9c9 85be f4ac de3d d614 a53e 3419 073f
000001e0: 11aa 82be 6bec 65be fb57 913e 504a d6be
000001f0: 7692 463e fad3 49bd cf72 66bf 3ed9 a6bf
00000200: 5bfd afbe 8901 b03e 4d39 9a3f e885 4b3f
00000210: 1d2b e53e 301c 7cbf 31f4 0d3e 9fc1 31bf
00000220: f35c 0ebf d4ec 373f a849 f4be 0a6f ecbd
00000230: e29a 7a3f 5f62 08bf d0c6 f4be 3aff ae3e
00000240: 6710 493f 7a08 6c3f bcda 9cbe da77 bb3d
00000250: 607b 703f 3a2b babe 2d89 603f d054 bbbd
00000260: 354f 383d 5174 acbc e8c2 14bf 6ea4 11be
00000270: f424 a23f 92ff 2dbe 3c0a 5f3f d784 753f
00000280: 1ad8 523f 528d 19bd 8822 6abe 6dbf 46be
00000290: 4976 c5bf c455 393f 32f3 2b3f e4e3 253f
000002a0: 2d00 5dbf 61d6 223f c0a6 0a3f b859 be3f
000002b0: e0e6 80bf ebf5 3c3f 6b0b e3be 93c7 02bf
000002c0: 1f4b b4bf c66f 2fbf 1d0d 243f 771f 5ebe
000002d0: fdb9 c0be acad 6d3f 1e34 333f 1ce1 c93f
000002e0: 415b 9abe 85a9 8bbe 01f5 d33e 9369 2a3f
000002f0: 35ce 3ebf ae7d c4bf 307e 5cbe d49b b9bd
00000300: 0d30 773f c6d4 ce3f 3526 9dbe ba66 f73e
00000310: 80bd 833e ecb8 483e 63e1 5f3e b590 c9be
00000320: bda4 85bf 1eb3 14bf 3a58 0a3f d2ef 89bf
00000330: cd7c 693e ffb3 71bf 04e9 443f 6784 87bd
00000340: 7616 5abf 991b b93c b363 1dbf 8d5c a63e
00000350: 5e1e 143f 32f0 88bf 0484 80bf 4ac8 f53d
00000360: dc69 dc3e 62e0 8e3e 47fc 9e3e 8c3c 973e
00000370: df48 8bbf 590e cdbf b32c e03e fba9 8a3d
00000380: 2444 913e 9545 ccbe 259c febe d071 883e
00000390: f157 043f 82db 823d feb6 29bf b8bb bfbe
000003a0: a040 c1bf b76b 4d3d a8af 8d3e f492 583f
000003b0: ec0a 72be 6c7b 17bc 1057 65be c496 3e3f
000003c0: 03a2 e9be 8df6 8b3e 320f b43f 9f86 d53e
000003d0: 9574 44bf 7a42 153f e78d 073f bf36 c83d
000003e0: 8d6a 22bf 10f2 ddbe e3a7 b13e 5946 7a3d
000003f0: f238 93be 8870 f2bb 55cb bfbe 3455 1b3d

bias_hh_l0 f4 [256]
0.2471796 -0.61096174 0.43944043 -0.6533806 0.03352396 0.062061183 -0.19613504 0.44354108
-0.5261396 0.21746393 0.345422 -1.0953643 -0.5852921 0.47298348 -0.38206616 -1.1776708
-0.016006816 -0.30430245 0.45568708 -0.17733878 0.35225877 0.15697004 -0.2781901 0.49640372
-0.45038974 -0.7854548 -0.7854808 -0.8062858 -0.07657036 -0.37538424 0.16001669 0.040262572
-0.18970422 -1.0637925 0.4513768 -0.8061064 0.2038652 -0.067859456 0.33904397 -1.088024
-0.31551492 0.44750157 -0.37492123 0.50347906 0.65155756 -0.33916828 -0.4667195 -0.87143326
-0.087774366 -0.63121736 -0.5828702 -1.2143872 0.82648027 0.6272224 -0.5190071 0.23436572
-0.5582251 -1.1069214 0.6193406 0.26492718 0.36921847 0.17800891 0.8499171 -0.84822214
0.53797436 -0.07177882 -0.63823944 -0.17560221 -0.23589635 -0.3057375 0.22432476 0.20976914
-1.0392882 0.631002 0.7111489 -0.7980917 -0.27102694 0.71265846 -0.17884766 -0.061964188
0.49520448 -0.4530022 -0.10153526 -0.97358274 0.7809682 -1.3555993 -0.83402884 -0.01407084
0.6694988 -0.8261575 -0.17716938 0.09854044 -0.9940735 -0.49501038 -0.19877917 0.12871693
-0.62785727 -0.31916374 0.62803346 0.6720943 0.6053769 0.62456983 1.1737785 -0.7561431
-1.3743898 0.7611135 -0.14615513 0.50160253 -0.06041518 0.9553933 0.29056814 0.74770254
-0.5258816 -0.32237494 -0.052421123 0.3740943 -0.4026197 0.21769221 0.41483995 0.44984388
-0.40930146 -0.3583851 0.25855786 -0.24319999 0.16707057 -0.078071415 -0.7665772 -1.1847985
-0.48565182 0.37994373 1.1758887 0.80474806 0.4501113 -1.0180063 0.1851893 -0.5422988
-0.45820004 0.50154454 -0.4542315 -0.2666049 0.7967873 -0.50871694 -0.4276909 0.37934572
0.6069501 0.83567065 -0.4848562 -0.04545565 0.9904226 -0.16961198 0.9668791 -0.19694684
0.21217148 -0.122124024 -0.47024426 -0.057062373 1.2851565 -0.22055241 0.789351 0.8568172
0.7738626 -0.031508796 -0.1621346 -0.15597074 -1.6051629 0.8955819 0.61824554 0.6407491
-0.72930074 0.802674 0.5390423 1.4463549 -1.1368427 0.612585 -0.49321204 -0.5091582
-1.3401326 -0.87227446 0.8005422 -0.3788064 -0.50135213 0.8452201 0.8138652 1.4345456
-0.1702511 -0.2814747 0.4880771 0.6318885 -0.8751105 -1.4172492 -0.12601465 0.024910893
0.9257466 1.4603057 -0.30655542 0.43087184 0.2612204 0.23606053 0.23342852 -0.5487858
-1.1718031 -0.61970675 0.57830256 -1.1463945 0.30259442 -1.0181435 0.8864777 -0.08422229
-0.717638 -0.031610187 -0.67601097 0.42109653 0.7183231 -0.9581491 -0.87398976 0.2509195
0.22660582 0.20141304 0.26550102 0.24230975 -1.0648006 -1.606552 0.54291284 0.065809906
0.16767608 -0.5317426 -0.3956537 0.24695009 0.59193254 0.12480179 -0.5834297 -0.22231583
-1.4907241 -0.12101101 0.21766825 0.73824096 -0.118565835 -0.014204174 -0.22006506 0.81167144
-0.48220423 0.3087948 1.4703053 0.4734323 -0.7339475 0.4823524 0.5174097 0.23860711
-0.46133748 -0.414169 0.29620594 0.11643602 -0.29172972 -0.16144162 -0.2556977 0.12551105
00000000: a61c 7d3e fd67 1cbf 56fe e03e f343 27bf
00000010: 6b50 093d de33 7e3d a0d7 48be d117 e33e
00000020: 16b1 06bf ddae 5e3e 27db b03e e634 8cbf
00000030: b4d5 15bf e42a f23e 2d9e c3be ebbd 96bf
00000040: ba20 83bc 88cd 9bbe d14f e93e 4c98 35be
00000050: 435b b43e c1bc 203e ef6e 8ebe a128 fe3e
00000060: 7c99 e6be 9113 49bf 4515 49bf bf68 4ebf
00000070: ecd0 9cbd 5d32 c0be 6adb 233e 5eea 243d
00000080: d341 42be 5a2a 88bf dc1a e73e fd5c 4ebf
00000090: 0ac2 503e e6f9 8abd 2c97 ad3e 5f44 8bbf
000000a0: 2c8b a1be ed1e e53e adf5 bfbe 01e4 003f
000000b0: 7acc 263f 77a7 adbe dcf5 eebe 4016 5fbf
000000c0: 0cc3 b3bd 7697 21bf fb36 15bf 0a71 9bbf
000000d0: 3694 533f a691 203f a6dd 04bf 91fd 6f3e
000000e0: d7e7 0ebf 9aaf 8dbf 1b8d 1e3f 89a4 873e
000000f0: 340a bd3e f847 363e 2b94 593f 1625 59bf
00000100: b0b8 093f c600 93bd a963 23bf 11d1 33be
00000110: d08e 71be a089 9cbe 64b5 653e b9cd 563e
00000120: 6507 85bf 5989 213f db0d 363f bd4f 4cbf
00000130: 0bc4 8abe c970 363f d723 37be 29ce 7dbd
00000140: 718b fd3e e8ef e7be b8f1 cfbd b83c 79bf
00000150: 88ed 473f 4784 adbf ea82 55bf 6189 66bc
00000160: 4664 2b3f 0f7f 53bf e46b 35be 92cf c93d
00000170: 9a7b 7ebf 0072 fdbe c48c 4bbe 5fce 033e
00000180: 41bb 20bf 6e69 a3be cdc6 203f 5f0e 2c3f
00000190: fbf9 1a3f cfe3 1f3f 603e 963f 9892 41bf
000001a0: 01ec afbf 56d8 423f b1a9 15be 0669 003f
000001b0: e875 77bd a894 743f 59c5 943e 6f69 3f3f
000001c0: 2da0 06bf 540e a5be 88b7 56bd 4a89 bf3e
000001d0: 2b24 cebe b5ea 5e3e e765 d43e f051 e63e
000001e0: f68f d1be 407e b7be b261 843e 6b09 79be
000001f0: 8c14 2b3e e8e3 9fbd 673e 44bf 7aa7 97bf
00000200: 5ba7 f8be fc87 c23e 8583 963f f803 4e3f
00000210: fd74 e63e 084e 82bf 44a2 3d3e 18d4 0abf
00000220: 3299 eabe 3965 003f 0891 e8be 7080 88be
00000230: 41fa 4b3f 463b 02bf 4dfa dabe 9a39 c23e
00000240: 1561 1b3f 83ee 553f 123f f8be b42f 3abd
00000250: 568c 7d3f c3ae 2dbe 6485 773f 6fac 49be
00000260: 7b43 593e 291c fabd dbc3 f0be 3cba 69bd
00000270: 0280 a43f 7ed8 61be e812 4a3f 5f58 5b3f
00000280: dc1b 463f 5e0f 01bd 9d06 26be cbb6 1fbe
00000290: fa75 cdbf db44 653f 5745 1e3f 2208 243f
000002a0: 74b3 3abf 0b7c 4d3f adfe 093f 2822 b93f
000002b0: 1084 91bf 5fd2 1c3f 4a86 fcbe 3158 02bf
000002c0: 7789 abbf 614d 5fbf 55f0 4c3f eaf2 c1be
000002d0: 9d58 00bf 5860 583f 7859 503f 319f b73f
000002e0: 4e56 2ebe 741d 90be 3ee5 f93e 72c3 213f
000002f0: 3e07 60bf 6c68 b5bf fc09 01be ee11 cc3c
00000300: bbfd 6c3f 4ceb ba3f d5f4 9cbe 3c9b dc3e
00000310: aebe 853e dab9 713e e307 6f3e 3a7d 0cbf
00000320: a5fd 95bf 1aa5 1ebf a30b 143f 0ebd 92bf
00000330: a8ed 9a3e 8752 82bf 34f0 623f bc7c acbd
00000340: 20b7 37bf af79 01bd 0e0f 2dbf f799 d73e
00000350: 06e4 373f 4249 75bf cbbd 5fbf 8578 803e
00000360: 5b0b 683e 383f 4e3e c0ef 873e 0c20 783e
00000370: 634b 88bf 7fa3 cdbf 56fc 0a3f 58c7 863d
00000380: 47b3 2b3e 4820 08bf 1f93 cabe 7ce0 7c3e
00000390: e488 173f 1598 ff3d a65b 15bf c3a6 63be
000003a0: 0cd0 bebf 9fd4 f7bd 6de4 5e3e 5cfd 3c3f
000003b0: a5d2 f2bd a0b8 68bc bc58 61be b3c9 4f3f
000003c0: 79e3 f6be 5a1a 9e3e f732 bc3f b865 f23e
000003d0: fce3 3bbf e5f6 f63e f674 043f 6c55 743e
000003e0: 6d34 ecbe f60d d4be 4ea8 973e 0276 ee3d
000003f0: 995d 95be f450 25be cfea 82be f885 003e

weight f4 [10, 64]
-0.21022367 0.12865938 -1.0192773 -3.796099 -0.4233365 0.05545587 0.681669 -0.1430771
-0.5456653 -0.034040507 -0.5894345 0.28653556 -6.2924914 0.5867247 1.6431319 0.5327716
0.8213716 0.37283236 -0.79754984 -3.1168895 -3.280427 0.41889554 -0.5322825 -0.1367858
1.6329831 -1.8419594 2.8887408 1.3625836 -1.065403 -1.049892 -1.9246287 0.19816118
-1.1951643 -1.4461005 0.52989835 0.00040103262 2.511109 -2.060608 -0.33022442 -0.14552975
-0.43614766 -0.856151 -1.4085357 -2.182076 1.8288797 0.17060979 5.049555 4.052533
2.2949538 2.513544 -1.2051464 -0.29922178 -2.1335213 0.38191134 -0.9904215 -2.5723908
0.17765169 -0.4431717 -2.4515605 1.4809725 2.8879786 1.5785803 -0.6687805 0.90284353
0.18213421 0.0077583347 -1.3739101 -5.433364 0.69171524 1.4654979 1.6475966 0.0421681
-1.2412965 1.7201817 -0.8187065 0.4089911 -7.944277 2.557121 0.05373838 0.4168195
0.19556154 0.028126933 -0.12699544 -4.9248495 4.0382037 0.38374835 -0.1175935 0.7749301
-0.53185654 -1.1017342 3.6730156 0.51854783 -4.650732 1.636332 2.6471963 -0.06897748
-0.8204054 -0.1807092 -0.052147202 -0.4535624 -0.57460576 -0.43457267 -1.1997836 0.1785575
-0.38399324 -1.5068926 -1.7457732 4.271058 1.1160582 0.6139218 1.5761411 -4.0947227
-0.71956646 0.93660897 0.568425 4.291943 -2.145051 0.32510215 -0.42866924 -2.3668833
0.08544921 0.7197893 -0.9592537 -0.8363276 0.188582 6.020281 -0.44518724 3.7242346
-0.06069429 -0.43033686 0.11335176 -6.9280634 -0.510253 0.2970318 0.7015772 0.5809311
0.63102984 -3.59841 0.6104947 -0.27932015 -8.708563 1.2763453 -0.018360445 -1.2821449
0.3907989 -0.83857507 -0.32630703 1.4909931 1.5429971 0.39005402 -0.7698842 -0.78512263
0.20345965 -0.6894031 1.9786637 -0.15305848 -1.2551023 0.15034392 0.8892495 0.15086173
-0.36483622 -0.114878625 0.7196125 -0.8923089 3.7223423 -0.11704138 -2.5828893 -0.29734692
0.09992211 -0.33789375 0.58754224 -5.42071 -0.36112225 0.4386924 1.2695248 3.1663966
-0.0039065965 -0.47746748 -0.858751 1.4982842 -2.1561542 0.82565296 0.0028980023 -0.6716762
0.3379864 3.360682 -2.2420313 0.97845507 1.4398179 3.8575866 -0.3126664 0.16552173
0.26429898 -0.66996306 0.30742005 -0.3944066 -0.1575136 -0.886956 0.9486997 0.4120361
0.42835376 -1.3291035 2.139856 -0.27907094 -3.7164037 1.1721586 -0.19488509 -0.47526395
1.1925844 -0.45234275 -0.0024584718 -8.36179 2.4309897 -0.6009122 -0.035064522 0.11688606
-0.50655407 0.6017506 -0.08857305 0.1767408 -5.1432633 -0.4236161 -1.4523486 -0.67737186
-0.8623833 1.1191723 -0.5263876 -0.4022649 4.3146453 -0.28748152 -0.4930477 0.5287081
-0.029946769 -1.56887 -0.5238323 -3.868949 0.6209855 0.01836226 1.3068372 3.3859873
0.7207657 1.0577985 -0.9716116 2.3587422 -0.2118489 0.219949 -0.07173627 -4.481524
0.38418818 -0.64077044 -1.1816022 2.6404455 2.6771305 5.9566274 -0.97169805 5.2653413
00000000: e044 57be 49bf 033e ae77 82bf 49f3 72c0
00000010: 90bf d8be b225 633d dc81 2e3f ce82 12be
00000020: b9b0 0bbf 0f6e 0bbd 2ee5 16bf cab4 923e
00000030: 175c c9c0 9733 163f 2552 d23f b863 083f
00000040: 6945 523f e2e3 be3e 3a2c 4cbf 1e7b 47c0
00000050: 84f2 51c0 7a79 d63e aa43 08bf 9411 0cbe
00000060: 9705 d13f 53c5 ebbf 21e1 3840 2469 ae3f
00000070: 205f 88bf dc62 86bf 3c5a f6bf c4ea 4a3e
00000080: 25fb 98bf d219 b9bf 6ba7 073f b041 d239
00000090: 03b6 2040 00e1 03c0 2d13 a9be c005 15be
000000a0: bf4e dfbe b62c 5bbf e64a b4bf 22a7 0bc0
000000b0: bb18 ea3f 55b4 2e3e f495 a140 5aae 8140
000000c0: 86e0 1240 e8dd 2040 3d42 9abf 9933 99be
000000d0: 9d8b 08c0 e289 c33e 438c 7dbf 0da2 24c0
000000e0: 53ea 353e 67e7 e2be 5ee6 1cc0 8290 bd3f
000000f0: a4d4 3840 eb0e ca3f 3335 2bbf c120 673f
00000100: 6481 3a3e a139 fe3b 49dc afbf 1ede adc0
00000110: 4014 313f 6f95 bb3f 72e4 d23f 75b8 2c3d
00000120: cee2 9ebf ea2e dc3f c096 51bf 4867 d13e
00000130: 8437 fec0 dfa7 2340 c71c 5c3d 5e69 d53e
00000140: 4941 483e 746a e63c 180b 02be 5e98 9dc0
00000150: f738 8140 aa7a c43e dcd4 f0bd d261 463f
00000160: c027 08bf a005 8dbf b012 6b40 8dbf 043f
00000170: ccd2 94c0 5473 d13f aa6b 2940 1144 8dbd
00000180: 1706 52bf d50b 39be 4e98 55bd 5539 e8be
00000190: 5d19 13bf 4f80 debe 8292 99bf c7d7 363e
000001a0: c39a c4be dbe1 c0bf 7f75 dfbf 82ac 8840
000001b0: ffda 8e3f fb29 1d3f febe c93f f807 83c0
000001c0: 8235 38bf 9bc5 6f3f 4d84 113f 9957 8940
000001d0: 8448 09c0 ca73 a63e 897a dbbe 047b 17c0
000001e0: ffff ae3d 1d44 383f a791 75bf 9119 56bf
000001f0: a41b 413e 24a6 c040 95ef e3be dc59 6e40
00000200: 939a 78bd 1d55 dcbe f824 e83d b2b2 ddc0
00000210: f19f 02bf 8d14 983e 909a 333f e7b7 143f
00000220: 2c8b 213f 594c 66c0 6149 1c3f 0d03 8fbe
00000230: 4656 0bc1 485f a33f a568 96bc 531d a4bf
00000240: cb16 c83e dbac 56bf b711 a7be ddd8 be3f
00000250: ee80 c53f 29b5 c73e 2217 45bf ccfd 48bf
00000260: ba57 503e b97c 30bf da44 fd3f 5dbb 1cbe
00000270: 31a7 a0bf c2f3 193e dba5 633f 7f7b 1a3e
00000280: d0cb babe 7c45 ebbd 8638 383f 5b6e 64bf
00000290: db3a 6e40 64b3 efbd 0f4e 25c0 db3d 98be
000002a0: f7a3 cc3d 6900 adbe 2b69 163f 7576 adc0
000002b0: 04e5 b8be 4a9c e03e ca7f a23f 3ea6 4a40
000002c0: e802 80bb 9e76 f4be 1bd7 5bbf c7c7 bf3f
000002d0: 6efe 09c0 fe5d 533f 69ec 3d3b f9f2 2bbf
000002e0: 8e0c ad3e 6a15 5740 717d 0fc0 087c 7a3f
000002f0: f44b b83f b3e2 7640 cf15 a0be 877e 293e
00000300: 3252 873e b382 2bbf 2966 9d3e a9ef c9be
00000310: 3f4b 21be 8c0f 63bf fcdd 723f 65f6 d23e
00000320: 2f51 db3e 1020 aabf 67f3 0840 63e2 8ebe
00000330: 8fd9 6dc0 4b09 963f f58f 47be cc55 f3be
00000340: 9ba6 983f 7899 e7be 501e 21bb e4c9 05c1
00000350: 5695 1b40 62d5 19bf d19f 0fbd f561 ef3d
00000360: 87ad 01bf 540c 1a3f ca65 b5bd 8afb 343e
00000370: 9d95 a4c0 36e4 d8be 8fe6 b9bf 3e68 2dbf
00000380: 27c5 5cbf 0a41 8f3f 56c1 06bf aaf5 cdbe
00000390: 9311 8a40 c730 93be c070 fcbe 6a59 073f
000003a0: ed52 f5bc bbd0 c8bf e019 06bf dc9c 77c0
000003b0: e8f8 1e3f 736c 963c 7146 a73f 04b4 5840
000003c0: 1a84 383f f165 873f 8abb 78bf a2f5 1640
000003d0: ebee 58be 503a 613e 77ea 92bd a568 8fc0
000003e0: 50b4 c43e 8809 24bf be3e 97bf 0ffd 2840
000003f0: 1b56 2b40 b19c be40 34c1 78bf ad7d a840

bias f4 [10]
-0.55367124 -0.31413165 0.35180435 0.69509465 -0.4485576 0.22322014 -1.4631842 0.9768785
-0.2812145 0.35695046
00000000: 66bd 0dbf ddd5 a0be b31f b43e b9f1 313f
00000010: 57a9 e5be d293 643e 9f49 bbbf b614 7a3f
00000020: 59fb 8fbe 36c2 b63e
