vae_mnist_gen_model.pth (torch, 846273 bytes, 12 tensors)

weight f4 [128, 784]
0	0x3cba532c	0.022744738
1	0xbc8e203a	-0.017349351
2	0xbb171750	-0.0023054667
3	0x3ce44772	0.027866099
4	0x3cc6c3a8	0.024263218
5	0xbc9fd575	-0.019510964
6	0x3aec6520	0.0018035509
7	0x3d05b9bb	0.03264783
8	0x3c32c664	0.010911558
9	0xbb278870	-0.00255635
10	0xbc43038e	-0.011902703
11	0xbae7aa40	-0.001767464
12	0x3ca555f0	0.02018258
13	0xbbd17cef	-0.006393067
14	0x3c289e90	0.0102917105
15	0x3cc923bd	0.024553174
16	0x3d0a2d8b	0.03373484
17	0x3cc02fe2	0.023460332
18	0xbc35e71c	-0.011102464
19	0x3c623610	0.013806835
20	0x3c1f3650	0.009717539
21	0xbb2acb60	-0.0026061162
22	0xbc9278f3	-0.017879939
23	0x3c3833a4	0.011242781
24	0x3bf63c70	0.007514529
25	0x3d070f1f	0.032973405
26	0xbcc9319c	-0.024559788
27	0x3b6d3b30	0.0036198609
28	0xbb821388	-0.0039696135
29	0xbd0b68e7	-0.03403559
30	0xbc28d1b2	-0.0103039015
31	0xbc346840	-0.011011183
32	0xbd097169	-0.033555422
33	0x3c741886	0.014898425
34	0x3e9f4adc	0.311118
35	0x3e779b48	0.24180329
36	0xbe3baa28	-0.18326628
37	0xbd371c4f	-0.04470473
38	0x3e7e0fcd	0.24810715
39	0x3e981dae	0.29710144
40	0x3e891688	0.26775002
41	0x3e847ca5	0.25876346
42	0x3e6481a8	0.22315085
43	0x3dbbbe96	0.09167211
44	0xbd9334c6	-0.071878
45	0xbdb9969d	-0.0906193
46	0xbdc5fb3f	-0.09667062
47	0xbdb15145	-0.08658079
48	0xbdac85cf	-0.084239595
49	0xbd8ecca7	-0.06972628
50	0xbc3b8105	-0.011444335
51	0x3cb7c2af	0.0224317
52	0xbced0048	-0.028930798
53	0xbc1c7720	-0.009549886
54	0xbcbc8238	-0.023011312
55	0xbca27b07	-0.019834055
56	0x3cb3fc88	0.021971002
57	0x3cc62f90	0.024192601
58	0xb929c10f	-0.00016189016
59	0x3ab9960a	0.0014159095
60	0x3c7f46aa	0.0155808125
61	0x3e095c7a	0.13414183
62	0x3e9c6657	0.3054683
63	0x3cba2a72	0.022725318
64	0x3d30371b	0.043021303
65	0x3f50501b	0.8137223
66	0x3f1257a0	0.57164955
67	0x3eb618af	0.35565707
68	0x3ec61b4e	0.38692707
69	0x3f92d786	1.1472023
70	0x3f510df6	0.8166193
71	0x3f265a87	0.64981884
72	0x3ecebd9f	0.40379044
73	0x3bb216e6	0.0054348586
74	0xbe6d51d8	-0.23175752
75	0xbe682973	-0.22672062
76	0x3d50071b	0.050788026
77	0x3dda7f34	0.10668793
78	0x3e4200f8	0.18945682
79	0x3e0c31d8	0.13690889
80	0x3c481ca6	0.012213862
81	0xbbd930bb	-0.0066281236
82	0x3c4ac484	0.012375955
83	0x3b7bf0d0	0.0038443096
84	0x3cc46fd0	0.023979098
85	0x3c0a8808	0.008455284
86	0xbd58dfaa	-0.052947678
87	0xbd16c750	-0.036811173
88	0xbeb576d0	-0.3544221
89	0xbe3faf50	-0.1871922
90	0xbe977e5e	-0.29588598
91	0xbeb9297d	-0.36164466
92	0x3e8ac654	0.27104437
93	0x3f434158	0.7627158
94	0x3f116b0a	0.56803954
95	0x3f003098	0.5007415
96	0x3e014736	0.12624821
97	0x3ec1b6f7	0.37834904
98	0x3f95e53e	1.1710584
99	0x3fa11fcb	1.2587827
100	0x3fb1ecc3	1.3900379
101	0x3fb5376f	1.4157542
102	0x3f37a1c0	0.71731186
103	0x3ef96aed	0.4871439
104	0x3f028517	0.5098433
105	0x3f0eab9c	0.55730605
106	0x3d43e1c1	0.047822718
107	0xbe4615e3	-0.19344287
108	0xbda1ac68	-0.07894212
109	0xbddb3d8e	-0.107051
110	0x3af49a5c	0.0018661725
111	0xbc56c660	-0.01310882
112	0x3d100df3	0.035169553
113	0xbc79bc0d	-0.015242589
114	0xbd14ef57	-0.036361065
115	0x3e63d959	0.2225088
116	0x3f2e6d96	0.68135965
117	0x3e7cde67	0.24694215
118	0x3e9aa140	0.3020115
119	0x3e9accae	0.30234283
120	0x3e8b95f0	0.2726283
121	0x3ea34a9c	0.3189286
122	0x3edbf2c3	0.4295865
123	0x3f050f6b	0.5197665
124	0x3ec4c5e1	0.3843222
125	0xbbcaa8d8	-0.0061846785
126	0xbdcb6ece	-0.09933244
127	0xbdafa22b	-0.08575853
128	0x3eae2cc1	0.3401852
129	0x3f04f7d1	0.5194064
130	0x3f08a009	0.53369194
131	0x3e713f6d	0.23559351
132	0x3e3e21f0	0.18567634
133	0xbde4c583	-0.11170485
134	0xbe12fef6	-0.14355072
135	0x3e9fdba5	0.31222263
136	0x3e19e872	0.15030077
137	0xbe07ec7a	-0.13273802
138	0x3d12a542	0.035802133
139	0xbcc7836f	-0.024354665
140	0x3cf6eff2	0.030143712
141	0xbc1a9286	-0.009434348
142	0x3c22bdaa	0.009932915
143	0x3cbbe2de	0.022935327
144	0x3e5e3efc	0.21703714
145	0x3e48958e	0.195883
146	0x3dd49add	0.103811
147	0x3e3378bd	0.17526527
148	0x3e3b27b3	0.18276863
149	0x3dbc321a	0.091892436
150	0xbd897984	-0.067126304
151	0x3c88586a	0.016643722
152	0x3d9e701b	0.07736226
153	0x3dfdb888	0.12388712
154	0x3de5fee6	0.11230259
155	0x3cb98578	0.02264665
156	0x3e2a394b	0.16623418
157	0x3c9af2d2	0.018914614
158	0xbe1dccef	-0.15410207
159	0x3cd6b75d	0.026210481
160	0x3ea35758	0.31902575
161	0x3d6cd236	0.05781766
162	0x3e4bf344	0.19917017
163	0x3e2dffd7	0.16992126
164	0x3e8d488c	0.2759441
165	0xbe923c18	-0.28561473
166	0xbed9d687	-0.42546484
167	0xbd8a789c	-0.06761286
168	0xbb392c60	-0.002825521
169	0xbcbf79b3	-0.02337346
170	0x3e164e22	0.14678243
171	0xbf216c91	-0.63056284
172	0xbe7004db	-0.23439352
173	0xbd9331bf	-0.07187223
174	0xbed13ec8	-0.4086821
175	0xbe1b2297	-0.15149914
176	0xbe22040c	-0.15821856
177	0x3ba5e595	0.0050627687
178	0xbe20ac75	-0.15690787
179	0xbd6a428f	-0.05719238
180	0xbe6e42d0	-0.23267674
181	0xbe3a3b9d	-0.18186803
182	0xbea64062	-0.32470995
183	0xbe3c5886	-0.18393144
184	0x3e735a88	0.23765004
185	0xbc368c3c	-0.011141833
186	0x3e289d49	0.1646625
187	0xbcd5883b	-0.026065936
188	0x3df48a24	0.11940411
189	0x3ea770e7	0.32703325
190	0xbaf5db65	-0.0018757401
191	0xbc58bedb	-0.013229097
192	0x3d65fa74	0.056147054
193	0xbf377131	-0.7165709
194	0xbee096f1	-0.4386516
195	0x3da3275d	0.07966492
196	0xbcf98109	-0.030457037
197	0x3e3948c6	0.18094167
198	0x3de12b2a	0.10994561
199	0xbf45f269	-0.77323014
200	0xbe2fc6b4	-0.17165643
201	0xbe91b226	-0.2845623
202	0xbe9a8dba	-0.30186254
203	0xbeb0a98e	-0.3450436
204	0x3e19ae8a	0.15007988
205	0xbe65b74f	-0.22433208
206	0xbe66a607	-0.22524272
207	0xbe657124	-0.22406441
208	0x3e08729b	0.13324969
209	0xbe216bab	-0.15763728
210	0xbeada342	-0.33913618
211	0xbea4248e	-0.3205914
212	0x3dd3770b	0.1032544
213	0xbda54fb0	-0.0807184
214	0xbcb23b53	-0.021756804
215	0xbe8e1ce5	-0.2775642
216	0xbd90b4e4	-0.07065752
217	0x3df881d8	0.12134141
218	0xbe0a89a9	-0.13529076
219	0xbe0ba367	-0.13636552
220	0x3d4d7e5c	0.050169334
221	0xbe1bc516	-0.15211901
222	0xbe31f2fd	-0.17377849
223	0xbcbac33f	-0.022798179
224	0xbb8e1bcb	-0.0043368093
225	0xbdc4d9ba	-0.096118405
226	0xbf0964a2	-0.5366918
227	0x3e7de8e7	0.24795876
228	0x3e953357	0.29140732
229	0xbde7cffd	-0.113189675
230	0xbd39256e	-0.04520171
231	0xbe371ec6	-0.17882833
232	0x3d867414	0.06565109
233	0xbb97f229	-0.004637022
234	0xbcf3c6ec	-0.02975794
235	0x3e8e301d	0.27771083
236	0x3ebb3fd2	0.3657213
237	0xbd9bdaff	-0.076101296
238	0xbea343a4	-0.31887543
239	0xbddeeca5	-0.1088498
240	0x3ea40d2b	0.32041296
241	0x3cc43bdf	0.02395433
242	0xbe5a277b	-0.21304123
243	0xbe8c04d7	-0.27347443
244	0xbe92daf1	-0.28682664
245	0x3e82b98f	0.25532195
246	0xbd907c37	-0.07054942
247	0xbd49fc7a	-0.049313046
248	0x3e1c50d6	0.15265211
249	0x3eeaefc8	0.45886064
250	0xbe8cc081	-0.2749062
251	0xbe36123f	-0.17780398
252	0x3dd3e487	0.103463225
253	0xbedb7daa	-0.42869312
254	0xbf55dd33	-0.8354065
255	0xbd9e1d08	-0.07720381

bias f4 [128]
0	0x3eb8b409	0.36074856
1	0x3eae9539	0.34098223
2	0x3f8f3ee9	1.1191074
3	0xbe8438f8	-0.25824714
4	0x3e85d888	0.26141763
5	0x3d0319c4	0.032006994
6	0xbe7a4fa2	-0.2444444
7	0x3fc1e0f3	1.5146774
8	0xc008008b	-2.1250331
9	0x3e66558f	0.22493576
10	0xbe9b3d45	-0.30320182
11	0x3ec4bba8	0.3842442
12	0x3f98ea69	1.1946536
13	0xbf9736d8	-1.1813612
14	0xbffcd04b	-1.9751066
15	0x3d4e7075	0.050400216
16	0x3ee32c87	0.4436991
17	0xbed50508	-0.416054
18	0x3fd21739	1.6413337
19	0x3f916164	1.1357846
20	0x3db814e1	0.08988357
21	0xbdf51e60	-0.11968684
22	0xbe6c84b8	-0.23097503
23	0x3fba21ee	1.4541605
24	0x3f4ef743	0.8084604
25	0x3f07a794	0.5299008
26	0x3f8b16ec	1.086637
27	0xbe987289	-0.29774883
28	0x3e92ab28	0.28646207
29	0x4022cd6d	2.5437882
30	0xbfd008d0	-1.6252689
31	0xc019a9c3	-2.4009864
32	0x402f0fda	2.7353425
33	0x3f22b5d9	0.6355873
34	0x3e18e1c1	0.14929868
35	0x3de444a9	0.111459084
36	0xbe84f44e	-0.2596764
37	0xbe3543bb	-0.17701618
38	0xc0548331	-3.3205073
39	0x3f8d7f7d	1.1054531
40	0xbeb0df21	-0.34545234
41	0xbdfcd61c	-0.123455256
42	0x4052a612	3.2913861
43	0x3e683b68	0.22678912
44	0x3e81fb8d	0.2538723
45	0xbf0f337a	-0.5593792
46	0xbeaf0f68	-0.34191442
47	0x3ea585e8	0.32328725
48	0x3f77934c	0.9670913
49	0xbecb4e81	-0.3970833
50	0xbe577465	-0.21040495
51	0xbe8c2d84	-0.27378476
52	0x3f3e6b0e	0.743821
53	0x3f061aa1	0.5238438
54	0x3f4ce8cc	0.8004272
55	0x3f0b90f4	0.54518056
56	0x3f92bcc0	1.1463852
57	0x3f045d0a	0.51704466
58	0xbfeaad95	-1.8334223
59	0x3ec0546e	0.37564415
60	0x3e7b7047	0.24554549
61	0x3fc705bb	1.5548624
62	0x3f871936	1.0554569
63	0x3f467828	0.77527094
64	0xbff4a412	-1.911257
65	0x3e63e0f2	0.22253779
66	0x3e289ade	0.16465327
67	0xbf6c7960	-0.92372704
68	0x3e92bf38	0.28661513
69	0x3efe9807	0.49725363
70	0x40336c9f	2.8035047
71	0xbfbe6b41	-1.4876481
72	0xbf45808b	-0.77149266
73	0xbfb636a3	-1.4235424
74	0xbedab308	-0.42714715
75	0xbdb93706	-0.09043698
76	0x3e69e187	0.22839938
77	0xbff6fe3c	-1.9296336
78	0x3ea61c73	0.3244358
79	0xbe446238	-0.19178092
80	0xbe64e370	-0.22352386
81	0x3d37b1aa	0.044847168
82	0x3e557381	0.20844842
83	0xbebafa6f	-0.3651919
84	0xbf8fff93	-1.124987
85	0x3ee01e3c	0.43773067
86	0x3f06d5ec	0.5267017
87	0xbe9475d0	-0.28996134
88	0x3f530f84	0.8244555
89	0xbdc2779c	-0.0949547
90	0x3f077a8a	0.52921355
91	0xbea558c7	-0.32294294
92	0xbdefbcf4	-0.11705962
93	0xbed22bbb	-0.4104899
94	0xbff67f8a	-1.9257672
95	0x3ecaa240	0.39576912
96	0x3e24a77b	0.16079514
97	0x3e3d9170	0.18512511
98	0x3e1f1818	0.15536535
99	0x3f13ab8b	0.5768363
100	0xbe85d8b1	-0.26141885
101	0xbea0c0a2	-0.31396967
102	0xbe881c12	-0.26583916
103	0x3e9050b8	0.28186584
104	0xbe4c9d5e	-0.19981906
105	0x3e847457	0.2587001
106	0xbeae121b	-0.33998188
107	0xbc4643a2	-0.012101086
108	0x3e7ae4ec	0.2450139
109	0x3f9c3ec5	1.2206656
110	0xbecb7bb6	-0.3974282
111	0xbf6e7708	-0.9315038
112	0x400b6f21	2.1786578
113	0xbf9a3367	-1.2046937
114	0x3dca5d4d	0.09881077
115	0xbf0396b0	-0.51401806
116	0xbe95b76e	-0.29241508
117	0xbf04bc03	-0.51849383
118	0xbecd45a9	-0.4009221
119	0xbe564d8c	-0.2092802
120	0xbf107739	-0.5643192
121	0x3e57219d	0.21008916
122	0x3f464cb1	0.7746077
123	0x3fb9703c	1.4487376
124	0xbf2a48a2	-0.6651708
125	0xbe84f639	-0.25969103
126	0x400fe7aa	2.2485147
127	0xbf4c911d	-0.79908925

weight f4 [32, 128]
0	0x3c3af876	0.011411777
1	0xbe427c13	-0.18992643
2	0x3e00c652	0.12575653
3	0x3e481906	0.19540796
4	0xbda7e219	-0.081974216
5	0x3e04e780	0.12978935
6	0x3e3f3155	0.18671162
7	0x3d9ed848	0.07756096
8	0x3d39acd8	0.045330852
9	0x3c9367b5	0.017993787
10	0x3de10fcd	0.10989342
11	0xbe472942	-0.19449332
12	0xbbbe17e4	-0.005801188
13	0xbe1b78e3	-0.15182833
14	0x3e3679ea	0.17819944
15	0xbe1549f8	-0.14578998
16	0x3e6a09a8	0.22855246
17	0xbe9513fd	-0.29116812
18	0xbd7016f4	-0.05861564
19	0x3e4ae1e9	0.1981274
20	0x3dc90286	0.098149344
21	0x3e3d4bb2	0.18485907
22	0x3e5e6018	0.21716344
23	0xbd613e7c	-0.05499123
24	0x3ddb2264	0.10699919
25	0x3daa9a4c	0.08330211
26	0x3e9439dc	0.28950393
27	0x3dd79882	0.105271354
28	0xbe2e1e51	-0.17003752
29	0xbe1ec90b	-0.1550638
30	0x3d8f8589	0.07007892
31	0x3e2fd323	0.17170386
32	0x3e63df8f	0.2225325
33	0xbd026087	-0.031830337
34	0x3e8a73ef	0.27041575
35	0xbde20480	-0.110360146
36	0xbe134691	-0.14382388
37	0xbe4558af	-0.19272111
38	0xbd888c70	-0.06667411
39	0xbe394567	-0.18092881
40	0x3dce1d80	0.100642204
41	0xbdee64fc	-0.11640355
42	0xbd2b3db2	-0.041806884
43	0xbddddce1	-0.10833145
44	0xbe314702	-0.17312244
45	0xbe53e675	-0.20693381
46	0xbe4965d6	-0.19667754
47	0x3e086a70	0.13321853
48	0xbd1e8295	-0.03869875
49	0x3e3a6f18	0.18206441
50	0x3e7d4813	0.24734525
51	0x3e18c699	0.14919509
52	0x3e23abee	0.15983555
53	0x3de51162	0.11184956
54	0xbe065c6c	-0.13121194
55	0xbdf90c35	-0.121605314
56	0x3cb3afcf	0.021934418
57	0x3da8b5d4	0.08237806
58	0x3d27a5b0	0.040929496
59	0x3de54ea0	0.11196637
60	0x3e2a9b14	0.1666072
61	0xbe476c2d	-0.1947486
62	0x3cf03fd7	0.029327316
63	0x3e5ab4b6	0.21357998
64	0x3e6573aa	0.22407404
65	0xbe25f99d	-0.16208501
66	0xbe1a9152	-0.15094498
67	0xbdcc5ab1	-0.099782355
68	0xbea0dd80	-0.3141899
69	0x3e52d8bb	0.20590489
70	0xbe510b92	-0.2041457
71	0xbde641d5	-0.11243025
72	0x3d98331e	0.07431625
73	0xbe2dfde3	-0.16991381
74	0x3e44d943	0.19223504
75	0xbd835f6c	-0.06414685
76	0xbe291441	-0.16511633
77	0x3e3f2ef1	0.1867025
78	0xbe20c3ec	-0.15699738
79	0x3e5420df	0.20715664
80	0x3e891351	0.2677255
81	0xbe69d600	-0.22835541
82	0xbc108de5	-0.008822893
83	0xbe4b5abc	-0.19858831
84	0x3cc68f93	0.024238383
85	0x3dc1a8fb	0.094560586
86	0xbe0cf09a	-0.13763657
87	0xbc97a2dd	-0.018510276
88	0x3d1d70b7	0.03843757
89	0x3e274c49	0.16337694
90	0xbd951f5a	-0.072813705
91	0x3e2badc9	0.16765513
92	0xbe8e589a	-0.27801973
93	0xbd4a2b4d	-0.0493577
94	0xbdf79c5f	-0.12090372
95	0xbe6448c2	-0.2229338
96	0xbe15b2c6	-0.14618978
97	0x3e97e7cb	0.29669032
98	0xbe938c51	-0.2881799
99	0xbd886cbf	-0.06661367
100	0xbe3af476	-0.18257317
101	0x3c875d75	0.016524056
102	0x3e752bbe	0.23942468
103	0xbd1120a3	-0.035431515
104	0x3e82e1a0	0.25562763
105	0xbe34217a	-0.17590895
106	0x3e8296ab	0.25505576
107	0x3e0f13dd	0.13972421
108	0x3d663744	0.05620505
109	0x3e5422b8	0.20716369
110	0x3e13120d	0.14362355
111	0xbc056b17	-0.008143208
112	0xbc7ee9b0	-0.015558645
113	0xbe3ba498	-0.18324506
114	0xbe8ff1bb	-0.28114113
115	0x3db1079b	0.08644029
116	0x3e0078eb	0.12546127
117	0xbdf67531	-0.12034071
118	0x3ce0f9ac	0.027462803
119	0x3e0e28af	0.13882707
120	0xbdacce61	-0.08437801
121	0xbe569fc3	-0.20959382
122	0x3dc53bf6	0.09630577
123	0x3dbd083b	0.092300855
124	0x3e314c02	0.17314151
125	0x3d82c15f	0.06384539
126	0x3e281e63	0.16417842
127	0xbd010c5a	-0.03150592
128	0x3da75b71	0.08171738
129	0x3e820c61	0.2540007
130	0xbdca59a8	-0.09880382
131	0xbd9bd43c	-0.0760884
132	0x3de6ff1b	0.11279126
133	0xbd258e31	-0.040418807
134	0xbe4624ea	-0.19350019
135	0xbe770a4a	-0.24125019
136	0xbc8e68e2	-0.017383996
137	0x3caa8e52	0.020819817
138	0x3c9f8df5	0.01947687
139	0x3e9559fd	0.29170218
140	0xbc603e56	-0.013686737
141	0x3dfa5194	0.12222591
142	0xbe274910	-0.16336465
143	0x3d6b41ec	0.057435915
144	0xbe198766	-0.14993057
145	0x3e8c428f	0.2739453
146	0x3dc9a46d	0.09845815
147	0xbe17be2c	-0.14818639
148	0xbe3a0474	-0.18165761
149	0xbe475f48	-0.1946994
150	0xbe28dde5	-0.16490896
151	0xbe696f18	-0.22796285
152	0x3d09332d	0.03349607
153	0xbe19fa02	-0.15036777
154	0x3de98c23	0.11403682
155	0xbe6ba006	-0.23010263
156	0x3e8a5f32	0.27025753
157	0xbd926351	-0.07147849
158	0xbe0253bd	-0.12727256
159	0x3d15afbc	0.036544546
160	0xbe29194b	-0.16513555
161	0x3dbd1aaf	0.09233605
162	0xbc373e34	-0.011184264
163	0x3e79d20e	0.24396536
164	0x3eb2189a	0.34784395
165	0x3dd191f3	0.10232916
166	0x3bd1dd27	0.0064045372
167	0x3d9dfc4d	0.07714138
168	0xbe467197	-0.19379269
169	0x3e1270a1	0.14300777
170	0xbdccfeb0	-0.10009515
171	0x3e4e5242	0.20148566
172	0x3e6664ea	0.22499433
173	0x3bc7ec45	0.0061011636
174	0x3e441a53	0.19150667
175	0xbe67a069	-0.22619785
176	0x3d71efab	0.059066456
177	0xbd6907b3	-0.05689211
178	0xbe84a324	-0.25905716
179	0xbe603db7	-0.21898542
180	0xbce69992	-0.0281494
181	0xbdc7897f	-0.09743022
182	0x3e42cf80	0.19024467
183	0x3e5f9054	0.218324
184	0xbe22be1a	-0.1589283
185	0xbe0a5086	-0.1350728
186	0x3e16eb20	0.1473813
187	0x3e82661b	0.25468525
188	0xbe9429e0	-0.28938198
189	0x3d547c72	0.051876493
190	0xbde6c188	-0.11267382
191	0xbdab3af7	-0.08360856
192	0xbdc4adf3	-0.09603491
193	0x3e1a59e3	0.15073352
194	0x3d50876f	0.05091041
195	0xbd660ba0	-0.05616343
196	0x3dc4193f	0.09575128
197	0xbe2884ee	-0.16456959
198	0x3e0629af	0.13101839
199	0x3e399297	0.18122326
200	0xbd25fd5b	-0.04052482
201	0xbccabc07	-0.024747862
202	0xbe570d0a	-0.21001068
203	0x3b1d2c99	0.002398288
204	0x3e4c3e54	0.19945651
205	0xbd8593d4	-0.065223366
206	0x3dec94ae	0.11551796
207	0xbe50e076	-0.20398125
208	0xbe45ffff	-0.19335936
209	0x3e7078e8	0.23483622
210	0xbc897af4	-0.016782261
211	0x3dd73e98	0.10509986
212	0x3e384e49	0.17998613
213	0xbe883025	-0.2659923
214	0x3e3ea438	0.18617332
215	0x3e5f18a1	0.21786739
216	0xbe40d34e	-0.18830606
217	0xbe16d8d3	-0.1473115
218	0x3e0eac22	0.13932851
219	0xbeba7418	-0.36416698
220	0x3d89495e	0.06703447
221	0xbe6f57d3	-0.23373346
222	0x3e334e5c	0.1751036
223	0x3e6fb0ac	0.23407239
224	0x3e5a57b5	0.2132252
225	0xbe296c0e	-0.16545126
226	0x3e6212e5	0.2207752
227	0xbd8b4cf7	-0.06801789
228	0x3e46c8ab	0.19412486
229	0x3e3e1a3d	0.18564697
230	0xbe0d6adb	-0.13810293
231	0x3e4f2707	0.20229732
232	0xbe527890	-0.20553803
233	0x3e239d4f	0.15977977
234	0xbe57ddb8	-0.21080673
235	0xbe106aeb	-0.14103286
236	0xbe2c63f8	-0.1683501
237	0xbe3d9f65	-0.18517835
238	0xbe259249	-0.16169085
239	0x3c61029a	0.01373353
240	0xbdd433e1	-0.103614576
241	0x3e834050	0.25635004
242	0x3dcb7538	0.09934467
243	0x3dde05f1	0.10840977
244	0xbe09294a	-0.13394657
245	0x3e08db42	0.1336489
246	0x3dcf589b	0.10124322
247	0xbe3d5422	-0.18489125
248	0x3de29aab	0.11064657
249	0x3d02b2c0	0.03190875
250	0xbca2a50b	-0.01985409
251	0xbd461066	-0.048355483
252	0x3e1d5f20	0.15368319
253	0xbdba1fd3	-0.09088101
254	0xbada6f3d	-0.0016665232
255	0x3d6accfd	0.0573244

bias f4 [32]
0	0xbe4c74b4	-0.19966394
1	0x3e5a9944	0.21347529
2	0xbe3a62ea	-0.18201795
3	0xbd6eab2f	-0.058268722
4	0x3ddf1190	0.10892022
5	0x3e629522	0.22127202
6	0x3d04ebe6	0.032451533
7	0x3dcfe314	0.101507336
8	0xbd53393f	-0.051568266
9	0x3d59d3a4	0.05318035
10	0x3df707d4	0.1206204
11	0xbdb788da	-0.08961649
12	0xbe1ab2ba	-0.15107241
13	0x3b593c0b	0.003314736
14	0xbb0aa44d	-0.002115506
15	0xbbf07fb4	-0.007339442
16	0x3e065069	0.13116612
17	0xbe884069	-0.2661164
18	0xbe36c6f7	-0.17849337
19	0x3dc0d069	0.09414751
20	0xbdc850aa	-0.097810104
21	0x3de70fdc	0.11282322
22	0xbd16780e	-0.036735587
23	0x3e482ef2	0.19549158
24	0x3e19c691	0.15017153
25	0xbcd3ec39	-0.025869476
26	0x3e1ace39	0.1511773
27	0x3e568ace	0.20951387
28	0x3d937e37	0.07201808
29	0x3e3e2418	0.18568456
30	0x3bbaeebd	0.0057047294
31	0x3d4aefd7	0.049545135

weight f4 [3, 32]
0	0x3dba2cfa	0.0909061
1	0xbde85666	-0.11344604
2	0x3ea54a05	0.32283035
3	0xbc84b45d	-0.016199285
4	0xbece0893	-0.40240917
5	0x3bd2cdff	0.006433248
6	0xbdec70d1	-0.115449555
7	0xbdd9f513	-0.10642447
8	0xbf0c1ddc	-0.5473306
9	0xbd654db9	-0.055982325
10	0xbe633358	-0.22187555
11	0x3c062b22	0.008188995
12	0xbeee65d2	-0.46562058
13	0x3ddf55d3	0.109050415
14	0xbeffc947	-0.4995825
15	0xbc2dcf4f	-0.010608508
16	0x3f379e35	0.7172578
17	0xbdd7ea62	-0.10542752
18	0xbe14e280	-0.14539528
19	0xbd978a7a	-0.07399459
20	0xbea1c0ed	-0.31592503
21	0x3ea32659	0.31865194
22	0x3e59ce5d	0.21270128
23	0xbda94e95	-0.082669415
24	0xbe90d466	-0.28287047
25	0xbe9d8c3e	-0.3077106
26	0xbf459c5d	-0.77191716
27	0x3d8158ac	0.06315741
28	0xbdc5b5e6	-0.09653835
29	0xbc2d35ff	-0.010571956
30	0x3f4e5d10	0.8061075
31	0xbec81427	-0.39077875
32	0x3d8c3b36	0.06847231
33	0xbc92acc7	-0.017904652
34	0x3d1ca50e	0.038243346
35	0xbd420395	-0.047366697
36	0xbcd4e430	-0.025987715
37	0xbe07717a	-0.13226882
38	0xbdd17287	-0.102269225
39	0x3e3a207b	0.18176453
40	0x3c2048a6	0.009782946
41	0x3d9b0016	0.07568376
42	0xbe5117d0	-0.2041924
43	0xbcf63dad	-0.030058706
44	0x3f60042a	0.87506354
45	0x3f3896c1	0.7210503
46	0xbc517cc3	-0.012786093
47	0x3d641ce2	0.055691607
48	0xbe1b464b	-0.15163533
49	0x3c398127	0.011322296
50	0xbe41315e	-0.18866488
51	0xbe671ba5	-0.2256914
52	0xbdf56a60	-0.1198318
53	0x3f67a2ef	0.9048299
54	0xbf1fcc5f	-0.6242122
55	0xbd193a3b	-0.03740905
56	0x3d3b8924	0.045785084
57	0x3f49dd5b	0.78853387
58	0xbe1b1d7b	-0.15147965
59	0x3c4106f1	0.01178144
60	0xbd82f0a7	-0.06393557
61	0x3ca3ae47	0.019980563
62	0xbbb75311	-0.005594619
63	0xbec7dbb6	-0.39034814
64	0xbd7fd64f	-0.06246024
65	0x3e1fd752	0.15609482
66	0xbdbc8dc9	-0.09206731
67	0xbdc8041e	-0.0976641
68	0x3df61537	0.12015765
69	0x3e408820	0.18801928
70	0x3d1d8d56	0.038464867
71	0xbdd2eddf	-0.102992766
72	0x3e12bb23	0.143292
73	0x3dc5cf39	0.09658665
74	0x3f51c29b	0.8193757
75	0xbdc1e7e6	-0.09468059
76	0xbf1678cb	-0.58778065
77	0x3ee36902	0.44416052
78	0x3dbf780d	0.0934907
79	0xbe40646c	-0.18788308
80	0x3f419942	0.7562448
81	0xbe05c3cc	-0.13062972
82	0xbef4483a	-0.47711354
83	0x3e942fbe	0.28942674
84	0xbf200c46	-0.6251873
85	0x3f04ced5	0.518781
86	0x3edbc834	0.4292618
87	0x3dfe2919	0.124101825
88	0xbd61b94b	-0.05510835
89	0xbd06787b	-0.032829743
90	0x3e090fc9	0.13384928
91	0x3dd2e6c8	0.10297924
92	0x3c9d5e5e	0.019210037
93	0x3dd90e68	0.10598451
94	0xbeb6906a	-0.35657054
95	0x3eb826a5	0.35966983

bias f4 [3]
0	0xbda3004a	-0.079590395
1	0x3e47d758	0.19515741
2	0x3e53d6a7	0.20687352

weight f4 [32, 3]
0	0x3df2c8e3	0.11854722
1	0x3e94bb91	0.29049352
2	0xbf37484d	-0.715947
3	0xbe5bb7c1	-0.21456815
4	0xbf795d04	-0.97407556
5	0xbf03093c	-0.51185966
6	0xbf6600f2	-0.8984519
7	0x3f301a6d	0.6879032
8	0x3f38e8be	0.72230136
9	0x3e0e8b0e	0.13920233
10	0xbea3a4b1	-0.31961587
11	0xbeda8615	-0.4268042
12	0x3e0a8b00	0.13529587
13	0xbf9067ea	-1.1281712
14	0xbd94b387	-0.072608046
15	0xbf1a9e22	-0.6039754
16	0xbf084e59	-0.5324455
17	0xbe2ac8cb	-0.16678159
18	0xbf375f85	-0.71630126
19	0x3ec3af61	0.3821974
20	0xbfa7289c	-1.3059268
21	0x3d7e2cf0	0.062054574
22	0x3f2104e9	0.6289812
23	0x3e4278bb	0.18991368
24	0xbeef8c6e	-0.46786827
25	0x3dc48f1b	0.09597608
26	0x3e60df8a	0.21960273
27	0x3dc129c1	0.09431792
28	0x3e015ae7	0.12632333
29	0xbd0594e9	-0.032612715
30	0xbed67d33	-0.41892394
31	0x3c8aef10	0.016959697
32	0xbdbf6b63	-0.09346654
33	0xbeca02d6	-0.3945529
34	0x3ec68291	0.3877149
35	0xbdfbf3eb	-0.12302383
36	0xbc6f6b3f	-0.014612972
37	0xbdd86ed6	-0.10568015
38	0xbf4ca361	-0.79936796
39	0x3f6d4e61	0.9269772
40	0x3e19fc73	0.15037708
41	0xbe67db58	-0.22642267
42	0xbeb69771	-0.35662416
43	0xbfa8b496	-1.318011
44	0x3f80e26c	1.0069098
45	0xbe65138d	-0.2237074
46	0x3eafd704	0.3434373
47	0xbeb66435	-0.35623327
48	0xbe865b1b	-0.26241383
49	0xbe2e484d	-0.17019768
50	0xbf93b71b	-1.1540254
51	0x3f32163f	0.69565195
52	0x3ef7871a	0.48345262
53	0xbf3226f6	-0.695907
54	0x3d0777fb	0.033073407
55	0x3d1b1d64	0.037869826
56	0x3e1af8e9	0.15134014
57	0x3ed24001	0.41064456
58	0xbe163231	-0.14667584
59	0xbf84153a	-1.0318978
60	0xbe9a963d	-0.30192748
61	0xbe70b99f	-0.23508309
62	0xbf1895e6	-0.59603727
63	0xbf8784da	-1.0587418
64	0x3ecba95f	0.39777657
65	0xbef5d193	-0.48011455
66	0xbee72322	-0.45143992
67	0xbf17c8b7	-0.5929064
68	0xbe63cc1b	-0.22245829
69	0x3f3b1301	0.7307587
70	0xbf40116f	-0.750266
71	0xbf4398aa	-0.7640482
72	0xbcfd63ef	-0.030931441
73	0x3f28ba1b	0.65908974
74	0xbf50ff10	-0.81639194
75	0xbf17373d	-0.5906866
76	0xbc93f538	-0.018061265
77	0xbec795b0	-0.3898139
78	0x3f38e5bd	0.7222555
79	0x3f4024fb	0.7505643
80	0xbfbb73bc	-1.4644694
81	0x3e81338d	0.25234643
82	0x3f2cd53c	0.6751287
83	0xbea25dce	-0.31712192
84	0xbf20cb03	-0.6280977
85	0xbdb64a46	-0.08900885
86	0x3f2666ed	0.650008
87	0xbf1d3799	-0.6141296
88	0x3f8cb63c	1.0993114
89	0x3db97b81	0.090567596
90	0xbe495e99	-0.19664992
91	0x3f73ce43	0.95236605
92	0xbf1ab745	-0.604359
93	0xbe90c98b	-0.28278765
94	0xbfba66cc	-1.4562621
95	0xbf927ef8	-1.1444998

bias f4 [32]
0	0x3f072e2f	0.52804846
1	0x3ecbb1d5	0.39784113
2	0xbebb91f8	-0.36634803
3	0x3f6b9c14	0.9203503
4	0xbf5f733b	-0.872852
5	0xbf43bbbc	-0.76458335
6	0x3ee8401d	0.45361415
7	0xbeb3cec9	-0.35118702
8	0xbf9275ff	-1.144226
9	0x3e79679a	0.24355927
10	0xbf1687f2	-0.58801186
11	0xbf9e4c90	-1.2367115
12	0xbf5e72f0	-0.8689413
13	0xbf1ed6f9	-0.6204677
14	0x3f6c54be	0.92316806
15	0x3fd51bdc	1.6649127
16	0x3f197105	0.5993808
17	0xbf44e789	-0.76915795
18	0x3ee4b27a	0.44667417
19	0xbf95c64b	-1.1701139
20	0xbf5e4e43	-0.8683817
21	0xbf62b00e	-0.8854989
22	0x3f89ae2e	1.075628
23	0xbf8c9e12	-1.0985739
24	0xbf88e4ee	-1.0694864
25	0x3fc7eda1	1.5619394
26	0xbe9887da	-0.29791147
27	0x3f8f3077	1.1186665
28	0xbf295448	-0.6614423
29	0xbe9a81bf	-0.30177113
30	0x3f9363b0	1.1514797
31	0xbf77ff66	-0.9687408

weight f4 [128, 32]
0	0xbee8b8f8	-0.4545362
1	0xbf1b71cc	-0.60720515
2	0x3dbabb2c	0.091177315
3	0xbf648f03	-0.8928072
4	0xbec44d86	-0.38340396
5	0x3e049b69	0.1294991
6	0xbe5ba9b5	-0.21451457
7	0x3f97fcb3	1.1873993
8	0x3ee060a0	0.4382372
9	0xbdc43539	-0.09580464
10	0xbf0bc55f	-0.5459804
11	0x3df610b6	0.12014906
12	0x3ef8d354	0.4859873
13	0x3e6061c0	0.21912289
14	0x3f1573b4	0.58379674
15	0x3dc3e135	0.09564439
16	0xbe170942	-0.14749625
17	0x3f1b50cb	0.60670155
18	0xbe857a9d	-0.2607011
19	0x3f35d38a	0.7102591
20	0x3e5c0b84	0.21488768
21	0x3e477e51	0.1948178
22	0xbf8e739c	-1.1129031
23	0x3dc245c6	0.094859645
24	0x3e77fdf6	0.24217972
25	0xbf00c285	-0.50296813
26	0xbe0d9aa9	-0.1382853
27	0xbcacbd93	-0.02108649
28	0xbe9e35b3	-0.30900344
29	0x3f1a3070	0.6023016
30	0xbf68148c	-0.9065635
31	0x3df95d7f	0.12176036
32	0x3f88f110	1.0698566
33	0xbe123639	-0.14278497
34	0x3e6b5772	0.22982576
35	0x3fe707d6	1.8049266
36	0x3e7e702c	0.24847478
37	0xbf816e49	-1.0111781
38	0xbf4ecdab	-0.80782574
39	0xbd89dbe1	-0.06731392
40	0xbfb9023a	-1.4453804
41	0x3ef32f41	0.4749699
42	0xbf264327	-0.64946216
43	0xbf673d1c	-0.9032762
44	0x3eba6f9c	0.36413276
45	0xbf5d06e7	-0.8633866
46	0x3dd2d8a3	0.102952264
47	0x3ffe4d42	1.9867327
48	0x3f1a7ed9	0.60349804
49	0xbecef6b6	-0.404226
50	0xbd5685f3	-0.052373838
51	0x3dcac4f0	0.09900844
52	0x3da88d6b	0.08230098
53	0xbf6acfb5	-0.91723186
54	0x3f4b919f	0.79519075
55	0xbec54000	-0.3852539
56	0xbb162641	-0.0022910985
57	0x3fe15ece	1.7607057
58	0x3e020fe7	0.12701379
59	0x3fbe70ad	1.4878136
60	0xbe9f7e98	-0.3115127
61	0x3e410f02	0.18853381
62	0x3f228a95	0.6349271
63	0xbf12684f	-0.5719041
64	0xbeb5639f	-0.35427567
65	0xbdbd8fdc	-0.092559546
66	0xbf20ae81	-0.6276627
67	0xbf0c2891	-0.547494
68	0x3e0f7601	0.14009859
69	0x3bd54777	0.0065087634
70	0x3c94fa63	0.0181858
71	0xbe643bab	-0.22288387
72	0x3e4bba1b	0.19895212
73	0xbe286672	-0.1644533
74	0xbe3d7efb	-0.1850547
75	0xbecb68a4	-0.39728272
76	0x3de4e53d	0.11176536
77	0x3ceec3fd	0.029146189
78	0x3df1c84f	0.11805784
79	0xbfaa0431	-1.3282529
80	0xbd381155	-0.044938404
81	0x3dc4152a	0.09574349
82	0xbe489462	-0.19587854
83	0x3cfb010c	0.030640148
84	0xbcaf64ab	-0.021410307
85	0xbdf4dfb5	-0.11956731
86	0x3dac8914	0.08424583
87	0x3d3a1e33	0.045438956
88	0x3e417d33	0.18895416
89	0xbe5120dc	-0.20422691
90	0x3ea5e31a	0.32399827
91	0xbf9fce04	-1.2484746
92	0xbe71c0e4	-0.23608738
93	0xbf328e45	-0.69748336
94	0xbf85d6cb	-1.0456175
95	0x3eee0ea0	0.46495533
96	0x3eb96665	0.36210933
97	0xbe5aadb3	-0.21355323
98	0xbda30750	-0.07960379
99	0x3f01d7cb	0.507199
100	0xbe60c6a6	-0.21950778
101	0xbd8bee13	-0.068325184
102	0x3d0146da	0.03156171
103	0x3e8c2213	0.27369747
104	0x3d858cf5	0.06521026
105	0xbdb14437	-0.08655589
106	0xb952f930	-0.0002011999
107	0x3c70a160	0.014686912
108	0xbeae2301	-0.3401108
109	0xbe7f32c7	-0.24921714
110	0x3e2efe9d	0.17089315
111	0xbcd1187a	-0.025524367
112	0xbddb2b33	-0.10701599
113	0x3dcf00d3	0.10107579
114	0x3d3c935f	0.04603898
115	0x3e623abc	0.22092718
116	0x3da16e6d	0.0788239
117	0x3cd74384	0.026277311
118	0x3ddd9720	0.108198404
119	0xbab27976	-0.001361652
120	0xbdbf0fee	-0.0932921
121	0xbe016ca3	-0.12639098
122	0x3de1ad8b	0.11019429
123	0xbde98d63	-0.114039205
124	0x3e4e9434	0.20173723
125	0xbcae60d4	-0.021286406
126	0xbe39d5dc	-0.18147987
127	0x3dddd71b	0.10832044
128	0xba493318	-0.0007675155
129	0xbcc6bdf0	-0.024260491
130	0x3d20104a	0.039078034
131	0x3e1fbbbb	0.15598957
132	0x3e803265	0.25038448
133	0x3eacc188	0.33741403
134	0x3da61d7f	0.08111095
135	0xbe3b96a4	-0.18319184
136	0x3e89956f	0.2687182
137	0xbdc3975b	-0.09550353
138	0xbd341118	-0.043961614
139	0x3ee15154	0.4400736
140	0x3e17455c	0.14772552
141	0x3dc68891	0.09694017
142	0xbe11d614	-0.1424182
143	0x3d8ac4c0	0.06775808
144	0xbec59951	-0.38593534
145	0x3d3da142	0.046296366
146	0xbd179410	-0.037006438
147	0xbe11566c	-0.14193124
148	0xbe69b54c	-0.22823066
149	0xbeb2c26f	-0.34913966
150	0x3dea1789	0.1143027
151	0xbecd883d	-0.40143004
152	0xbea54cfe	-0.32285303
153	0x3e0969d2	0.13419273
154	0x3eca1c61	0.39474776
155	0xbd6fdb62	-0.05855883
156	0xbdad0c27	-0.084495835
157	0xbe10ee37	-0.14153372
158	0x3e681a17	0.22666202
159	0xbd6e10e3	-0.058121573
160	0xbe13f27c	-0.14447969
161	0xbee7ffa9	-0.4531224
162	0x3d20b752	0.039237328
163	0x3c82974d	0.015941286
164	0x3ec3d118	0.38245463
165	0x3ed6a391	0.41921666
166	0x3d766a96	0.060160242
167	0xbea8f37b	-0.3299826
168	0x3d3b5c01	0.04574204
169	0x3e185cdc	0.14879173
170	0xbeba48ff	-0.36383817
171	0x3dbc230d	0.09186373
172	0x3af1c33e	0.0018445028
173	0x3d15abbc	0.03654073
174	0x3e7b6c06	0.24552926
175	0xbe66c143	-0.22534661
176	0x3e4ece5f	0.20195912
177	0x3dc3f3e9	0.095680065
178	0xbd95461d	-0.07288764
179	0xbe11c235	-0.1423424
180	0x3d7d75c4	0.06187989
181	0xbe4c8504	-0.19972616
182	0xbe0e9990	-0.13925767
183	0xbda0dd01	-0.07854653
184	0x3d58bf6c	0.05291693
185	0x3e57dfce	0.21081468
186	0x3decbb36	0.11559145
187	0x3e46ad8f	0.19402145
188	0xbd4fd7a4	-0.05074276
189	0x3e2f723d	0.17133422
190	0x3e011db2	0.12608984
191	0xbe49b6e2	-0.1969867
192	0xbe4db06f	-0.20086835
193	0xbdd2436b	-0.10266765
194	0xbd159dfb	-0.036527615
195	0xbdc56663	-0.09638669
196	0x3e403e85	0.1877385
197	0x3d00b3a4	0.03142132
198	0xbd95fc03	-0.07323458
199	0xbe7bf91a	-0.24606743
200	0x3e4bf8cd	0.19919129
201	0x3e396313	0.181042
202	0xbebafcda	-0.36521035
203	0xbe375636	-0.1790398
204	0x3de77874	0.113022715
205	0x3dbfe071	0.09368981
206	0x3c86a9c1	0.016438367
207	0x3ddb280e	0.10700999
208	0x3de991da	0.11404772
209	0xba368e0c	-0.00069639157
210	0x3db017fa	0.08598323
211	0xbe29bcc3	-0.16575913
212	0x3dccaf4c	0.09994373
213	0x3dd3c694	0.1034061
214	0x3c10c2cb	0.008835505
215	0x3c344788	0.0110033825
216	0x3e323112	0.17401531
217	0x3d75a64a	0.05997304
218	0x3c0ad1f7	0.008472911
219	0x3df32afb	0.11873432
220	0x3c9a227c	0.018815272
221	0x3d5abd3f	0.053403135
222	0x3d408c35	0.04700871
223	0xbd96bb91	-0.07359994
224	0x3ef276b3	0.47356185
225	0x3f10b947	0.5653271
226	0x3e5f196b	0.2178704
227	0xbe2d3eec	-0.16918534
228	0x3e256aa3	0.1615396
229	0x3ec349d2	0.38142258
230	0xbf0ec58a	-0.5577017
231	0xbf1f5ff5	-0.62255794
232	0x3eaaa0bb	0.33325753
233	0xbe13c83f	-0.14431857
234	0xbe5974b2	-0.21235922
235	0x3e7f7eff	0.24950789
236	0xbd84cdc8	-0.06484562
237	0x3ad7bdb0	0.001645973
238	0xbf6f513b	-0.9348332
239	0xbd94f0cf	-0.07272493
240	0xbe6a59a8	-0.22885764
241	0xbbd26992	-0.0064212764
242	0x3d40bbad	0.04705398
243	0xbd3c5c34	-0.04598637
244	0xbf3e151e	-0.7425097
245	0xbec1e38e	-0.37868923
246	0x3f3be334	0.7339356
247	0x3edd1221	0.43177894
248	0x3ab376ee	0.001369206
249	0x3e3e73bf	0.18598841
250	0x3e8c3d1f	0.27390382
251	0xbd9b0f34	-0.07571259
252	0x3f2dd164	0.6789763
253	0xbe541285	-0.2071019
254	0xbdd396bf	-0.10331487
255	0xbec4723f	-0.38368413

bias f4 [128]
0	0xbe407928	-0.18796217
1	0xbd519087	-0.051163223
2	0xbeca8465	-0.39554134
3	0xbe4e8a64	-0.2016998
4	0x3b305c48	0.0026910473
5	0xbd9877f8	-0.07444757
6	0xbe623d18	-0.22093618
7	0x3eb72677	0.35771534
8	0xbea8d3a8	-0.3297398
9	0x3f096cd7	0.536817
10	0x3f86a315	1.0518519
11	0x3edf6cfd	0.4363784
12	0xbeb6df2f	-0.3571715
13	0xbeb0023e	-0.3437671
14	0xbe681ab2	-0.22666433
15	0xbf17b5b2	-0.5926162
16	0xbf291d41	-0.6606026
17	0xbe8da6e9	-0.27666405
18	0x3cefe931	0.029285999
19	0xbeae2ca5	-0.34018436
20	0xbe1c7106	-0.1527749
21	0x3d41c66a	0.047308363
22	0x3e8f9f43	0.28051195
23	0x3e9d1221	0.30677894
24	0xbdc2512f	-0.09488141
25	0xbe5789ca	-0.21048656
26	0xbf20b0aa	-0.6276957
27	0x3df51f44	0.11968854
28	0xbf72ef4e	-0.948964
29	0x3f0968f3	0.53675765
30	0x3e1567b1	0.14590336
31	0x3e17a916	0.14810595
32	0xbf29e4a7	-0.6636452
33	0x3e18543e	0.14875886
34	0x3e7f9b1d	0.24961515
35	0xbde281c8	-0.1105991
36	0xbee48379	-0.44631556
37	0xbef5074c	-0.4785713
38	0x3e3e55be	0.18587396
39	0xbe303d78	-0.17210948
40	0x3dd5e74b	0.10444506
41	0x3f918b92	1.1370718
42	0xbe98f0f4	-0.29871333
43	0xbed46dbc	-0.4148997
44	0xbc4b5b22	-0.0124118645
45	0xbdb52a54	-0.08845964
46	0xbeb3538e	-0.35024685
47	0xbe932ea8	-0.28746533
48	0xbe4b10fd	-0.198307
49	0xbd76cc7b	-0.0602536
50	0xbe011fce	-0.12609789
51	0x3f053723	0.52037257
52	0x3e1b6037	0.15173422
53	0x3de861e1	0.11346794
54	0x3e3d549e	0.1848931
55	0xbebb933d	-0.3663577
56	0xbebde0b5	-0.370855
57	0x3cbeba5b	0.02328222
58	0xbed12469	-0.4084809
59	0x3f05922d	0.5217617
60	0xbf028176	-0.5097879
61	0xbf09445d	-0.5361994
62	0x3dcf4d91	0.101222165
63	0xbef42f82	-0.47692496
64	0xbf3a59f6	-0.7279352
65	0xbec6db8e	-0.38839382
66	0xbda5ede2	-0.08102013
67	0x3ec45497	0.38345787
68	0x3f1c4951	0.6104937
69	0xbe0fddf7	-0.14049517
70	0x3e5ccda2	0.21562818
71	0x3eefb067	0.46814272
72	0x3cef7c4a	0.02923407
73	0xbe4aee76	-0.19817528
74	0x3d79d81c	0.060997114
75	0x3f2285d3	0.6348545
76	0x3e62293c	0.22086042
77	0xbf01c580	-0.50691986
78	0xbed2f64f	-0.41203544
79	0x3d9a727e	0.07541369
80	0x3ee94c9c	0.4556626
81	0x3d59e158	0.05319342
82	0xbe8acc10	-0.27108812
83	0xbdbe8d37	-0.09304278
84	0xbe05ad91	-0.13054492
85	0x3e9ff121	0.31238654
86	0xbe31b8a2	-0.17355588
87	0xbe07c06b	-0.13256995
88	0x3dc0a66d	0.09406743
89	0xbe84d2d3	-0.25942096
90	0xbe48cd8b	-0.19609658
91	0x3e4d61d2	0.20056847
92	0xbd03c23a	-0.03216765
93	0xbec6037c	-0.38674533
94	0xbecaf28c	-0.39638174
95	0x3e1537fb	0.14572136
96	0xbebcc027	-0.3686535
97	0x3f968a55	1.1760966
98	0xbf7f43ad	-0.9971264
99	0xbe83428b	-0.25636706
100	0xbe864d99	-0.26231077
101	0x3f0662fb	0.5249478
102	0xbe0e45e1	-0.13893844
103	0x3ee5b7a1	0.4486666
104	0x3dc426c7	0.09577709
105	0xbefcdb39	-0.49386004
106	0xbd4152f2	-0.047198243
107	0xbec66531	-0.38749078
108	0x3dd626f4	0.104566485
109	0xbeea2fb3	-0.45739517
110	0x3eeaa790	0.45830965
111	0x3e4d5aee	0.20054218
112	0x3e2ace8c	0.16680354
113	0x3d80025e	0.062504515
114	0x3e67f5c2	0.22652343
115	0x3f85bd75	1.0448443
116	0xbf348979	-0.70522267
117	0x3edf429c	0.43605506
118	0xbf0bec40	-0.54657364
119	0xbea31d75	-0.3185841
120	0x3e880b22	0.26570994
121	0x3deb7e41	0.114986904
122	0x3b4082ee	0.0029374915
123	0x3e1476c8	0.14498436
124	0x3da3a3eb	0.07990249
125	0xbf93c049	-1.1543056
126	0xbd859e96	-0.065243885
127	0xbcd6da50	-0.026227146

weight f4 [784, 128]
0	0x3e9157e5	0.2838737
1	0xbeffea81	-0.499836
2	0x3e9ccd2c	0.30625284
3	0x3e42b832	0.19015577
4	0xbd9d2812	-0.076736584
5	0x3e8d3605	0.27580276
6	0x3e6f1473	0.23347645
7	0xbe6927f0	-0.22769141
8	0x3dac2794	0.084059864
9	0xbe3427f2	-0.17593363
10	0xbe7bc044	-0.24585062
11	0xbe12e1d6	-0.14343962
12	0x3e93e1b4	0.28883135
13	0x3e830540	0.25589943
14	0x3d8b4a17	0.06801241
15	0xbda2644d	-0.07929287
16	0x3e906880	0.28204727
17	0x3e45f025	0.19329889
18	0xbecbee8c	-0.39830434
19	0x3eb717be	0.357603
20	0xbd75c5ca	-0.06000308
21	0xbe30c15b	-0.1726126
22	0xbdd21ecc	-0.1025978
23	0xbe0e27e9	-0.13882412
24	0x3e40f1d4	0.1884225
25	0x3e55eafe	0.20890424
26	0x3e4708c4	0.19436938
27	0xbe3db62c	-0.18526524
28	0x3e7ee2f0	0.24891257
29	0xbe46c091	-0.19409396
30	0xbe5955af	-0.21224092
31	0xbe691db0	-0.22765231
32	0x3e2cc5b2	0.1687229
33	0xbdf4121e	-0.11917518
34	0xbd8e29f3	-0.06941595
35	0x3e0dafed	0.13836642
36	0x3e381c7e	0.17979619
37	0x3e26b587	0.16280185
38	0xbe26ab36	-0.1627625
39	0x3d8373f2	0.06418599
40	0xbec53530	-0.3851714
41	0xbe9a3efd	-0.3012618
42	0x3e5c2bb4	0.21501046
43	0x3d0b8743	0.034064543
44	0xbe1f88b5	-0.15579493
45	0x3e267c58	0.16258371
46	0xbe5d597e	-0.2161617
47	0xba754aeb	-0.0009357172
48	0x3e0ba92e	0.13638756
49	0x3d7b3e8f	0.061338957
50	0x3e0af40c	0.13569659
51	0xbdfe8152	-0.1242701
52	0x3de1ae95	0.11019627
53	0xbe57f2a6	-0.21088657
54	0xbe37186e	-0.17880413
55	0x3b0ad6ed	0.0021185235
56	0x3eeda175	0.46412244
57	0xbd677857	-0.05651125
58	0x3e731e76	0.23742089
59	0xbf431fa1	-0.76220137
60	0x3e8244e4	0.25443184
61	0x3e12cb12	0.14335278
62	0xbe3364d4	-0.17518932
63	0x3e9a14b2	0.30093914
64	0xbeba7ac1	-0.3642178
65	0x3e80bdb2	0.25144726
66	0x3d02b428	0.03191009
67	0xbd4a44f5	-0.04938217
68	0xbe8d66f5	-0.27617612
69	0xbe54504d	-0.20733757
70	0x3dabb82b	0.083847366
71	0xbe4b6b79	-0.19865216
72	0xbda7fec0	-0.082028866
73	0x3e42acbe	0.19011208
74	0xbdeabc87	-0.1146174
75	0xbee4ff1c	-0.44725883
76	0x3e6c3ec6	0.23070821
77	0x3d55d8e6	0.052208804
78	0x3e89b43a	0.26895314
79	0x3e802b9e	0.25033277
80	0xbe68e8ab	-0.22745006
81	0xbd28df1c	-0.0412284
82	0xbddfb506	-0.10923199
83	0x3e0da1ce	0.13831255
84	0x3e358ab2	0.1772869
85	0xbe16908d	-0.14703579
86	0x3c86d416	0.016458552
87	0x3da82b88	0.08211428
88	0xbde8ade0	-0.11361289
89	0x3d695fc9	0.056976113
90	0x3e7354f5	0.23762877
91	0xbe3f1969	-0.18662037
92	0x3dba123c	0.09085509
93	0x3e97c2d0	0.29640818
94	0x3e68c365	0.22730787
95	0xbd9ee025	-0.07757596
96	0x3e3f1037	0.18658529
97	0xbe7e2f6d	-0.24822779
98	0x3ec406d3	0.38286456
99	0x3e897bf4	0.2685238
100	0x3dbadd7e	0.091242775
101	0xbec20adb	-0.37898907
102	0xbea3d025	-0.3199474
103	0xbe55410e	-0.20825598
104	0x3d3178f7	0.04332825
105	0x3e14c02c	0.14526433
106	0x3dea2dff	0.11434554
107	0x3e53a4fa	0.20668402
108	0xbdc242ee	-0.09485422
109	0x3e5e5fcf	0.21716236
110	0xbe8271c4	-0.2547742
111	0xbe632d48	-0.22185242
112	0xbd8e698f	-0.069537275
113	0xbde774f6	-0.113016054
114	0xbefd126d	-0.4942812
115	0xbecd22c3	-0.40065584
116	0x3daf2f49	0.08553941
117	0xbe146091	-0.14489962
118	0x3e8693fe	0.26284784
119	0xbe3a1022	-0.18170217
120	0xbe4759db	-0.19467871
121	0xbe315c9c	-0.17320484
122	0x3d72ebc0	0.05930686
123	0xbe21732d	-0.15766592
124	0xbce48f9e	-0.027900513
125	0x3dd35342	0.103186145
126	0x3d168c9b	0.036755186
127	0xbdf6348f	-0.120217435
128	0x3e75a8d5	0.23990186
129	0xbf0058bf	-0.50135416
130	0x3e86bef1	0.26317552
131	0x3e0fe052	0.14050415
132	0xbd68faa3	-0.05687965
133	0x3e3b644d	0.1829998
134	0x3e2b0900	0.16702652
135	0xbe484b15	-0.19559892
136	0x3d9c1972	0.07622041
137	0xbe689a52	-0.22715119
138	0xbe84cebf	-0.25938985
139	0xbe8e87a1	-0.27837852
140	0x3e808bef	0.2510676
141	0x3dd5b60a	0.10435112
142	0x3d9fdfbe	0.07806347
143	0x3d2cdf1b	0.042204957
144	0x3ea7cf42	0.32775313
145	0x3e5be489	0.21473898
146	0xbe9c3bfe	-0.3051452
147	0x3eaf7178	0.34266257
148	0x3b811706	0.003939512
149	0xbe066f12	-0.13128307
150	0xbcbcba45	-0.023038039
151	0xbdd274a7	-0.10276156
152	0x3e48223d	0.19544311
153	0x3e78b3e0	0.24287367
154	0x3e556dfb	0.20842735
155	0xbe064dd7	-0.13115631
156	0x3e7363c8	0.23768532
157	0xbe50fea1	-0.20409633
158	0xbd8444f9	-0.06458468
159	0xbe6b4d55	-0.22978719
160	0x3e77370d	0.24142094
161	0xbe2e5145	-0.1702319
162	0xbdd3ecfd	-0.10347936
163	0x3db4196b	0.087939106
164	0x3e739bc0	0.23789883
165	0x3e841496	0.25796956
166	0xbdd7a473	-0.10529413
167	0x3da8c62f	0.082409255
168	0xbec1a4fb	-0.37821183
169	0xbe504cfc	-0.20341867
170	0x3ddd3f5c	0.108031005
171	0xbd053ad8	-0.03252682
172	0xbe51732c	-0.20454091
173	0x3e75c62d	0.2400138
174	0xbd9d7b1a	-0.076894954
175	0xbd3f2de4	-0.046674624
176	0x3dbef0fc	0.09323308
177	0x3e16d5c5	0.14729984
178	0x3e266f68	0.16253436
179	0xbdb50531	-0.08838881
180	0x3d5e29da	0.05423913
181	0xbe3332bf	-0.17499827
182	0xbe554164	-0.20825726
183	0x3dc3e61d	0.09565375
184	0x3ed215ef	0.4103236
185	0xbd0cf2a5	-0.03441109
186	0x3e0fb294	0.14032966
187	0xbf50cb4d	-0.8156021
188	0x3e2bd0f3	0.16778927
189	0x3e2b1698	0.16707838
190	0xbe33f3ca	-0.17573467
191	0x3e64565a	0.22298566
192	0xbead8f3f	-0.3389835
193	0x3e2ebe62	0.17064813
194	0xbe05bb00	-0.13059616
195	0xbd90f4bd	-0.0707793
196	0xbe80f44c	-0.25186384
197	0xbe45798c	-0.19284648
198	0x3dd2ef90	0.10299599
199	0xbe83c323	-0.25734815
200	0xbdf90641	-0.12159396
201	0x3e2adcbf	0.1668577
202	0x3d096e5f	0.033552524
203	0xbeecc74f	-0.4624581
204	0x3e1d21bf	0.15344904
205	0x3e1956c3	0.14974503
206	0x3e4a3b11	0.19749095
207	0x3e7cde7e	0.24694249
208	0xbdccb5dd	-0.09995625
209	0xbd04a6b7	-0.032385554
210	0xbe168df2	-0.14702585
211	0x3e054a14	0.1301654
212	0x3da0b5a1	0.07847143
213	0xbe1610c8	-0.14654839
214	0x3e15cf4b	0.14629857
215	0x3d195aeb	0.03744022
216	0xbe7e8db8	-0.24858749
217	0xbce67095	-0.028129855
218	0x3e4dca57	0.20096718
219	0xbd71867f	-0.058966156
220	0x3e0065ad	0.12538786
221	0x3e338e48	0.17534745
222	0x3e60f3d3	0.21968012
223	0xbe006e84	-0.12542158
224	0x3e3f9bb6	0.18711743
225	0xbebae8a1	-0.36505607
226	0x3eb88870	0.36041594
227	0x3e6930a9	0.22772469
228	0x3e3e55f3	0.18587475
229	0xbe840c49	-0.25790623
230	0xbea338e1	-0.31879333
231	0xbe1b11b2	-0.15143469
232	0x3cae17b8	0.021251544
233	0x3e00d704	0.12582022
234	0x3e2d766a	0.16939703
235	0x3e4afcd3	0.19823007
236	0xbe45450a	-0.19264618
237	0x3e69900e	0.22808859
238	0xbe89284f	-0.26788566
239	0xbe578f79	-0.21050824
240	0xbadad281	-0.0016694815
241	0xbde5da9d	-0.11223338
242	0xbeccf2fc	-0.40029132
243	0xbebc1985	-0.3673822
244	0x3df84b87	0.12123781
245	0xbe3c992d	-0.18417807
246	0x3e98c228	0.2983563
247	0xbe4e04e4	-0.20119053
248	0xbdbec995	-0.093157925
249	0xbe2d4433	-0.16920547
250	0x3e3ed6fb	0.18636696
251	0xbd43f8fb	-0.04784487
252	0x3c43a229	0.011940517
253	0x3e1060ef	0.14099477
254	0x3d873ff9	0.06603999
255	0xbe4c0cf8	-0.19926822

bias f4 [784]
0	0xbde40fd6	-0.11135833
1	0xbe6e1432	-0.23249891
2	0xbe0f87a9	-0.14016594
3	0xbd928bb1	-0.0715555
4	0xbdcd1984	-0.10014632
5	0xbdc1e485	-0.09467415
6	0xbe33e96e	-0.17569515
7	0xbe1c7641	-0.15279485
8	0xbe54abf0	-0.20768714
9	0xbddcfcff	-0.10790443
10	0xbe3f5d40	-0.18687916
11	0xbdaec5e7	-0.085338406
12	0xbdbf26d7	-0.0933358
13	0xbd9c1ef2	-0.0762309
14	0xbe089ad2	-0.1334031
15	0xbe33d541	-0.17561819
16	0xbe0b6638	-0.13613212
17	0xbe10eadc	-0.14152092
18	0xbdff3780	-0.12461758
19	0xbe56d6fb	-0.20980446
20	0xbe22fb9f	-0.15916298
21	0xbe69983e	-0.22811982
22	0xbe00243b	-0.12513821
23	0xbe0dcd75	-0.13847907
24	0xbda14966	-0.07875328
25	0xbe17ad22	-0.14812139
26	0xbe6fd3f7	-0.23420702
27	0xbe41ea8c	-0.18937129
28	0xbe19d8d8	-0.15024126
29	0xbde0de1a	-0.109798625
30	0xbde518b3	-0.111863516
31	0xbe3da1c9	-0.18518747
32	0xbd8a3e4e	-0.06750165
33	0xbe221122	-0.15826848
34	0xbe0dba7f	-0.13840674
35	0xbe523e7c	-0.20531648
36	0xbe0277bd	-0.12740989
37	0xbe38cc44	-0.18046671
38	0xbe7e82fe	-0.24854657
39	0xbe3faa8a	-0.18717399
40	0xbe88d3fc	-0.2672423
41	0xbe53f6d8	-0.20699632
42	0xbe81cd94	-0.25352156
43	0xbe1d2568	-0.153463
44	0xbe1141e8	-0.14185297
45	0xbdae68d6	-0.085160896
46	0xbe39a3e5	-0.18128927
47	0xbe29e1d1	-0.16590048
48	0xbe48fbd1	-0.1962731
49	0xbe08042f	-0.13282846
50	0xbdfc2e13	-0.123134755
51	0xbe78aed7	-0.24285446
52	0xbe0ed36a	-0.13947836
53	0xbe6dafae	-0.23211548
54	0xbdc5ea51	-0.09663833
55	0xbdf61305	-0.120153464
56	0xbe5f3cb2	-0.21800497
57	0xbe40a929	-0.1881453
58	0xbe612993	-0.21988516
59	0xbe0356a4	-0.1282602
60	0xbe36b9dd	-0.17844339
61	0xbe3b1075	-0.18267997
62	0xbe0be0fa	-0.1366004
63	0xbe752652	-0.239404
64	0xbe8a7a9d	-0.27046672
65	0xbe1dadf0	-0.15398383
66	0xbe8ca506	-0.27469653
67	0xbe25b21d	-0.16181226
68	0xbe91b2d6	-0.28456753
69	0xbe687b28	-0.2270323
70	0xbe52f1ee	-0.20600101
71	0xbe85abd7	-0.26107666
72	0xbec321ca	-0.38111717
73	0xbeac2e87	-0.33629248
74	0xbe9cf416	-0.30654973
75	0xbe98f118	-0.2987144
76	0xbe8bf96a	-0.27338725
77	0xbeae83f8	-0.3408506
78	0xbe7a0f39	-0.2441987
79	0xbe1645b1	-0.14675023
80	0xbe3a2433	-0.18177871
81	0xbe6133c7	-0.21992408
82	0xbe25a85c	-0.16177505
83	0xbe3d89d6	-0.18509611
84	0xbe686f6e	-0.22698757
85	0xbe06a9a8	-0.13150656
86	0xbd93b731	-0.07212675
87	0xbe6edfea	-0.23327604
88	0xbe1aaeb8	-0.15105712
89	0xbe4b4425	-0.19850214
90	0xbe85c523	-0.26126966
91	0xbe730be8	-0.2373501
92	0xbe54c7a5	-0.20779283
93	0xbeae03a2	-0.33987147
94	0xbeb74cf9	-0.35800913
95	0xbeb772ae	-0.3582968
96	0xbebb0c2f	-0.36532733
97	0xbeef69bd	-0.4676036
98	0xbeeccbbc	-0.46249187
99	0xbef6f5ed	-0.482345
100	0xbf01831c	-0.5059068
101	0xbeee01a3	-0.46485624
102	0xbeda7880	-0.4267006
103	0xbeb2c18b	-0.34913287
104	0xbe9f5712	-0.31121117
105	0xbea7a27b	-0.3274115
106	0xbe5156c9	-0.20443262
107	0xbe93af8f	-0.28844878
108	0xbe17ad77	-0.14812265
109	0xbdc48e48	-0.095974505
110	0xbe05c9fa	-0.13065329
111	0xbe49c40f	-0.19703697
112	0xbdd84577	-0.10560124
113	0xbe4b1d7e	-0.19835469
114	0xbdee7a37	-0.116444044
115	0xbde67396	-0.11252515
116	0xbda40641	-0.08009005
117	0xbe8cf7d7	-0.27532837
118	0xbe62a488	-0.22133076
119	0xbe9b91ec	-0.30384767
120	0xbeb8265c	-0.35966766
121	0xbef2880f	-0.4736943
122	0xbf0a79ab	-0.540919
123	0xbeffda2e	-0.49971145
124	0xbf020b1c	-0.507982
125	0xbf26a0c5	-0.65089065
126	0xbf23c6f4	-0.63975453
127	0xbf2f3d4f	-0.68452924
128	0xbf0b7446	-0.54474294
129	0xbf0f117f	-0.5588607
130	0xbec59ab5	-0.38594595
131	0xbeaf5630	-0.34245443
132	0xbe936fb2	-0.28796154
133	0xbe0db03c	-0.1383676
134	0xbe417c15	-0.1889499
135	0xbe4222e7	-0.18958627
136	0xbe67faf8	-0.2265433
137	0xbdecc051	-0.11560119
138	0xbe061262	-0.1309295
139	0xbe09de56	-0.1346372
140	0xbde1614f	-0.11004888
141	0xbd9422ca	-0.07233198
142	0xbe21a3bb	-0.15785114
143	0xbdd1958e	-0.102336034
144	0xbe561f44	-0.20910364
145	0xbe735b7e	-0.2376537
146	0xbe832ef8	-0.25621772
147	0xbec022af	-0.3752646
148	0xbeca8de2	-0.39561373
149	0xbedcd6da	-0.4313267
150	0xbece9fd0	-0.40356302
151	0xbefe1663	-0.49626455
152	0xbf0ad292	-0.54227555
153	0xbf0bdedf	-0.5463695
154	0xbf07a83f	-0.529911
155	0xbed6bcc2	-0.41940886
156	0xbebc1ad1	-0.3673921
157	0xbea5d387	-0.32387945
158	0xbdfa042b	-0.12207826
159	0xbd4d08a6	-0.050057076
160	0xbc32b5fa	-0.010907644
161	0x3cbf4d7f	0.023352383
162	0xbddb1ca9	-0.10698826
163	0xbe6bad59	-0.23015346
164	0xbe7deafb	-0.24796669
165	0xbe837a5b	-0.25679287
166	0xbe5871fb	-0.2113723
167	0xbe4e1480	-0.20125008
168	0xbe34160e	-0.17586538
169	0xbe3fe988	-0.18741429
170	0xbe3f791b	-0.18698542
171	0xbe6a23f4	-0.22865278
172	0xbe87ea37	-0.2654588
173	0xbe90a9d3	-0.28254566
174	0xbea253e0	-0.31704617
175	0xbeb6c78d	-0.3569912
176	0xbeb737c6	-0.3578474
177	0xbeaddf6d	-0.33959523
178	0xbee93271	-0.45546296
179	0xbe996460	-0.29959393
180	0xbece47ed	-0.4028925
181	0xbe783cc2	-0.24241927
182	0xbe82ce07	-0.2554781
183	0xbde6b598	-0.11265105
184	0xbe337750	-0.17525983
185	0xbdd541d9	-0.1041295
186	0xbdbc716f	-0.09201323
187	0x3d6ca4b7	0.05777427
188	0x3df474d4	0.11936346
189	0x3db29e0f	0.087215535
190	0xbd780c89	-0.06055883
191	0xbe489d77	-0.19591318
192	0xbe774106	-0.24145898
193	0xbe5d8715	-0.21633561
194	0xbe33f8b2	-0.17575338
195	0xbe716990	-0.23575425
196	0xbe649f48	-0.22326386
197	0xbe51828c	-0.20459956
198	0xbe7bca58	-0.24588907
199	0xbe1dea06	-0.15421304
200	0xbe18ccb4	-0.14921838
201	0xbdf7e5f1	-0.12104405
202	0xbe0f39a3	-0.1398683
203	0xbe5b2199	-0.21399535
204	0xbe9e8000	-0.3095703
205	0xbea8b1f5	-0.3294827
206	0xbe815efd	-0.25267783
207	0xbe4325bb	-0.19057362
208	0xbdccf956	-0.100084946
209	0xbc2777df	-0.010221451
210	0xbcc667d9	-0.02421944
211	0x3d253d3f	0.040341612
212	0x3d0b6df8	0.03404042
213	0xbe0a3bc0	-0.13499355
214	0xbddf6a60	-0.10908961
215	0xbc9d6ad0	-0.019215971
216	0x3e3f2fc3	0.18670563
217	0x3e5fbacb	0.218486
218	0x3bd84db8	0.0066010617
219	0xbe2c0259	-0.1679777
220	0xbe7385f0	-0.23781562
221	0xbe8a0082	-0.26953512
222	0xbef022d4	-0.46901572
223	0xbe2aab6d	-0.16666956
224	0xbdac4f40	-0.08413553
225	0xbe8c1084	-0.2735635
226	0xbe118a4b	-0.14212911
227	0xbe080d6b	-0.13286369
228	0xbe3b3fe2	-0.18286088
229	0xbdfe07f1	-0.124038585
230	0xbe25493e	-0.16141221
231	0xbe15c817	-0.1462711
232	0xbe3ba269	-0.18323673
233	0xbe31b20c	-0.17353076
234	0xbe2bb061	-0.16766502
235	0xbe1cebdd	-0.1532435
236	0xbce29c4e	-0.027662423
237	0xbd491704	-0.049094215
238	0x3d5d2f18	0.05399999
239	0xbe041298	-0.12897718
240	0xbe084d82	-0.13310817
241	0xbe40b6cd	-0.18819733
242	0xbe43c613	-0.19118528
243	0xbe45214f	-0.19250987
244	0x3e1b820e	0.1518633
245	0x3dc63a0f	0.096790425
246	0x3d78af52	0.060714073
247	0xbe0c8641	-0.13723089
248	0xbe797941	-0.24362661
249	0xbe8ec870	-0.27887297
250	0xbe0eced4	-0.13946086
251	0xbe6f7a2c	-0.23386449
252	0xbe476699	-0.19472732
253	0xbde5fa12	-0.11229338
254	0xbe1efb6f	-0.15525602
255	0xbddd2bdf	-0.10799383
